data/best_model.pt (torch, 158069 bytes, 50 tensors)

input_proj.weight f4 [30, 58]
0	0xbf4b5460	-0.7942562
1	0x3e27d14e	0.16388437
2	0xbd84d2d7	-0.06485527
3	0x3b813506	0.0039430885
4	0x3e68d0a7	0.22735845
5	0x3c85e326	0.016343664
6	0x3e98d497	0.29849693
7	0xbe88714c	-0.2664894
8	0xbe6047c6	-0.2190238
9	0xbe35ef59	-0.17767085
10	0x3e2c0819	0.16799964
11	0xbe3198d8	-0.17343462
12	0x3d8c97a8	0.06864864
13	0x3ea8126a	0.3282655
14	0x3e67d35e	0.22639224
15	0xbe67136f	-0.22566007
16	0x3ec73c40	0.38913155
17	0xbe254f1d	-0.1614346
18	0xbe21e8c1	-0.15811445
19	0x3e0908a3	0.13382201
20	0xbda657b6	-0.08122198
21	0x3e44174a	0.19149509
22	0xbdb3360f	-0.08750545
23	0xbca095a8	-0.019602612
24	0x3e81ddae	0.2536444
25	0xbc00949a	-0.007847929
26	0xbf1905b7	-0.59774345
27	0xbefdaf33	-0.4954773
28	0x3c6a6a62	0.01430759
29	0x3ed51e30	0.41624594
30	0x3e77e311	0.24207713
31	0x3e4dfa8f	0.20115112
32	0xbe942220	-0.28932285
33	0xbeac3e4e	-0.33641285
34	0x3ea492ea	0.32143337
35	0x3e7c0c24	0.24614006
36	0x3ea72606	0.32646197
37	0xbdc5e880	-0.096634865
38	0xbe2ae410	-0.16688561
39	0xbd302918	-0.04300794
40	0xbdcc8984	-0.099871665
41	0xbe163b38	-0.14671028
42	0x3ddf7fe3	0.10913064
43	0xbd0e1d6b	-0.034696024
44	0x3e006bb4	0.12541085
45	0x3e129411	0.14314295
46	0x3d840cd7	0.064477615
47	0x3ed03920	0.40668583
48	0x3d90bed1	0.07067645
49	0x3d86342d	0.065529205
50	0x3bb0df63	0.0053977235
51	0x3b8a5932	0.0042220587
52	0x3d21d8e9	0.039513502
53	0x3d373a4c	0.04473333
54	0x3cd2b05a	0.025718857
55	0xbdd47fa4	-0.10375908
56	0xbd8f46c2	-0.06995918
57	0xbc834663	-0.016024774
58	0x3b6144f3	0.0034373372
59	0xbd5cf19f	-0.053941365
60	0xbdfc6948	-0.12324768
61	0x3b98f43b	0.0046677864
62	0xbd71b8e5	-0.05901422
63	0x3f1fafe2	0.6237775
64	0xbec1c355	-0.3784434
65	0xbf1cede0	-0.6130047
66	0x3f1a65e0	0.603117
67	0xbe8f31ed	-0.27967778
68	0xbec92245	-0.39283958
69	0xbeceb624	-0.40373337
70	0xbee90e80	-0.45518875
71	0xbeb9664d	-0.36210862
72	0x3e3017d0	0.17196584
73	0xbe18c9e8	-0.14920771
74	0xbddd58b7	-0.10807937
75	0xbdc949ab	-0.09828504
76	0x3f00fd34	0.5038636
77	0x3d80af36	0.06283419
78	0xbe398985	-0.18118866
79	0x3ef17f2e	0.47167343
80	0x3e780745	0.24221523
81	0x3e5a2d30	0.213063
82	0xbede622c	-0.43434274
83	0xbe035565	-0.12825544
84	0x3d9b5168	0.075838864
85	0xbd7a8d3f	-0.06116986
86	0xbee04a0d	-0.43806496
87	0xbe81ec47	-0.25375578
88	0xbd8eaec3	-0.06966927
89	0xbf21368c	-0.62973857
90	0xbe1a9bd0	-0.150985
91	0xbd5da280	-0.05411005
92	0x3f4d0d86	0.8009876
93	0x3dfcce9c	0.12344095
94	0x3e782949	0.24234499
95	0x3e04f776	0.12985024
96	0xbe30959f	-0.17244576
97	0x3c471563	0.012151095
98	0xbdbe8ece	-0.093045816
99	0x3e826dcf	0.25474402
100	0x3e38d956	0.18051657
101	0x3e73d129	0.23810257
102	0xbd4805b3	-0.04883356
103	0xbd863c4b	-0.06554469
104	0xbd3878ed	-0.0450372
105	0x3d886139	0.06659169
106	0x3dbe03d9	0.09278078
107	0x3d550ccd	0.05201416
108	0x3c97a59d	0.018511588
109	0xbc8bc0ab	-0.017059645
110	0x3dc61568	0.09672052
111	0x3c9d3f85	0.019195328
112	0x3d56ea4b	0.052469533
113	0xbcd0614b	-0.025437018
114	0x3de03805	0.10948185
115	0xbd44c00d	-0.048034716
116	0xbd11cf7e	-0.03559827
117	0xbe519d4a	-0.20470157
118	0xbe40ab3f	-0.18815325
119	0x3c48354f	0.012219741
120	0xbef986d3	-0.48735675
121	0xbe5ecfe1	-0.21758987
122	0xbe467026	-0.19378719
123	0xbf199132	-0.59987175
124	0x3ee6da34	0.4508835
125	0xbe65acba	-0.22429171
126	0xbe3cf88a	-0.18454185
127	0xbeaeae3e	-0.3411731
128	0xbee5a67a	-0.44853574
129	0xbecaa56d	-0.39579335
130	0xbf0aab20	-0.54167366
131	0xbcde04a4	-0.027101822
132	0xbe5498bc	-0.20761389
133	0x3eef0dc8	0.46690202
134	0x3db03e71	0.0860566
135	0x3b77eef8	0.0037831645
136	0xbe47b0da	-0.19501057
137	0x3ef8992d	0.48554364
138	0x3c98c1f9	0.01864718
139	0x3dcc0200	0.09961319
140	0xbf5e3872	-0.8680488
141	0xbd504ab1	-0.05085248
142	0x3e73e450	0.23817563
143	0x3c8ea931	0.017414661
144	0xbee1c45e	-0.4409513
145	0xbf023ebc	-0.50876975
146	0xbe310080	-0.17285347
147	0xbec9ca56	-0.39412183
148	0x3f154b05	0.58317596
149	0x3f081729	0.5316034
150	0x3e36f5e3	0.17867236
151	0x3e250603	0.16115575
152	0x3cd774fc	0.0263009
153	0x3e09c935	0.1345566
154	0x3f2b1740	0.6683235
155	0x3eaefa8b	0.34175524
156	0xbe5c4f21	-0.2151456
157	0x3e17d516	0.1482738
158	0xbdfb86aa	-0.122815445
159	0x3e2f039a	0.17091218
160	0xbe8b74ee	-0.27237648
161	0x3d7ba8c5	0.061440248
162	0x3ca727b2	0.02040467
163	0x3eb08327	0.3447506
164	0x3e440983	0.19144253
165	0x3e8d9c0b	0.27658114
166	0x3d9ce7f2	0.076614276
167	0x3d6638ac	0.05620639
168	0xbd9e59a6	-0.07731943
169	0x3cfe92aa	0.031075794
170	0x3e17c244	0.148202
171	0x3e0dd0a9	0.13849129
172	0xbd826dcf	-0.063686006
173	0x3d98a32a	0.07452996
174	0xbdacc7a8	-0.08436519
175	0x3c01c382	0.007920148
176	0x3da15712	0.078779355
177	0xbcc5ff6b	-0.024169644
178	0x3ea2bf10	0.31786394
179	0xbe9a1de9	-0.30100945
180	0x3c9f914d	0.019478464
181	0x3f515205	0.81765777
182	0xbe69895f	-0.22806309
183	0x3e73462c	0.23757237
184	0x3e138e3d	0.14409728
185	0x3ee22357	0.44167587
186	0x3ea2bbe8	0.31783986
187	0xbe4983e7	-0.19679223
188	0x3e89096d	0.26765004
189	0xbd88af3f	-0.066740505
190	0x3f0498ee	0.5179585
191	0x3ea47828	0.32122922
192	0x3f0adfcd	0.5424774
193	0x3ea22b93	0.3167387
194	0x3e2b88fa	0.16751471
195	0xbf6464ba	-0.89216197
196	0x3ec46c90	0.38364077
197	0x3e5a0e75	0.21294577
198	0x3eeea1d2	0.46607834
199	0x3e5626ec	0.20913285
200	0xbec9c67e	-0.3940925
201	0x3e3a3410	0.18183923
202	0xbe38986a	-0.18026891
203	0x3dc46965	0.09590415
204	0x3e1767a9	0.14785637
205	0x3f797f21	0.9745961
206	0xbd547a74	-0.051874593
207	0xbe95b4c1	-0.29239467
208	0xbf04a694	-0.5181668
209	0xbf19f6b4	-0.60142064
210	0xbdee8c93	-0.11647906
211	0xbeec0da9	-0.46104172
212	0xbe9dab10	-0.30794573
213	0xbeabe02c	-0.33569467
214	0x3ec2072b	0.37896094
215	0xbe84ce34	-0.2593857
216	0x3cc1c817	0.02365498
217	0xbc91482e	-0.017734613
218	0xbe607d54	-0.21922809
219	0xbe21ce1b	-0.15801279
220	0xbea8e140	-0.32984352
221	0xbf29c8c7	-0.66321987
222	0xbea00efa	-0.31261426
223	0xbe4c6192	-0.19959095
224	0xbca7eb8c	-0.02049806
225	0x3cfa2548	0.030535355
226	0xbd9bc31a	-0.07605572
227	0x3d67e88b	0.056618255
228	0xbe897469	-0.26846626
229	0xbe285f57	-0.1644262
230	0xbd40fde2	-0.04711712
231	0x3c51a108	0.0127947405
232	0x3e8ebd29	0.27878693
233	0x3e203559	0.1564535
234	0x3c7fff4f	0.015624835
235	0xbc64f5de	-0.013974635
236	0x3dbf3349	0.09335954
237	0x3e9472f7	0.2899396
238	0x3eccee38	0.40025496
239	0xbecdc936	-0.40192574
240	0x3e8117c3	0.2521344
241	0x3bd138ee	0.0063849604
242	0x3e5d8f2f	0.21636651
243	0xbf05597c	-0.5208967
244	0xbedfed53	-0.43735752
245	0xbd98c767	-0.07459908
246	0x3ca05986	0.019573938
247	0x3db8b9bc	0.09019801
248	0x3eaa5b56	0.3327281
249	0xbe94d6df	-0.29070184
250	0xbe682b3b	-0.22672741
251	0x3edd4dd8	0.43223453
252	0xbe5bb002	-0.2145386
253	0xbe3ab864	-0.18234402
254	0xbdbcbb3f	-0.09215402
255	0xbd36fb86	-0.044673465

input_proj.bias f4 [30]
0	0x3d8aba74	0.06773844
1	0xbd42fae1	-0.047602538
2	0xbe12ba49	-0.14328875
3	0x3b82acf2	0.003987902
4	0xbdd5bfaf	-0.10436951
5	0xbde02c38	-0.10945934
6	0xb9b7f9a3	-0.00035090474
7	0xbda7966b	-0.08182987
8	0x3e17cd3c	0.14824384
9	0xbddb30ae	-0.10702644
10	0x3d6a4848	0.05719784
11	0xbdbedec4	-0.09319833
12	0x3cfb3ae8	0.030667737
13	0xbdab303f	-0.083588116
14	0xbd2ba4fb	-0.041905385
15	0xbc6b6456	-0.014367184
16	0x3c85c152	0.016327534
17	0xbd33d86c	-0.043907568
18	0x3dc37545	0.09543852
19	0xbde836bc	-0.11338565
20	0x3c6c3708	0.014417417
21	0x3da95eb9	0.0827002
22	0xbd9908fe	-0.07472418
23	0xbdd5cd87	-0.10439592
24	0x3cb03c46	0.021513116
25	0x3d86157f	0.06547069
26	0xbdc71b76	-0.09722035
27	0x3d9f6d38	0.07784504
28	0xbd64eaae	-0.05588787
29	0xbcc335a6	-0.023829293

attention_layers.0.AttentionBlock.keys_linear.weight f4 [30, 30]
0	0x3d12ae6f	0.035810884
1	0x3ceae58b	0.028673908
2	0x3d99332a	0.07480462
3	0xbcf429f7	-0.029805167
4	0xbd8aa20f	-0.067691915
5	0x3ce354e6	0.027750444
6	0x3d6658f9	0.056237195
7	0xbe0c7ba5	-0.13719042
8	0x3e075541	0.13216116
9	0xbe1d9df8	-0.15392292
10	0xbcd34758	-0.025790855
11	0xbd91ffd3	-0.07128873
12	0x3dae6221	0.0851481
13	0x3d90e48b	0.07074841
14	0x3e2962e0	0.16541624
15	0xbdaf3228	-0.085544884
16	0xbce9159c	-0.028452687
17	0x3e5dc345	0.2165652
18	0xbd924368	-0.07141763
19	0x3e029b4b	0.12754552
20	0xbdf59596	-0.11991422
21	0xbb630309	-0.003463926
22	0xbde79bfa	-0.11309047
23	0xbd54491a	-0.051827528
24	0xbd88a706	-0.06672482
25	0x3dea04e7	0.11426716
26	0xbd1c35ef	-0.038137373
27	0xbe20aa08	-0.15689862
28	0x3d4c6e39	0.049909804
29	0xbe2538f6	-0.1613501
30	0xbde8bc83	-0.11364081
31	0x3de51b5a	0.111868575
32	0x3e310e1a	0.17290536
33	0x3ce6d68d	0.028178478
34	0xbdd13aaf	-0.10216271
35	0x3d760ff0	0.060073793
36	0x3df005c3	0.11719849
37	0xbdc9a482	-0.098458305
38	0xbd9003fa	-0.070320085
39	0x3cbae142	0.02281249
40	0x3df1cf8b	0.11807164
41	0xbe1907d0	-0.14944386
42	0x3c5fcb17	0.01365926
43	0x3e70083f	0.23440646
44	0x3e07f16f	0.13275693
45	0x3e1f3520	0.1554761
46	0x3b22517d	0.002476781
47	0xbe229a6d	-0.15879221
48	0x3e5cb6e3	0.21554141
49	0x3d03df59	0.032195423
50	0xbdc66172	-0.09686555
51	0xbcefce33	-0.029273128
52	0x3e2b6896	0.16739115
53	0x3d9bde34	0.07610741
54	0xbc2deaa6	-0.010615027
55	0x3e15db9a	0.14634553
56	0xbe27412a	-0.16333452
57	0x3d83209e	0.064027056
58	0x3e096aa9	0.13419594
59	0x3dee7018	0.11642474
60	0xbe05018d	-0.12988873
61	0x3d834615	0.064098515
62	0xbe1ee7ca	-0.15518108
63	0x3de07207	0.10959249
64	0x3d840aa6	0.064473435
65	0xbca46492	-0.020067487
66	0xbdd6f702	-0.10496332
67	0xbc7b4c2f	-0.015337988
68	0x3daf9afd	0.085744835
69	0xbe48b043	-0.19598489
70	0xbddabb16	-0.10680215
71	0xbdce0089	-0.10058696
72	0xbda357c0	-0.07975721
73	0xbd2007ca	-0.03906993
74	0xbda63d5b	-0.081171714
75	0xbd313c5b	-0.04327045
76	0xbdb590c7	-0.08865505
77	0xbcb7fbee	-0.022458997
78	0x3e03715a	0.12836209
79	0xbe05ec9d	-0.13078542
80	0x3e023742	0.12716392
81	0xbc159d3a	-0.009131724
82	0xbd7be183	-0.06149436
83	0x3d9ea2a1	0.07745863
84	0xbdc8785c	-0.09788582
85	0xbd1f98be	-0.038964026
86	0xbcb9c4c9	-0.022676842
87	0x3af1ffe8	0.0018463107
88	0x3daf11ee	0.08548342
89	0x3e00f035	0.12591632
90	0xbda98c8d	-0.08278761
91	0x3e29b4dd	0.165729
92	0xbd807b35	-0.062735
93	0x3dc1226d	0.09430394
94	0xbe196c3f	-0.14982699
95	0x3d6fd016	0.058548056
96	0x3dce515d	0.100741126
97	0xbe4b5376	-0.19856057
98	0x3d8f88da	0.07008524
99	0x3d4546d4	0.04816325
100	0x3cacfd4c	0.021116875
101	0xbde29f1d	-0.11065505
102	0x3d31eff9	0.043441746
103	0xbc7817d7	-0.015142403
104	0xbde4ea40	-0.11177492
105	0x3d99b493	0.07505145
106	0x3dafddca	0.08587225
107	0x3e3e49b8	0.18582809
108	0xbd1ff8ab	-0.039055508
109	0xbc17fcf3	-0.009276616
110	0x3e37608e	0.17907926
111	0xb9f4aa0e	-0.00046666007
112	0xbdf34c3f	-0.11879777
113	0x3c8ce69f	0.017199812
114	0x3dfd6c70	0.123741984
115	0x3c4b3e82	0.01240504
116	0x3da9bd37	0.08288043
117	0x3c3f4986	0.011675244
118	0xbe0834ad	-0.13301344
119	0xbc874522	-0.016512457
120	0x3da446de	0.08021329
121	0xbd89c4e9	-0.06727011
122	0x3e07a0e7	0.13244973
123	0xbd26e0b0	-0.040741622
124	0x3cf6619f	0.030075846
125	0x3e5db7b4	0.21652108
126	0x3ce0b7dc	0.027431421
127	0xbdf17e6a	-0.1179169
128	0xbe0f5d6b	-0.1400048
129	0x3d4b393a	0.049615122
130	0x3d550a99	0.05201206
131	0xbdf85c35	-0.12126962
132	0x3e386b73	0.18009739
133	0xbe045146	-0.12921628
134	0xbe9b9167	-0.3038437
135	0x3c5a5e1f	0.013328104
136	0xbb79d0ef	-0.003811892
137	0xbe7f6202	-0.24939731
138	0xbd65290f	-0.05594736
139	0x3e3b95c1	0.18318845
140	0xbd668c3b	-0.056286078
141	0x3d5b4e85	0.05354168
142	0xbe44b261	-0.19208671
143	0x3b7fbc0c	0.0039021997
144	0xbd0e3916	-0.03472241
145	0x3ded8e11	0.11599363
146	0x3ddf267d	0.10896013
147	0xbe5215da	-0.20516148
148	0xbd37c915	-0.0448695
149	0x3d2cab7a	0.04215572
150	0xbe039ee1	-0.12853576
151	0x3d146c27	0.036235955
152	0x3e36fa38	0.17868888
153	0xbdc36781	-0.09541226
154	0x3dd91095	0.10598866
155	0x3d769c04	0.06020738
156	0x3e299f9a	0.1656479
157	0xbd973d7b	-0.07384773
158	0x3dd0bde0	0.10192466
159	0x3e2673e4	0.16255146
160	0xbe2383d1	-0.15968253
161	0x3e4a8983	0.19779019
162	0xbdf66435	-0.12030832
163	0x3cf5af59	0.029990839
164	0xbeb9181d	-0.3615121
165	0xbdfe7916	-0.12425439
166	0xbdb970f2	-0.09054746
167	0xbe95b498	-0.29239345
168	0xbdd8b125	-0.10580663
169	0x3da00b2a	0.078146294
170	0xbb5a100a	-0.003327372
171	0xbd43e1ac	-0.04782264
172	0xbd5cd5e8	-0.053914934
173	0x3e134734	0.1438263
174	0x3e56e6fc	0.20986551
175	0xbdf12510	-0.11774647
176	0xbd33f9e0	-0.04393947
177	0xbdb55311	-0.08853734
178	0xbd52d67a	-0.051474072
179	0x3d4106d8	0.047125667
180	0x3c274ee2	0.010211678
181	0xbd711258	-0.058855385
182	0x3ddf0a8b	0.10890683
183	0xbe48dbc2	-0.19615081
184	0x3da7c472	0.08191766
185	0x3e501626	0.20320949
186	0x3dfcf3b9	0.12351174
187	0xbc150b66	-0.009096956
188	0xbe8d03bd	-0.27541915
189	0xbd18803e	-0.037231676
190	0xbdbe3c80	-0.09288883
191	0x3baa4b80	0.0051969886
192	0xbd4604ca	-0.04834441
193	0xbe758719	-0.23977317
194	0xbd3efb54	-0.046626404
195	0x3dde2b28	0.10848075
196	0x3e3c1756	0.18368277
197	0xbe0010ba	-0.1250638
198	0x3d65a64c	0.056066796
199	0xbc0626e3	-0.008187982
200	0x3e69c37a	0.22828475
201	0x3e01a2c0	0.1265974
202	0x3d87535d	0.06607697
203	0xbcecd371	-0.028909417
204	0xbd9aebad	-0.07564483
205	0xbdf23774	-0.11826983
206	0x3e41b718	0.18917501
207	0xbe1fb87b	-0.15597717
208	0x3d178dd6	0.0370005
209	0x3db1915a	0.08670302
210	0x3cba79f1	0.022763224
211	0x3e16bbe6	0.14720115
212	0x3c321499	0.010869169
213	0x3d951d14	0.07280937
214	0x3de93866	0.1138771
215	0x3d528704	0.051398292
216	0x3e14909a	0.14508286
217	0x3d7fb9b2	0.062432952
218	0xbe18769a	-0.14888993
219	0xbded4e1b	-0.11587163
220	0x3e2e5760	0.17025518
221	0xbd101963	-0.03518046
222	0x3c94417b	0.01809763
223	0xbdff718c	-0.12472829
224	0xbe9144f9	-0.28372934
225	0x3d51466f	0.05109256
226	0x3d5b2580	0.05350256
227	0xbd8ad697	-0.06779211
228	0x3d27c769	0.040961657
229	0x3c9ce1b3	0.01915059
230	0xbd3049dc	-0.043039188
231	0x3e032722	0.12807897
232	0x3d766fd3	0.060165238
233	0x3e155334	0.1458252
234	0x3dbf67d6	0.09345977
235	0x3d712c1f	0.058879968
236	0xbe0188ab	-0.12649791
237	0xbdef7360	-0.11691928
238	0x3e0e4103	0.13891988
239	0xbd52eb15	-0.051493723
240	0xbd835115	-0.064119495
241	0x3df5a9c7	0.11995273
242	0xbe292339	-0.16517343
243	0x3e0ba2e3	0.13636355
244	0x3d74adee	0.059736185
245	0xbdb17ab4	-0.08665982
246	0x3e176c7f	0.14787482
247	0x3d39af5d	0.045333255
248	0x3dae3859	0.08506841
249	0xbd9da6bd	-0.076978184
250	0x3d3c7ddc	0.046018466
251	0xbd110b99	-0.03541145
252	0xbdf26993	-0.11836543
253	0x3e717436	0.23579487
254	0x3e06bad1	0.13157202
255	0x3d714197	0.058900442

attention_layers.0.AttentionBlock.keys_linear.bias f4 [30]
0	0xbc970e47	-0.018439425
1	0xbe2e711e	-0.17035338
2	0x3d0b2198	0.033967584
3	0x3e9ee171	0.31031373
4	0x3e50bbdd	0.20384164
5	0x3e7c2278	0.24622524
6	0x3c18945c	0.009312715
7	0x3d6fac82	0.058514126
8	0x3de7fb88	0.11327273
9	0xbe66593d	-0.22494979
10	0x3d84e157	0.06488293
11	0x3e9a88b9	0.30182436
12	0xbeb3937d	-0.35073462
13	0xbd97fdd5	-0.074214615
14	0x3d81a53b	0.06330343
15	0x3d3cc328	0.046084553
16	0x3e052731	0.13003232
17	0x3e63a6fc	0.22231668
18	0xbc4dae3a	-0.012553746
19	0xbcfdf0da	-0.030998636
20	0xbbe96a3e	-0.0071232608
21	0x3e28a935	0.16470797
22	0xbe5b9b21	-0.21445896
23	0x3d012907	0.031533267
24	0xbd1dbbf1	-0.038509313
25	0x3e412422	0.1886144
26	0xbdb06cbe	-0.08614491
27	0x3e732d6b	0.23747794
28	0xbdc3ea25	-0.09566144
29	0x3cdfa7f1	0.02730176

attention_layers.0.AttentionBlock.queries_linear.weight f4 [30, 30]
0	0x3d934ad8	0.0719201
1	0x3b15927a	0.0022822903
2	0x3d0be640	0.03415513
3	0x3d5c4338	0.053775042
4	0xbdcb8b2d	-0.09938655
5	0xbdac55c6	-0.084147975
6	0xbdd984f2	-0.106210604
7	0xbdb2223a	-0.086979344
8	0xbb4e8cd0	-0.0031517036
9	0xbd919277	-0.07108014
10	0xbc498981	-0.01230085
11	0x3d737a9e	0.05944311
12	0x3deffac1	0.117177494
13	0xbcc8ad5d	-0.024496729
14	0xbd1f5f9b	-0.038909536
15	0x3c815273	0.015786385
16	0xbd4a8212	-0.04944045
17	0xbd371ced	-0.04470532
18	0x3c6cc0d8	0.014450274
19	0xbd905027	-0.07046538
20	0xbb19c458	-0.0023462977
21	0x3d3af362	0.045642264
22	0x3d80e826	0.06294279
23	0xbd78d1cb	-0.06074695
24	0x3c1149e3	0.008867714
25	0x3c80654e	0.015673306
26	0x3d77449f	0.060368177
27	0xbd13dbd3	-0.036098313
28	0x3e22230b	0.1583368
29	0xbdc327e9	-0.09529097
30	0xbdf0cf95	-0.11758343
31	0x3a6d021c	0.0009041147
32	0xbd138ebd	-0.036024798
33	0xbbc1ecd7	-0.005918126
34	0x3e11c861	0.14236595
35	0xbd99a848	-0.075028
36	0x3c49e807	0.012323386
37	0x3ce3c83f	0.027805446
38	0x3913b6f2	0.00014087165
39	0x3db17183	0.08664229
40	0xbdded4a1	-0.108803995
41	0xbced35f2	-0.028956387
42	0xbd9c1b8b	-0.07622441
43	0x3cb3ccf7	0.02194832
44	0xbd5ffa85	-0.054682273
45	0x3e09eef0	0.13470054
46	0xbd8a2487	-0.06745248
47	0xbd9acfc2	-0.07559158
48	0x3de357e5	0.11100749
49	0xbe093382	-0.13398555
50	0x38e40784	0.00010873287
51	0x3e342ff2	0.17596415
52	0xbe21fb50	-0.15818524
53	0xbde8c81e	-0.11366294
54	0xbda00422	-0.07813288
55	0xbde32281	-0.110905655
56	0x3c6aa174	0.01432072
57	0xbd4d3369	-0.050097857
58	0xbca795d2	-0.020457182
59	0x3ac95dc0	0.0015363023
60	0xbc4b95d9	-0.012425863
61	0x3c7cba7c	0.015425321
62	0xbc680234	-0.0141606815
63	0x396ab683	0.0002238397
64	0x3da671c4	0.08127168
65	0xbe2befab	-0.16790645
66	0x3e10a570	0.1412561
67	0xbcfd597d	-0.03092646
68	0xbda79d5f	-0.08184313
69	0xbd05810f	-0.032593783
70	0x3c0bb01d	0.008525875
71	0x3e3df580	0.18550682
72	0xbd2a9386	-0.041644596
73	0xbd901998	-0.070361316
74	0x3dc7ef25	0.0976241
75	0xbd4d1c46	-0.05007579
76	0xbdadfa2a	-0.08494981
77	0xbe23031a	-0.15919152
78	0x3d9a0745	0.07520918
79	0xbc64cbb1	-0.013964579
80	0xbcca6d8f	-0.024710445
81	0xbd5be9ed	-0.053689886
82	0xbd8243c5	-0.06360582
83	0x3c9386eb	0.01800867
84	0xbca972b2	-0.020684574
85	0x3cf74201	0.03018284
86	0xbc87a7e9	-0.016559558
87	0x3d885a4d	0.066578485
88	0xbd084195	-0.03326567
89	0x3da12927	0.07869177
90	0xbd806501	-0.06269265
91	0xbc86ed59	-0.016470598
92	0xbd973a32	-0.07384147
93	0x3cc53dd1	0.024077328
94	0xbe28e85f	-0.16494893
95	0xbe0bbb96	-0.13645777
96	0x3d7ab914	0.06121166
97	0x3c31cda0	0.0108522475
98	0xbdc89d61	-0.09795643
99	0x3d35a4d3	0.04434664
100	0x3dbcb32d	0.092138626
101	0x3daa7d45	0.083246745
102	0xbd17e62d	-0.037084747
103	0xbcd637ac	-0.026149593
104	0xbdd6190b	-0.10453995
105	0x3dc26551	0.09491981
106	0xbe10c7e2	-0.14138749
107	0xbd902ca3	-0.07039764
108	0x3e6d1b9c	0.23155063
109	0x3ca77d38	0.020445451
110	0xbe0b14b7	-0.13582121
111	0x3de99c0f	0.11406719
112	0x3d69d13a	0.0570843
113	0x3d8840f4	0.06653014
114	0x3bbf2689	0.005833451
115	0xbc951314	-0.018197574
116	0x3d90926d	0.070591785
117	0x3e04d24c	0.12970847
118	0xbcc06696	-0.023486417
119	0x3cbd6819	0.023120927
120	0x3d681949	0.05666474
121	0x3d9e84a1	0.07740141
122	0x3e038e9e	0.12847373
123	0x3cb31f31	0.02186546
124	0xbdffcd92	-0.12490381
125	0xbd84d7ce	-0.06486474
126	0x3d5b007c	0.05346726
127	0xbdc3930c	-0.09549531
128	0x3c85d0cb	0.016334912
129	0x3dd14935	0.10219041
130	0x3d99ced2	0.07510151
131	0x3c8ef794	0.017452039
132	0x3d2526c6	0.04032018
133	0xbd5da6fc	-0.054114327
134	0x3e2935c1	0.16524412
135	0x3d70411e	0.05865585
136	0x3c9a2e09	0.01882078
137	0x3cd22d77	0.025656445
138	0x3ce5b406	0.028039943
139	0xbcf15405	-0.029459009
140	0xbe098783	-0.134306
141	0xbda5a776	-0.08088581
142	0x3ccab8cc	0.024746321
143	0x3d45980d	0.04824071
144	0xbd831b71	-0.064017184
145	0xbdf26859	-0.11836309
146	0x3d505b3b	0.050868254
147	0x3d6f3179	0.05839679
148	0x3e227b42	0.15867332
149	0x3d27830a	0.040896453
150	0xbd4bbc37	-0.049740043
151	0xbe3e4806	-0.18582162
152	0x3b6f069f	0.0036472452
153	0x3e09a873	0.13443165
154	0xbd44b6c4	-0.04802586
155	0x3e061313	0.13093214
156	0x3e295718	0.1653713
157	0xbe306179	-0.17224683
158	0x3d941ead	0.072324134
159	0x3db5311c	0.088472575
160	0x3b800809	0.003907208
161	0x3dfe0026	0.12402372
162	0xbdfc6ec5	-0.12325815
163	0x3e020b9c	0.12699741
164	0xbdd1367b	-0.102154694
165	0xbd08a8ce	-0.03336411
166	0xbccb9b0f	-0.024854211
167	0xbe18635e	-0.14881656
168	0x3ca75926	0.020428251
169	0xbcc06204	-0.023484237
170	0xbb0a56d7	-0.002110889
171	0x3dac5229	0.08414108
172	0xbd26e0a4	-0.040741578
173	0x3d91fe7c	0.07128617
174	0x3d04ff8a	0.032470264
175	0xbd5d6936	-0.054055415
176	0x3d08d10a	0.03340248
177	0xbdcfe426	-0.10150938
178	0xbd94ac8f	-0.072594754
179	0x3c116f7e	0.008876679
180	0x3dd685bd	0.10474727
181	0x3ddf4540	0.1090188
182	0xbe0973db	-0.13423102
183	0x3d31fd87	0.043454673
184	0xbe37c87c	-0.17947572
185	0x3d163463	0.036671054
186	0x3dbed623	0.09318187
187	0x3e12788a	0.14303795
188	0xbd9be41e	-0.07611869
189	0x3d4d227a	0.050081708
190	0x3d10214b	0.035188
191	0x3d9f7206	0.0778542
192	0x3d1ee655	0.03879388
193	0x3a4d5927	0.0007833414
194	0x3cf548b3	0.029941892
195	0x3c2d2614	0.010568161
196	0x3e0b22e9	0.13587536
197	0x3e0cb3c0	0.13740444
198	0x3e3e4498	0.18580854
199	0x3de7c3e0	0.11316657
200	0x3d2ab7f7	0.04167935
201	0x3dabcb44	0.08388379
202	0xbbde58f2	-0.0067855055
203	0x3d8e16bb	0.06937929
204	0x3d90ea93	0.070759915
205	0x3bb1d3bf	0.0054268534
206	0x3afec139	0.0019436247
207	0x3df1af17	0.11800974
208	0x3d9c329a	0.07626839
209	0x3d68dc63	0.056850802
210	0x3ce73101	0.02822161
211	0x3d1b879c	0.037971124
212	0xbcdd5e2c	-0.027022444
213	0x3e2b155c	0.16707367
214	0x3dd8af2c	0.105802864
215	0xbdf4e27b	-0.1195726
216	0x3d62acab	0.05534045
217	0xbc998147	-0.018738402
218	0x3b740db0	0.0037239604
219	0x3e0ae27f	0.13562964
220	0x3c594cdd	0.013262955
221	0x3de88c5d	0.11354897
222	0xbd21bbcd	-0.03948574
223	0xbe407045	-0.18792827
224	0xbda97c07	-0.082756095
225	0xbe034e91	-0.1282294
226	0xbc7717ae	-0.015081329
227	0xbd8741ed	-0.06604371
228	0x3df3ec02	0.11910249
229	0x3c1b23b2	0.00946896
230	0x3c83930f	0.016061334
231	0x3dbf468a	0.09339626
232	0x3d5c7fcc	0.053832814
233	0xbd892994	-0.066973835
234	0xbe046b62	-0.12931588
235	0xbc97d0ce	-0.018532183
236	0xbe0ddc9d	-0.13853689
237	0x3dc233ab	0.09482511
238	0xbd317faf	-0.04333466
239	0x3d3ff666	0.046865843
240	0xbe2352e2	-0.15949586
241	0xbd9fd1e6	-0.07803707
242	0xbd32887a	-0.043587185
243	0x3d1f1f8b	0.03884844
244	0x3da05d73	0.07830324
245	0xbd8fd427	-0.07022887
246	0x3caa11e3	0.020760482
247	0x3d9ddff8	0.07708734
248	0xbd9c899b	-0.07643434
249	0xbde8d676	-0.1136903
250	0x3dac9df9	0.084285684
251	0x3da24b5f	0.07924532
252	0xbd0f2e25	-0.034956116
253	0xbc760a1d	-0.01501706
254	0xbe37cf78	-0.17950237
255	0xbccc16ba	-0.02491318

attention_layers.0.AttentionBlock.queries_linear.bias f4 [30]
0	0x3d2cb122	0.042161115
1	0x3e65e4d3	0.22450571
2	0xbd132009	-0.035919223
3	0xbb5fef77	-0.0034169832
4	0xb8bb2132	-8.923038e-05
5	0x3dcb2082	0.0991831
6	0xbe336b7f	-0.17521475
7	0xbcbd8133	-0.023132896
8	0xbcba3f1e	-0.022735175
9	0x3e3e9b2a	0.18613878
10	0xbd13b5a5	-0.0360619
11	0xbd267b5c	-0.04064499
12	0x3e05521e	0.13019606
13	0x3e3ad1f1	0.18244149
14	0xbdbe9fad	-0.093077995
15	0x3e5675a2	0.20943311
16	0x3dede452	0.11615814
17	0xbcf22255	-0.029557386
18	0xbd29d833	-0.04146595
19	0xbc55851a	-0.013032222
20	0xbc1a315c	-0.009411182
21	0x3e03465e	0.12819812
22	0x3ce42ce0	0.02785343
23	0xbb71dc8d	-0.003690514
24	0xbcdc5b24	-0.026898928
25	0xbe025f4e	-0.12731668
26	0xbd95f991	-0.07322992
27	0x3d7f9b34	0.062403873
28	0x3d734264	0.059389487
29	0xbe1416c2	-0.14461806

attention_layers.0.AttentionBlock.values_linear.weight f4 [30, 30]
0	0x3e81793a	0.252878
1	0xbd80657e	-0.06269358
2	0xbe858e75	-0.2608525
3	0x3bc35e2d	0.0059621544
4	0x3e053b06	0.13010797
5	0x3e637a43	0.22214608
6	0x3db117fd	0.086471535
7	0x3d607ff0	0.05480951
8	0xbe6acca4	-0.22929627
9	0xbdb64c89	-0.08901317
10	0x3dc325fc	0.09528729
11	0xbd46d128	-0.04853931
12	0x3b9d77ec	0.0048055556
13	0xbe5ac9c1	-0.21366026
14	0xbdaee819	-0.08540363
15	0x3de5e459	0.112251945
16	0x3e6c8554	0.23097736
17	0x3d43cdf1	0.047803823
18	0xbe44d56f	-0.19222043
19	0x3e7cf4ad	0.24702711
20	0xbe17d6f1	-0.14828087
21	0x3ce70235	0.028199295
22	0xbb823e92	-0.003974744
23	0xbdc1c9cb	-0.09462317
24	0x3b10df92	0.0022105915
25	0xbe1fde68	-0.15612185
26	0x3d87b308	0.066259444
27	0x3d339147	0.04383972
28	0x3e0dd441	0.138505
29	0xbc60bea4	-0.013717327
30	0x3e135914	0.1438945
31	0x3df6c322	0.120489374
32	0x3e34bd4b	0.17650335
33	0xbdad42bf	-0.084599964
34	0x3d06e51c	0.03293334
35	0x3d4dd7c3	0.050254595
36	0x3d65737c	0.056018338
37	0xbe411f47	-0.18859588
38	0xbe2c4014	-0.16821319
39	0xbda284b7	-0.079354696
40	0xbdd10a2a	-0.10207017
41	0x3d17797f	0.036981102
42	0x3e1e39f1	0.1545179
43	0x3dbb4432	0.091438666
44	0xbdbf1eea	-0.09332068
45	0xbe283613	-0.16426878
46	0xbd44f791	-0.04808766
47	0xbd344db1	-0.044019405
48	0xbd2a6b84	-0.04160644
49	0xbe1afa40	-0.15134525
50	0x3c82ef9d	0.015983397
51	0xbded21d9	-0.115787216
52	0xbe5caff3	-0.21551494
53	0xbe1285a1	-0.14308788
54	0x3e0c2fd6	0.13690123
55	0xbcd66f36	-0.026176076
56	0xbb73a492	-0.003717695
57	0x3cca9154	0.024727501
58	0xbe688d01	-0.22710039
59	0xbd0aa500	-0.033848763
60	0xbe9981a7	-0.2998173
61	0x3d72d2fe	0.05928325
62	0x3d71dd21	0.059048776
63	0xbe014a84	-0.12626082
64	0xbe2bc2c9	-0.16773523
65	0x3c8b49c9	0.017002957
66	0x3c771d47	0.015082664
67	0x3db5611b	0.08856412
68	0x3e8980f4	0.26856196
69	0xbc802195	-0.015641013
70	0x3bde5698	0.006785225
71	0x3dc1fda7	0.094722085
72	0x3e0c65b5	0.13710673
73	0x3e051f63	0.13000254
74	0xbc8a2894	-0.016865052
75	0x3e15bb64	0.14622265
76	0xbddee4d3	-0.108834885
77	0x3ddf1803	0.10893252
78	0xbda932c7	-0.08261638
79	0x3e4c5832	0.19955519
80	0x3d69e172	0.057099767
81	0xbb8151c4	-0.003946515
82	0x3cebec1b	0.028799107
83	0xbdbfa3fd	-0.0935745
84	0xbe0a9b8a	-0.13535896
85	0x3e3cd54a	0.18440738
86	0xbbcda153	-0.006275335
87	0x3d957424	0.07297543
88	0x3e4687af	0.19387697
89	0x3d0d6b24	0.034526005
90	0x3deb6646	0.114941165
91	0xbd98ad09	-0.07454879
92	0x3de6bde4	0.112666875
93	0xbe187a85	-0.14890487
94	0xbb6a7d0b	-0.0035780098
95	0x3d94e742	0.072706714
96	0x3dbebc94	0.09313312
97	0x3d92e5cf	0.07172739
98	0xbdd2bd42	-0.10290004
99	0xbd5c20d7	-0.053742256
100	0x3d8b1ca8	0.06792575
101	0xbe84e75e	-0.2595777
102	0xbe5d7997	-0.21628414
103	0xbe69b192	-0.22821644
104	0xbd6c20ce	-0.057648472
105	0xbda3e05a	-0.08001776
106	0xbc211cae	-0.009833498
107	0xbe5c02fd	-0.21485515
108	0x3c5f1911	0.013616816
109	0xbdb616cc	-0.08891067
110	0x3dd79003	0.10525515
111	0xbe559040	-0.20855808
112	0x3d0c0358	0.034182876
113	0x3e1ece80	0.15508461
114	0xbdbec851	-0.09315551
115	0xbc865b05	-0.016400823
116	0x3d46bf25	0.048522133
117	0xbe4b591f	-0.19858216
118	0xbd5ad99f	-0.053430196
119	0x3e06a879	0.13150205
120	0xbe7408dd	-0.23831506
121	0x3e20dfb8	0.15710342
122	0x3d54b5cc	0.051931188
123	0x3e076ce9	0.1322514
124	0x3c99c71f	0.018771706
125	0xbd185910	-0.03719431
126	0x3ce6e712	0.028186355
127	0x3dfecbdd	0.124412276
128	0x3e373a8e	0.1789343
129	0x3d80bb4d	0.06285725
130	0x3dd1888f	0.102311246
131	0xbbdf58c9	-0.006816004
132	0x3e641250	0.2227261
133	0x3b02be6d	0.0019949928
134	0x3e3fee8f	0.18743347
135	0xbde4ed60	-0.11178088
136	0x3dc6dd7c	0.097102135
137	0xbd00abfb	-0.031414013
138	0xbdc4e457	-0.09613865
139	0x3de07e40	0.1096158
140	0x3d40e7aa	0.047095932
141	0x3d0a08f9	0.033699963
142	0x3dcc7fc2	0.09985305
143	0x3dfc3f56	0.12316768
144	0xbeb46211	-0.3523107
145	0x3e466ea2	0.1937814
146	0xbd952c77	-0.072838716
147	0x3e503040	0.20330906
148	0x3e58516a	0.21124807
149	0xbe4d8184	-0.20068938
150	0x3e01bfd7	0.12670837
151	0xbd3c7fd1	-0.046020333
152	0x3e5857ad	0.21127196
153	0x3df5311f	0.1197226
154	0xbc58d19c	-0.0132335685
155	0xbd5c15ce	-0.053731732
156	0xbe24476a	-0.16042867
157	0x3da21f2c	0.07916102
158	0xbd755963	-0.0598997
159	0x3db9ccfd	0.090723015
160	0xbd334e05	-0.043775577
161	0x3e885584	0.26627743
162	0x3dd43719	0.103620715
163	0x3deb7702	0.11497308
164	0x3e4b2b86	0.19840822
165	0x3e014695	0.12624581
166	0xbdb69c10	-0.08916485
167	0x3dae31c7	0.08505588
168	0x3c9017ef	0.017589537
169	0xbceb2f8b	-0.028709194
170	0xbe15b90e	-0.14621374
171	0xbde246cd	-0.110486604
172	0xbe4cfc20	-0.20018053
173	0x3e01e306	0.12684259
174	0x3ce32dc7	0.02773179
175	0xbd75bc72	-0.05999417
176	0xbe65f833	-0.22457962
177	0x3dbee676	0.09321301
178	0xbd8d41e5	-0.06897334
179	0x3e2261c9	0.15857615
180	0xbdcf153b	-0.10111471
181	0x3c945258	0.01810567
182	0x3e3ce821	0.18447925
183	0x3e138fe3	0.14410357
184	0xbdefd9b2	-0.11711444
185	0xbd91e7d0	-0.07124293
186	0xbdfc3abe	-0.12315892
187	0x3db8ebac	0.09029326
188	0x3d24dd02	0.040249832
189	0x3e551864	0.20810086
190	0x3db6cd4c	0.08925876
191	0x3c808626	0.015688967
192	0x3e5202e1	0.2050891
193	0xbe01c116	-0.12671313
194	0x3cf355a6	0.029703926
195	0x3dc0c6d2	0.09412922
196	0x3cfe3755	0.031032244
197	0xbd1e4b33	-0.038645934
198	0x3d496984	0.049172893
199	0x3e30c080	0.17260933
200	0xbd9ff12a	-0.0780967
201	0xbe261ce2	-0.16221955
202	0x3ddd75e1	0.10813499
203	0xbd4d58fd	-0.050133694
204	0xbc78b527	-0.015179909
205	0xbc1fe458	-0.009759031
206	0x3e326168	0.1741997
207	0x3e176611	0.14785029
208	0xbe41302a	-0.1886603
209	0xbe49bcc6	-0.19700918
210	0x3ef25d0a	0.47336608
211	0x3ca939c0	0.02065742
212	0x3c7de732	0.015497016
213	0xbe39ebb9	-0.18156327
214	0xbdd2cf81	-0.102934845
215	0x3e01f477	0.12690912
216	0xbe210910	-0.15726113
217	0xbe2b8219	-0.16748847
218	0xbe44a28d	-0.19202633
219	0xbe2973b4	-0.16548043
220	0xbc583523	-0.0131962625
221	0x3e6b0654	0.22951633
222	0xbe81761c	-0.25285423
223	0xbe347f12	-0.17626598
224	0x3e16b7fc	0.14718622
225	0x3e1d3258	0.15351236
226	0x3da8ce92	0.08242525
227	0xbc8b71a2	-0.017021958
228	0xbd2e7269	-0.04258958
229	0xbdd802c3	-0.10547402
230	0xbe5d514e	-0.21613047
231	0xbe38ca50	-0.18045926
232	0x3d475758	0.048667282
233	0x3e0928ce	0.13394472
234	0x3e4e4222	0.20142415
235	0x3da56a2a	0.0807689
236	0x3d2b59e9	0.041833792
237	0xbee1bef4	-0.44090998
238	0xbd81ae48	-0.0633207
239	0x3e05c6f1	0.13064171
240	0x3e96fcdf	0.294898
241	0x3befa6fd	0.0073136077
242	0x3e868dcc	0.26280057
243	0xbc01d052	-0.007923203
244	0x3d2a971c	0.041648015
245	0xbcfc11f1	-0.030770274
246	0xbd16c541	-0.03680921
247	0xbd496409	-0.049167667
248	0x3e7f66fd	0.2494163
249	0xbdcb51ad	-0.09927688
250	0xbdeb74e4	-0.114969045
251	0xbea252ff	-0.31703946
252	0xbd9fb408	-0.0779801
253	0xbdae3935	-0.08507005
254	0x3e2cb93d	0.16867538
255	0x3e418903	0.18899922

attention_layers.0.AttentionBlock.values_linear.bias f4 [30]
0	0x3dc93880	0.0982523
1	0x3e09fec6	0.13476095
2	0x3cb29a3a	0.021802057
3	0xbe685833	-0.22689895
4	0x3d41106e	0.04713481
5	0x3db006eb	0.085950695
6	0x3d94c018	0.072632015
7	0x3df52b02	0.11971094
8	0x3d8a6da2	0.06759192
9	0xbda18176	-0.07886021
10	0xbe1ae928	-0.15128005
11	0xbdabe3a0	-0.083930254
12	0xbd879250	-0.06619704
13	0xbaf7e57b	-0.0018912995
14	0xbd9fd74f	-0.07804739
15	0xbdefe133	-0.11712875
16	0x3db7092d	0.08937297
17	0x3e31324e	0.17304346
18	0xbd0569b0	-0.032571495
19	0x3e16cd27	0.14726697
20	0x3e4a52ac	0.197581
21	0x3e20316b	0.15643851
22	0xbd077d32	-0.03307838
23	0xbe120015	-0.14257844
24	0x3dcaa59a	0.09894867
25	0x3e966fd9	0.29382208
26	0xbe270dcc	-0.16313857
27	0x3c2193d5	0.009861906
28	0x3e10fbe0	0.14158583
29	0xbe114e88	-0.14190114

attention_layers.0.ffn.linear1.weight f4 [120, 30]
0	0xbe2c71f9	-0.16840352
1	0xbe212c1f	-0.15739487
2	0x3d8ca0d1	0.06866611
3	0xbe6cea90	-0.23136353
4	0x3cf627b3	0.030048227
5	0x3da0561e	0.078289255
6	0xbea3062c	-0.31840646
7	0x3dbd942c	0.09256777
8	0x3e6da536	0.23207554
9	0xbe11f3f9	-0.14253224
10	0xbe2e76c2	-0.1703749
11	0xbdb6a2c2	-0.08917762
12	0xbe64bfac	-0.22338742
13	0x3bb08fc4	0.005388232
14	0x3da4c089	0.08044536
15	0x3d8c15c9	0.06840093
16	0x3dcc1c3a	0.09966321
17	0x3e0dcd30	0.13847804
18	0x3e63b279	0.2223605
19	0xbe4f3892	-0.20236424
20	0xbe723ecd	-0.23656769
21	0x3e1e5d28	0.15465224
22	0x3e29373b	0.16524975
23	0x3dd1d978	0.10246557
24	0xbd725a4e	-0.059168153
25	0xbb456f7f	-0.0030126271
26	0xbe972ddf	-0.29527184
27	0xbeba28b1	-0.3635917
28	0x3df1ada2	0.11800696
29	0x3d3f6f89	0.046737228
30	0x3e1a5835	0.15072711
31	0xbcf560d0	-0.02995339
32	0xbe65e5a4	-0.22450882
33	0xbe017ce9	-0.12645306
34	0xbe82a1b8	-0.25514007
35	0xbeb132b5	-0.34609
36	0xbd267838	-0.040641993
37	0x3e28e4fc	0.164936
38	0x3da5b8f5	0.080919184
39	0xbd9a2050	-0.07525694
40	0xbe290864	-0.16507107
41	0x3c28ea60	0.010309786
42	0xbb306908	-0.0026918072
43	0x3ead8460	0.33890057
44	0xbd7a296c	-0.06107466
45	0x3e68a607	0.22719584
46	0x3e0f46f6	0.13991913
47	0x3bd69860	0.0065489262
48	0x3e68603f	0.22692965
49	0xbe4f7f69	-0.20263447
50	0xbe8b8465	-0.27249447
51	0x3df477dc	0.11936924
52	0x3e9bf36d	0.30459157
53	0xbdcf21c0	-0.10113859
54	0xbcd352a2	-0.025796238
55	0x3de803ee	0.113288745
56	0x3e79af04	0.2438317
57	0xbd048bc3	-0.03235985
58	0xbe1d1905	-0.15341575
59	0xbd9f544b	-0.077797495
60	0xbd7fa925	-0.06241717
61	0xbe7a3cb6	-0.24437222
62	0xbda7051c	-0.081552714
63	0x3d31278e	0.043250613
64	0xbe8ea1e8	-0.278579
65	0xbe84ce13	-0.25938472
66	0xbeaf198e	-0.34199184
67	0x3e37213f	0.17883776
68	0xbe5631fc	-0.20917505
69	0x3beaca84	0.007165255
70	0xbe3b46f9	-0.18288793
71	0xbde15625	-0.11002759
72	0xbe5dea95	-0.21671517
73	0x3dfe1c11	0.12407697
74	0x3e12a3fb	0.14320366
75	0x3dca36cf	0.09873735
76	0x3d2a91e9	0.041643057
77	0x3ba6ad39	0.0050865677
78	0x3e1a5ec1	0.15075208
79	0x3e920a80	0.28523636
80	0x3ba640e4	0.0050736535
81	0xbb8ec836	-0.004357363
82	0x3e9c98b2	0.30585247
83	0xbdbff903	-0.09373667
84	0xbca777e9	-0.02044292
85	0x3d463b16	0.048396192
86	0x3e543005	0.20721443
87	0x3ccc7bdc	0.024961405
88	0x3d62b005	0.055343647
89	0xbe44a41e	-0.1920323
90	0xbe71f295	-0.23627694
91	0x3e4afc1c	0.19822735
92	0x3d796e74	0.060896352
93	0xbe3ab8bd	-0.18234535
94	0xbd800947	-0.062517695
95	0x3e818577	0.25297138
96	0xbc1f8265	-0.009735678
97	0x3e5f79ed	0.21823855
98	0xbd858892	-0.06520189
99	0xbdefd76a	-0.11711009
100	0xbe970601	-0.29496768
101	0x3dec40f3	0.115358256
102	0x3c206b82	0.009791257
103	0x3ef6bb73	0.48189887
104	0x3e561eef	0.20910238
105	0xbdbfb231	-0.09360159
106	0xbe311971	-0.17294861
107	0xbe418854	-0.18899661
108	0x3e5cefce	0.21575853
109	0xbd9eaf65	-0.077482976
110	0xbe2a0b0d	-0.16605778
111	0xbe92afd9	-0.28649786
112	0x3e50b085	0.20379837
113	0xbdb3c71d	-0.08778212
114	0xbdaa16dd	-0.08305142
115	0xbde25f90	-0.11053383
116	0xbd95d1a7	-0.07315379
117	0x3e33d5a9	0.17561974
118	0xbe9c2638	-0.3049791
119	0xbbca6559	-0.0061766324
120	0xbdb4f61d	-0.08836005
121	0x3d8c62cb	0.06854781
122	0x3c92b52f	0.01790866
123	0x3e7123e5	0.23548849
124	0x3c20bc04	0.009810451
125	0x3cd1da65	0.025616834
126	0xbd6713e8	-0.05641547
127	0x3dbcdb65	0.09221534
128	0x3e1c1aaa	0.15244547
129	0x3e3b0b98	0.18266141
130	0x3e95fa68	0.29292607
131	0x3af230ce	0.001847768
132	0xbebe4532	-0.37162167
133	0xbdaccf10	-0.084379315
134	0x3c142436	0.0090418365
135	0x3df768dc	0.12080547
136	0xbd22a3a6	-0.03970685
137	0x3e9e32ad	0.30898038
138	0x3e517809	0.20455946
139	0xbd5deda5	-0.054181714
140	0xbd98742f	-0.07444035
141	0xbcdeba37	-0.027188404
142	0xbe386d47	-0.18010436
143	0xbe3e87dd	-0.18606515
144	0xbe808cdd	-0.2510747
145	0xbd9044ad	-0.07044349
146	0x3e288c0b	0.16459672
147	0xbe561c08	-0.2090913
148	0xbe8954dd	-0.26822558
149	0x3dc7f8bd	0.0976424
150	0xbc91f28a	-0.017815847
151	0x3e2b6a01	0.16739656
152	0x3d62edf6	0.05540272
153	0x3dd58d41	0.10427333
154	0xbc88238d	-0.016618514
155	0x3decba57	0.11558979
156	0x3c81d68e	0.015849378
157	0xbdc61223	-0.09671428
158	0x3d9c2cf5	0.076257624
159	0xbd40df77	-0.047088113
160	0xbd1097af	-0.035300907
161	0xbdc11674	-0.09428111
162	0x3d127f06	0.03576567
163	0x3e8b1ef9	0.27172068
164	0x3e0b0ea8	0.1357981
165	0x3b00ab8e	0.0019633505
166	0x3ea1da06	0.3161165
167	0xbc7d5387	-0.015461809
168	0xbc62f115	-0.013851424
169	0x3df1c1c7	0.11804538
170	0x3d4e390a	0.050347365
171	0xbe2739bf	-0.16330622
172	0x3db3529c	0.08755991
173	0x3d5efa29	0.05443779
174	0x3d3709e9	0.044687185
175	0xbe53fe61	-0.20702507
176	0x3d7d0a57	0.06177744
177	0xbe3b246c	-0.18275613
178	0x3d5bcf49	0.05366448
179	0x3e80e394	0.25173628
180	0xbd562b1e	-0.052287214
181	0x3de6fed7	0.112790756
182	0x3d8340e0	0.06408858
183	0xbd9df473	-0.077126406
184	0x3d142ae1	0.036173705
185	0xbdab4649	-0.08363015
186	0x3c9989d9	0.018742489
187	0xbcb42525	-0.021990368
188	0x3d23bc30	0.03997439
189	0xbdec6f35	-0.115446486
190	0x3d90e7a4	0.07075432
191	0xbd556f96	-0.05210837
192	0xbc515178	-0.012775771
193	0x3c3a6039	0.01137548
194	0xbc5aded0	-0.013358787
195	0xbe303c07	-0.17210399
196	0x3d8803e6	0.066413686
197	0xbd91601e	-0.07098411
198	0xbd3a775f	-0.045523997
199	0xbe319a9f	-0.1734414
200	0xbdb1560c	-0.0865899
201	0x3e0e1661	0.13875724
202	0x3e97f7d0	0.29681253
203	0x3dafe327	0.08588248
204	0xbe61e5be	-0.22060296
205	0xbe3568d5	-0.17715771
206	0x3d8e40c1	0.069459446
207	0xbe262717	-0.16225849
208	0xbd66e533	-0.056370925
209	0x3e058de1	0.13042404
210	0xbe6bd718	-0.2303127
211	0xbe6d33a0	-0.23164225
212	0xbcfd9c08	-0.03095819
213	0x3e50ef1a	0.2040371
214	0x3c67b2e8	0.014141776
215	0x3dbfcc8a	0.093651846
216	0xbe85eb17	-0.26155922
217	0xbd1ad485	-0.03780033
218	0x3df85eac	0.12127432
219	0x3c742c3c	0.014903124
220	0x3e0e202d	0.13879462
221	0xbd1ca7fc	-0.03824614
222	0xbd9d50eb	-0.076814495
223	0x3e2628a1	0.16226436
224	0x3da9eba9	0.08296902
225	0xbd95a120	-0.07306123
226	0xbe178c14	-0.1479953
227	0x3e8dceee	0.27696937
228	0x3e73aae6	0.23795661
229	0xbd358682	-0.04431773
230	0xbe669506	-0.22517785
231	0x3e07ea0c	0.13272876
232	0xbc094805	-0.008378987
233	0xbd2d4110	-0.042298377
234	0xbd6de117	-0.05807599
235	0xbe7fb01e	-0.24969527
236	0xbd844990	-0.064593434
237	0x3e501267	0.2031952
238	0xba24fa42	-0.0006293395
239	0x3e19c275	0.15015586
240	0xbed8a6a2	-0.4231463
241	0xbe69193b	-0.22763531
242	0x3e520bdd	0.20512338
243	0xbd8632e9	-0.06552679
244	0xbe56589e	-0.20932242
245	0xbe659bb6	-0.2242268
246	0xbe2de277	-0.1698092
247	0x3ed5eb2d	0.41780987
248	0xbe77968d	-0.24178524
249	0x3e19fd21	0.15037967
250	0x3c305459	0.010762298
251	0x3cbf730a	0.023370285
252	0xbd8d3fab	-0.06896909
253	0x3f0dc418	0.5537734
254	0xbcb6b531	-0.022303196
255	0xbc9373da	-0.017999578

attention_layers.0.ffn.linear1.bias f4 [120]
0	0xbddf6514	-0.10907951
1	0xbe27793e	-0.16354844
2	0xbdfb27ae	-0.12263428
3	0xbca5e90a	-0.020252723
4	0xbdbd8ef1	-0.092557795
5	0x3de578f9	0.11204714
6	0xbc494653	-0.012284833
7	0xbe97c918	-0.2964561
8	0x3ca09559	0.019602465
9	0xbe76dd1a	-0.24107781
10	0xbde3dd68	-0.11126214
11	0xbd026353	-0.031833004
12	0xbc9b34d2	-0.018946085
13	0xbe89ccc9	-0.2691405
14	0xbe59d077	-0.2127093
15	0xbe92635d	-0.28591433
16	0xbd88706f	-0.0666207
17	0xbe0aa69b	-0.13540117
18	0xbeb10078	-0.3457067
19	0xbe136b54	-0.14396411
20	0xbe057322	-0.13032201
21	0x3c6475f6	0.01394414
22	0xbe4acd8e	-0.19804975
23	0x3d852b80	0.065024376
24	0xbe4338a7	-0.1906458
25	0xbe975aa3	-0.29561338
26	0x3b97edd7	0.004636507
27	0xbe40512f	-0.18780969
28	0xbcfd9ef0	-0.030959576
29	0x3d976b01	0.07393456
30	0xbda31d75	-0.07964603
31	0xbe2bf8d0	-0.16794133
32	0xbc016ec0	-0.00789994
33	0xbe211fc1	-0.1573477
34	0xbe62ad6f	-0.22136472
35	0xbdfa0b8f	-0.12209236
36	0xbe5fe2d6	-0.21863875
37	0xbe4bfbf2	-0.19920328
38	0xbe84cb53	-0.25936374
39	0xbe753094	-0.23944312
40	0xbe2e70ec	-0.17035264
41	0xbd513ca1	-0.05108321
42	0xbdabd41d	-0.08390067
43	0xbce194f4	-0.027536847
44	0xbe7425e7	-0.23842584
45	0xbe69b2eb	-0.22822158
46	0xbe57e7c6	-0.21084508
47	0xbdf09785	-0.1174765
48	0xbe348b8f	-0.17631362
49	0xbe2613d4	-0.16218501
50	0xbda33424	-0.079689294
51	0xbd138177	-0.03601214
52	0xbe93eb71	-0.28890565
53	0xbe19e5c3	-0.15029053
54	0xbe4efcab	-0.20213573
55	0x3d254bd3	0.040355515
56	0xbe37da29	-0.17954315
57	0xbd7939a6	-0.060845993
58	0xbda22e14	-0.07918945
59	0xbe66e281	-0.22547342
60	0xbe9c364f	-0.30510184
61	0xbcd900e8	-0.02648969
62	0x3d16b847	0.036796834
63	0xbe9654c3	-0.29361543
64	0xbd2eb393	-0.042651724
65	0xbdee69de	-0.11641286
66	0xbd968e03	-0.07351305
67	0xbcbaa1e5	-0.022782275
68	0xbde9fc62	-0.11425091
69	0xbd84490c	-0.06459245
70	0xbe3a5347	-0.1819583
71	0xbe777565	-0.24165876
72	0x3d002a60	0.031290412
73	0xbe3ace84	-0.18242842
74	0xbe476f5b	-0.19476072
75	0xbe20595c	-0.15659088
76	0x3d9498d8	0.07255715
77	0x3ce6122d	0.028084839
78	0x3d5a7494	0.053333834
79	0xbe4ca50a	-0.19984832
80	0xbc029b5c	-0.007971611
81	0x3e0ec3f2	0.13941935
82	0xbe65e9c4	-0.22452456
83	0xbd08fb7c	-0.03344296
84	0xbe39f601	-0.1816025
85	0xbe73606a	-0.23767248
86	0xbd90d537	-0.070719175
87	0x3d3d7131	0.046250526
88	0xbca7d258	-0.020486042
89	0xbc9a7e7f	-0.018859146
90	0xbcb84264	-0.022492595
91	0xbe905063	-0.2818633
92	0xbdcf5c96	-0.10125081
93	0x3dcc2545	0.09968046
94	0xbd6a6b41	-0.05723119
95	0xbe61634a	-0.22010532
96	0x3d1c4c7e	0.038158886
97	0xbcc12f28	-0.023582056
98	0xbd440b71	-0.047862474
99	0xbcceca26	-0.025242876
100	0x3c71f3b0	0.014767572
101	0xbd2a9dca	-0.041654386
102	0x3d11ef23	0.03562845
103	0xbd544e9b	-0.051832777
104	0xbd6b5ea7	-0.057463314
105	0x3cc240fb	0.023712626
106	0xbe3d8b3e	-0.18510148
107	0xbdb8830d	-0.09009371
108	0xbe252274	-0.16126424
109	0xbe12dcba	-0.14342013
110	0xbe2a0bc5	-0.16606052
111	0xbd35b25b	-0.044359546
112	0xbe875741	-0.26433757
113	0xbeaedabe	-0.34151262
114	0x3d006d7f	0.031354424
115	0xbda36b4e	-0.07979451
116	0xbe089854	-0.13339359
117	0x3d96848c	0.073495
118	0xbe7ae627	-0.24501859
119	0x3e0dffd1	0.13867117

attention_layers.0.ffn.linear2.weight f4 [30, 120]
0	0x3db5af64	0.08871344
1	0x3dd497f5	0.10380546
2	0x3e304b6f	0.17216276
3	0xbd7e682a	-0.062111057
4	0x3e1d8305	0.15382011
5	0xbe18f5ea	-0.14937559
6	0x3c5c4ca4	0.013446007
7	0xbddc613c	-0.107607335
8	0x3e660033	0.22461013
9	0xbe10e12a	-0.14148393
10	0xbdc5c03b	-0.09655806
11	0x3d81fee1	0.063474424
12	0xbd1eed87	-0.038800742
13	0x3dea872f	0.114515655
14	0xbdf6c01a	-0.12048359
15	0xbcb48680	-0.02203679
16	0x3d80e9ef	0.06294619
17	0x3e098b26	0.13431987
18	0xbd9f8dcd	-0.07790718
19	0xbd9535e7	-0.07285672
20	0xbd93a036	-0.07208292
21	0xbe533e09	-0.20629133
22	0x3cd3fbe0	0.02587694
23	0xbd92af5d	-0.07162354
24	0xbe0632f2	-0.13105372
25	0x3d9e4c12	0.07729353
26	0x3cc3d411	0.023904832
27	0xbdd0575b	-0.10172912
28	0xbd5eeb6d	-0.05442374
29	0xbe01d52a	-0.12678972
30	0x3c99f960	0.01879567
31	0x3e89da22	0.26924235
32	0xbdfe02ad	-0.12402854
33	0x3d86711e	0.06564544
34	0x3e1c7aef	0.1528127
35	0x3d1ff954	0.039056137
36	0xb9545e38	-0.00020252995
37	0x3db1477b	0.08656212
38	0xbd9b33e1	-0.075782545
39	0xbd968e0b	-0.07351311
40	0xbd073b7d	-0.033015717
41	0xbe3fa113	-0.18713789
42	0xbe6be0a5	-0.23034914
43	0x3e92f8e2	0.28705508
44	0xbd418278	-0.047243565
45	0x3dc8628c	0.09784421
46	0xbe362ad2	-0.17789772
47	0x3d782a0d	0.060586978
48	0xbd18d983	-0.03731681
49	0xbe05ca39	-0.13065423
50	0xbcf6eed0	-0.030143172
51	0x3d52b18e	0.05143886
52	0x3d170505	0.03687002
53	0xbd9359f4	-0.071948916
54	0xbd082498	-0.033238024
55	0xbd84307e	-0.06454562
56	0xbe1c1282	-0.15241435
57	0x3cfafa73	0.030637002
58	0x3e42c74d	0.1902134
59	0x3d1747a2	0.03693355
60	0xbe304afc	-0.17216104
61	0xbda433c2	-0.080176845
62	0xbe31a91f	-0.17349671
63	0x3c0c116b	0.008549075
64	0x3d5d8339	0.05408022
65	0xbd88a054	-0.06671205
66	0x3da1fba8	0.07909328
67	0x3d1bb493	0.038014006
68	0x3d858677	0.06519788
69	0xbcb42f70	-0.021995276
70	0x3de07f38	0.10961765
71	0x3d173b6a	0.036921896
72	0x3d6611f5	0.05616947
73	0xbd91dd46	-0.07122283
74	0x3ea6480f	0.3247685
75	0xbe42cb13	-0.19022779
76	0x3dae0eaa	0.08498891
77	0xbdea7c8d	-0.114495374
78	0xbd00db48	-0.031459123
79	0x3c0cfc29	0.008605042
80	0x3d8fb553	0.07017007
81	0xbd864c1d	-0.06557486
82	0xbe935577	-0.28776142
83	0x3cc09a8c	0.023511194
84	0xbd9a7ebf	-0.07543706
85	0xbe0e4e66	-0.13897094
86	0xbd31cf76	-0.04341074
87	0x3cd6f16c	0.026238166
88	0xbce26404	-0.027635582
89	0x3d393ead	0.045225788
90	0x3dd6c783	0.104872726
91	0x3bc8efd7	0.0061321068
92	0x3d9b6be3	0.07588937
93	0xbd4e1d96	-0.050321184
94	0xbe17fbd4	-0.14842159
95	0x3defddc3	0.117122196
96	0x3d208e54	0.039198235
97	0xbddfff2f	-0.10937344
98	0xbcc0f363	-0.023553556
99	0xbe01a0ca	-0.12658992
100	0xbd710f20	-0.058852315
101	0xbdf5f9e7	-0.12010556
102	0xbd7ac6e9	-0.06122485
103	0xbba34bfb	-0.004983423
104	0x3de968c4	0.113969356
105	0x3c9ff7d6	0.019527357
106	0xbe650291	-0.2236426
107	0xbd92428a	-0.071415976
108	0x3ce90a9f	0.028447447
109	0x3e27c17b	0.163824
110	0x3e952382	0.29128653
111	0x3cb11a90	0.021619111
112	0xbd145dc0	-0.03622222
113	0xba70ad5a	-0.0009181105
114	0x3e212267	0.1573578
115	0xbdc2b35f	-0.095068686
116	0xbdec1ba9	-0.11528713
117	0xbd6ea013	-0.058258127
118	0xbe6460dd	-0.22302575
119	0x3bdb883f	0.0066995914
120	0x3dfb59c4	0.12272981
121	0x3ca82920	0.020527422
122	0x3e37d335	0.17951663
123	0xbe1edb0d	-0.15513249
124	0x3d2baaaf	0.041910823
125	0x3bcfdb07	0.0063432488
126	0x3d770b3d	0.060313452
127	0x3c3d859f	0.011567502
128	0x3e68fb94	0.2275222
129	0xbd435019	-0.04768381
130	0x3e19b110	0.1500895
131	0x3cd9bdc3	0.026579743
132	0xbdb53398	-0.08847731
133	0x3d55153b	0.0520222
134	0x3db2b497	0.08725851
135	0x3c698b1e	0.0142543595
136	0xbd03551b	-0.032063585
137	0x3d0fc083	0.035095703
138	0xbd8b0e4b	-0.067898355
139	0x3c6a5519	0.014302515
140	0xbd71a81f	-0.058998223
141	0x3e2d3301	0.16913988
142	0x3d397ea1	0.04528678
143	0xbb35be3e	-0.0027731801
144	0x3e629152	0.22125748
145	0xbdb3f76d	-0.08787427
146	0xbdbc1787	-0.09184175
147	0x3ddfc39c	0.109259814
148	0x3d3b0808	0.045661956
149	0x3d80da7a	0.06291671
150	0x3daf0bc0	0.08547163
151	0xbdcd01cb	-0.100101076
152	0xbd35212c	-0.04422109
153	0xbdf50ca6	-0.11965303
154	0x3df9a262	0.12189175
155	0x3e1f1cd9	0.15538348
156	0x3d7600cd	0.060059357
157	0x3e815b00	0.2526474
158	0xbe247457	-0.16060005
159	0x3c7569c1	0.014978827
160	0xbdce6ae6	-0.10078983
161	0x3d86cd22	0.06582095
162	0x3f084f33	0.5324585
163	0xbd5e5e0d	-0.054288913
164	0xbcb89f22	-0.022536818
165	0xbd4cb7ae	-0.049979858
166	0x3da038e8	0.07823354
167	0xbda75c5a	-0.081719115
168	0x3de9592d	0.11393962
169	0x3ce9ac12	0.028524432
170	0xba4810d8	-0.00076319044
171	0x3d0c6fca	0.034286298
172	0xbe06c0dc	-0.13159508
173	0x3da4364b	0.08018168
174	0x3d3186fa	0.043341614
175	0x3d4f68e1	0.05063713
176	0x3e4fb82d	0.20285101
177	0x3e074b0a	0.13212219
178	0x3cc0391b	0.02346473
179	0xbdeebd19	-0.11657161
180	0xbe035d1d	-0.12828489
181	0x3db12ee4	0.08651522
182	0x3dbcfc9d	0.0922787
183	0x3d8d5276	0.06900494
184	0xbde91a60	-0.11381984
185	0x3bea0e40	0.007142812
186	0x3d963ca9	0.07335789
187	0x3e12d0cf	0.14337467
188	0xbd3deced	-0.04636853
189	0x3dce0575	0.100596346
190	0xbce80c6b	-0.028326234
191	0x3d9cbdec	0.07653412
192	0x3d1a17b7	0.037620272
193	0x3d4157ea	0.047202982
194	0x3e5457bb	0.20736592
195	0xbd89e067	-0.067322545
196	0x3d3965fc	0.045263276
197	0xbd475e71	-0.04867405
198	0x3cf22ecd	0.029563332
199	0x3d6f5d05	0.05843832
200	0x3c92cccc	0.01791992
201	0xbc6f435f	-0.014603465
202	0xbd56837c	-0.052371487
203	0x3d295cd7	0.041348305
204	0xbe1d2136	-0.153447
205	0x3e0334bf	0.1281309
206	0xbceecec9	-0.029151337
207	0xbcffbad6	-0.03121702
208	0xbe70f09a	-0.23529282
209	0xbd3ec3c7	-0.046573427
210	0xbcbee033	-0.023300266
211	0xbdb5f8ff	-0.08885383
212	0xbd8f80b3	-0.07006969
213	0xbd64caeb	-0.05585758
214	0xbd39c0e8	-0.045349985
215	0x3dc5ae2f	0.096523635
216	0x3e627e79	0.22118558
217	0x3d24fc2d	0.040279556
218	0x3e30fb8c	0.17283458
219	0xbc3c857f	-0.011506437
220	0x3dd0a146	0.101870105
221	0xbd90164e	-0.07035504
222	0xbe158f9a	-0.14605561
223	0xbd8750c0	-0.06607199
224	0x3d2c16ec	0.042014048
225	0x3d89baa6	0.067250535
226	0x3deb9a4b	0.115040384
227	0xbcf40fc2	-0.02979267
228	0x3e088e0c	0.13335437
229	0xbdbc3826	-0.09190397
230	0x3d236500	0.039891243
231	0x3d2fcfa1	0.04292262
232	0xbdca4b0c	-0.09877595
233	0xbc76c4af	-0.015061541
234	0x3d2c5c48	0.042080194
235	0xbe685b38	-0.22691047
236	0x3e083211	0.13300349
237	0xbe091d23	-0.13390021
238	0x3da337cf	0.07969629
239	0x3ce90593	0.02844504
240	0xbcc95601	-0.024577143
241	0x3c104449	0.008805343
242	0x3db65550	0.08902991
243	0x3e03dc35	0.12876971
244	0xbd5770d4	-0.052597836
245	0xbc1a724b	-0.009426664
246	0xbdb77258	-0.08957356
247	0x3dc42a56	0.095783874
248	0x3e95746d	0.29190388
249	0x3cd83510	0.02639249
250	0xbd72e732	-0.059302516
251	0x3d27e9a7	0.040994313
252	0xbd85b369	-0.065283604
253	0xbdb94b96	-0.0904762
254	0x3d5c2a9b	0.05375157
255	0x3a8b630f	0.001063438

attention_layers.0.ffn.linear2.bias f4 [30]
0	0xbdd2d765	-0.102949895
1	0x3d65ab2b	0.05607144
2	0x3d246dc6	0.04014375
3	0xbc5138b8	-0.01276987
4	0xbe08e53d	-0.13368697
5	0xbcdf4b51	-0.027257593
6	0xbc24bf02	-0.010055305
7	0x3d0817e0	0.033225894
8	0x3da917c3	0.08256485
9	0x3d924eca	0.07143934
10	0xbd6580b2	-0.056030937
11	0x3c23e91e	0.01000431
12	0xbd98e80a	-0.07466133
13	0x3cc2284c	0.023700856
14	0x3dcf7ea4	0.10131577
15	0x3d02649a	0.031834222
16	0x3cef7c9e	0.029234227
17	0x3d25979a	0.04042778
18	0xbd2f36f0	-0.042777
19	0x3dee81e5	0.11645869
20	0x3d0b80dc	0.034058437
21	0xbddf4932	-0.10902633
22	0x3cfc8d9d	0.030829245
23	0xbe0cddea	-0.13756528
24	0xbd8da274	-0.06915751
25	0x3cb8883f	0.022525905
26	0x3c4ab07e	0.012371181
27	0x3d73401f	0.059387323
28	0x3db308f9	0.08741946
29	0x3d544e79	0.05183265

attention_layers.0.norm1.weight f4 [30]
0	0x3f992c85	1.1966711
1	0x3f818df4	1.0121446
2	0x3f79a05e	0.97510326
3	0x3f78228e	0.96927726
4	0x3f792d5e	0.9733485
5	0x3f6f376f	0.9344396
6	0x3f8df0e0	1.1089134
7	0x3f898297	1.0742978
8	0x3f7723f8	0.9653926
9	0x3f6b228e	0.918496
10	0x3f848ea3	1.0356029
11	0x3f9aaa4c	1.208322
12	0x3f832e3d	1.0248486
13	0x3f78ded1	0.9721499
14	0x3f76cacd	0.964032
15	0x3f7614ea	0.9612566
16	0x3f7505d1	0.95712
17	0x3f809ba4	1.0047498
18	0x3f7c218d	0.98488694
19	0x3f8b99bf	1.0906295
20	0x3f844c59	1.03358
21	0x3f77c110	0.96778965
22	0x3f720e77	0.9455332
23	0x3f81e02c	1.0146537
24	0x3f8b6835	1.0891176
25	0x3f8c1ebf	1.0946883
26	0x3f7adb8f	0.9799127
27	0x3f92feb4	1.1483979
28	0x3f72fda4	0.94918275
29	0x3f7abc90	0.97943974

attention_layers.0.norm1.bias f4 [30]
0	0x3a23bd81	0.0006246195
1	0x3be79ff0	0.0070686266
2	0x3c983bd3	0.018583214
3	0xbcbe4f6a	-0.023231227
4	0xbbc1797a	-0.0059043737
5	0xbcc2164c	-0.023692273
6	0xbbf28801	-0.007401467
7	0x3c947bc8	0.01812543
8	0xbd00f295	-0.031481344
9	0x3d047b49	0.032344136
10	0xbbc557f1	-0.0060224463
11	0xbc334ee9	-0.010944107
12	0xbce031f0	-0.027367562
13	0xbcfa2d8a	-0.030539293
14	0x3cff4970	0.031162947
15	0x3c53d2c7	0.012928671
16	0x3c09baa6	0.008406317
17	0xbbaead12	-0.00533069
18	0xbbaabfcf	-0.0052108536
19	0x3d14d2c5	0.036333818
20	0x3cfb7078	0.030693278
21	0x3d5d0fd2	0.053970166
22	0x3d1600fe	0.03662204
23	0xbd3c1bc6	-0.045924924
24	0xbd395617	-0.045248117
25	0x3d137921	0.03600419
26	0x3b73be3e	0.003719225
27	0x3c3b4996	0.0114311185
28	0x3c8e9461	0.017404737
29	0xbce791d1	-0.028267773

attention_layers.0.norm2.weight f4 [30]
0	0x3f85954d	1.0436188
1	0x3f8615b1	1.047537
2	0x3f7b0b8c	0.98064494
3	0x3f6e6b78	0.93132734
4	0x3f8afc28	1.0858202
5	0x3f7d6713	0.98985404
6	0x3f72822a	0.94729865
7	0x3f8c666e	1.0968759
8	0x3f77501c	0.9660661
9	0x3f685ca2	0.90766346
10	0x3f851113	1.0395836
11	0x3fa06f6b	1.2534002
12	0x3f76ae63	0.96359843
13	0x3f874f3d	1.0571057
14	0x3f70e5c7	0.9410061
15	0x3f77364a	0.96567214
16	0x3f8712e8	1.0552645
17	0x3f9093f8	1.1295156
18	0x3f821760	1.0163383
19	0x3f8605ed	1.0470558
20	0x3f7f0d0b	0.99629277
21	0x3f7cf50f	0.9881143
22	0x3f6648bb	0.8995473
23	0x3f72f4e0	0.949049
24	0x3f832d69	1.0248233
25	0x3f6a6e70	0.91574764
26	0x3f6aa099	0.916513
27	0x3f8a9138	1.0825567
28	0x3f888c3c	1.0667796
29	0x3f75a8a4	0.9596045
