data/best_model.pt (torch, 158069 bytes, 50 tensors)

input_proj.weight f4 [30, 58]
00000000: b6c8 4ebd 989f 813e 8e6d ebbc 079b 4dbc
00000010: 0a54 5e3e 82b0 e7bd 273c a03d 1609 c83e
00000020: 03f0 38be 8078 823d 078d 2b3e ca5d 953e
00000030: cf9b 3b3e c64d 253e fc0c a63e 39c6 dd3c
00000040: b608 3fbd 6601 87bd 26a2 863e f37f 8a3d
00000050: 8f61 57bd 96ab 7abe 8e35 24bd 371c 5ebd
00000060: fa88 b03d 0d99 143e e333 13be 8a72 81be
00000070: 3eb2 11be 6324 ce3e 1324 333e eb55 e03e
00000080: 92eb 12be 1bd3 2abe a351 20bd ff6a 69be
00000090: 27c2 693e 079a 11be b9ca 3cbe 496a bcbe
000000a0: ef72 a83e 3922 47be 519b 8a3d 77ff 6cbd
000000b0: 3028 d63c 5c34 2438 a081 57be fff4 cfbd
000000c0: 8557 74bd 98b1 f6bc 4413 a8bd d05a a7bd
000000d0: cd75 c53d d9b4 1ebd 710f 93bc 6f37 683d
000000e0: 29bb 293d 0256 b4bd 957e 08be f320 59bd
000000f0: 29d9 24bd 1296 18bd 3098 c73d 7e54 853d
00000100: 09f6 43bd 43f8 8a3e b80f 54be bd60 623e
00000110: e3ce ff39 21a1 a23d e487 ae3d 5135 e7bc
00000120: 2ef6 8abe cb3d 673d 6c69 dd3e 8fd3 803e
00000130: 1697 67bc 33f3 413d 4eec c53d d96c 86be
00000140: 3607 853e 7169 1f3e 7f35 a33d 561f 3fbe
00000150: 0a46 1cbe 4229 1cbe 7e9c 873c 76eb 433e
00000160: cff2 3fbd b81b 763e 3f25 b3be 7dc7 85be
00000170: 06d5 b8be 2179 d7bd 3925 00be 5420 7abe
00000180: 0e54 28be 3c01 53bd 2d96 19bc f4ee 523e
00000190: 2035 cabd 0ad1 27be 0194 99be 49bf 41be
000001a0: 4836 1b3e 6249 23be db8b fbbd 2388 36be
000001b0: f516 ad3c c217 46bc 9caf d8ba a081 453d
000001c0: 6244 8abd feaf b13d 445a dc3d 2823 c4bd
000001d0: 5e01 873d 0239 843d 454c 023d 7c3e 1ebd
000001e0: c9d4 473d 0978 d7be 3286 363b a63e 44be
000001f0: 17b1 ae3d da39 babe d909 23bd 01ea 593e
00000200: 7f24 be3d 90e2 b93d 0156 993e eed5 5abe
00000210: 11d6 91be da0c 8abe 3669 5fbe 2140 be3e
00000220: 115e 0cbd c954 b03e f9cb 2bbe d721 d3be
00000230: bec6 1b3d bf89 80be 0438 4fbe 857f 29be
00000240: 041f 12be 8850 88bc 0db1 903e 6d17 163e
00000250: 1805 133f 39aa 2c3e a574 c23e 8e41 5dba
00000260: a4d6 9b3e 5f9e 4d3e 581f 36be 90cd 88be
00000270: eb2e f63e af41 27bf bd10 933d c17d 9d3e
00000280: a918 f93e c0c7 ca3e ca2a 1fbd eec6 e73d
00000290: 6ee7 eabd 7b5b 8e3e 692a aa3d f2d5 44bd
000002a0: 76d4 68bd 6a82 a1bb f57a 293c a905 d43d
000002b0: 4e31 0d3b 25ac f83d aa5a 143e 94d2 e2bd
000002c0: 90e3 c5bd d618 93bd 3cdb 953d 57e3 9f3d
000002d0: ae40 6ebc e7f2 9e3d 4aa9 d93e cec4 8bbe
000002e0: f8b6 6fbe fdb4 e53e 229d 213e d1f2 afbc
000002f0: eb26 9f3e c9fe 703b bbee a3be 00d6 fa3d
00000300: 8684 213f 0966 3cbe dd26 343d 5e7b 89bd
00000310: 236f 983d 32bd dabd 636e 92bd 6ea5 703e
00000320: 587b 4c3e 78fc 4e3e 24e8 adbd 934b 053f
00000330: fc62 463e d477 dfbb 8832 a33d f80e 40be
00000340: 82a5 0f3e ea18 06bf e92a 29be 5d36 bf3e
00000350: 3821 6ebd 8a7d d9be 455c ad3e ba46 4fbe
00000360: 16de 51bb 3eb5 91be 85eb 223e 97d7 a7be
00000370: 4b6c 9abe 822d 6cbc 87f8 6cbe e1e7 5bbe
00000380: 69e6 a63c a9d6 13bd 7215 78bd dfcd eebc
00000390: e04a 573e e43e 563d ec34 c93c 6002 c7bc
000003a0: 4b21 3f3d 9ac9 51bb d066 cbbc aabb 8a3d
000003b0: 6936 f93b cfdf ecbd 93d1 183e bc43 003f
000003c0: 739d 6dbe e629 ad3e 83f9 bc3c dbdf 5d3d
000003d0: 1295 f43e 5429 413d 67e7 3a3e 005b 4f3e
000003e0: 7bb2 083d 0f0e 803e bbcc c23e 82f5 b03d
000003f0: 67f3 073e db2f f6be e3ee 233e a480 473e
-0.05048438 0.25317073 -0.028738763 -0.012549168 0.21711746 -0.11312963 0.07823973 0.39069432
-0.18060307 0.0637064 0.16753016 0.29173118 0.18321155 0.1614295 0.3243178 0.027072059
-0.046639167 -0.065920636 0.26295584 0.067626856 -0.052583274 -0.24479517 -0.040090136 -0.054226127
0.08619876 0.14511509 -0.14375262 -0.252827 -0.1422815 0.40262136 0.1749423 0.4381555
-0.14347675 -0.16682093 -0.039140355 -0.22794722 0.2282797 -0.14218913 -0.18436708 -0.3679984
0.32900187 -0.19446649 0.067679055 -0.057860818 0.02614221 3.914941e-05 -0.21045542 -0.10154151
-0.059653778 -0.03011398 -0.082067996 -0.08171618 0.09641609 -0.03874669 -0.017951699 0.05669349
0.041438255 -0.08805467 -0.13329537 -0.05300994 -0.040246163 -0.037252493 0.09745824 0.06510256
-0.04784206 0.27142534 -0.20709121 0.22107215 0.00048791533 0.07940889 0.08522013 -0.028223665
-0.27140945 0.056455415 0.43244493 0.25161406 -0.014135143 0.047351073 0.09664212 -0.2625492
0.25982064 0.15567566 0.07969188 -0.18664297 -0.15261093 -0.15250114 0.016554113 0.1913279
-0.04686242 0.24034011 -0.34989354 -0.2612876 -0.36100024 -0.105211504 -0.125142 -0.24426395
-0.16438314 -0.05151485 -0.009374184 0.20598966 -0.09873414 -0.16388336 -0.2999573 -0.18920626
0.15157425 -0.15945962 -0.12282535 -0.1782537 0.02112911 -0.012090625 -0.0016531828 0.048219323
-0.06751324 0.08676146 0.10759404 -0.09577018 0.06592058 0.06456186 0.031811018 -0.03863381
0.048786912 -0.42083767 0.0027850983 -0.19164523 0.08529871 -0.36372262 -0.039804313 0.21280672
0.09284305 0.090764165 0.29948428 -0.2137067 -0.28483632 -0.2696293 -0.21817479 0.371583
-0.034269396 0.34439686 -0.16777028 -0.41236755 0.038031332 -0.25105092 -0.20236212 -0.16552551
-0.14269644 -0.016639963 0.2826008 0.14657374 0.5742965 0.1686181 0.37979618 -0.00084402494
0.30437195 0.20079945 -0.17785394 -0.26719332 0.4808267 -0.653346 0.07180927 0.30760005
0.48651627 0.39605522 -0.038859166 0.1131724 -0.11469923 0.2780417 0.0830887 -0.048055597
-0.056843244 -0.0049288766 0.010344257 0.10352642 0.002154428 0.12142209 0.1448771 -0.11075321
-0.09662545 -0.071824715 0.07317206 0.078070335 -0.014541788 0.07761174 0.4251197 -0.27298588
-0.23409641 0.44864646 0.15782598 -0.021478089 0.3108438 0.0036772958 -0.32018074 0.122478485
0.6309284 -0.18398298 0.043982375 -0.067129835 0.07443073 -0.106806174 -0.07149961 0.23500606
0.19968927 0.20213497 -0.08491543 0.5206844 0.19373697 -0.0068197045 0.079686224 -0.1875571
0.1402798 -0.52381766 -0.16520275 0.37346163 -0.05813715 -0.4247859 0.3385946 -0.20241824
-0.0032023243 -0.2845859 0.15910156 -0.3278167 -0.30160746 -0.014415147 -0.2314168 -0.21475174
0.02037354 -0.036093388 -0.060567327 -0.029150901 0.21024656 0.05230607 0.024561368 -0.024293125
0.04666261 -0.0032011033 -0.024829298 0.06774075 0.007605363 -0.115661256 0.14923696 0.50103354
-0.23204593 0.33821028 0.023068195 0.054168563 0.47769982 0.047158554 0.18252335 0.20249557
0.033373337 0.25010726 0.38046822 0.08640577 0.13276444 -0.48083386 0.16009097 0.19482666

input_proj.bias f4 [30]
00000000: f8f1 9ebd 9ba0 60ba 2175 30bd 7adb aabd
00000010: 667f cf3d dd28 943b 8a92 223e 7ae9 b13d
00000020: d588 873d c662 b5bc b58b 913d 3a2f a83d
00000030: eb2c f43c dea9 0b3c aeab ccbd 1e74 73bc
00000040: 320e 6139 4582 043e 7632 ac3d 3e88 2fbd
00000050: 5bf4 8bbd b756 3dbd fe36 d43d a93d a8bd
00000060: d2b8 803d 1346 46bd 0894 87bc b992 8dbc
00000070: ea7c a93d 4ecc 0abd
-0.077609956 -0.0008568854 -0.043080453 -0.08342643 0.10131721 0.004521473 0.15876213 0.0868711
0.066178955 -0.022141825 0.07106725 0.08212133 0.029806575 0.008524386 -0.09993683 -0.014859227
0.0002146296 0.12940319 0.08408062 -0.04285454 -0.068337165 -0.046225276 0.103620514 -0.08214886
0.06285252 -0.04840667 -0.016550079 -0.017281877 0.082757786 -0.033886246

attention_layers.0.AttentionBlock.keys_linear.weight f4 [30, 30]
00000000: 769e 333c 40e2 993d 9d24 883b f5e5 c33d
00000010: ff9a 6abc 8751 9bbd 5a48 0c3d 50ce f73d
00000020: c38d 24be a76b 2bbc ce75 133e 01d2 fdbd
00000030: dae6 0c3e f4a5 13bc ac85 c13d 4747 1fbe
00000040: 39f1 d1bd a5a7 263d 9374 aa3d 89f9 093e
00000050: 9b49 b2bd 7bc3 a03d 9c5f 0b3d fd34 a33d
00000060: 27ed 153c 8e9a 79bd 6779 f7bd 8fdd 58be
00000070: c4c3 c1bd 7ead ffbb 6598 2f3d 5cc5 073e
00000080: f511 8f3d eeae 8fbd 740b 32be 77dc 2c3e
00000090: 5877 c3ba 87b4 40bd 798c 34be 89fa 1fbe
000000a0: 3640 ef3d cd83 e4bd d9a8 e43d 8970 3f3d
000000b0: 4795 8dbd e83a b93d 93f9 a33d 1034 ab3d
000000c0: 339e 05bc 5406 7abc c7db 3e3d ad64 493e
000000d0: 37fb ad3c 2cc0 c23d 2c04 0d3d 3c8f 0abe
000000e0: 707b 0f3e 71a2 14bc cd2f 92bd c57a e5bd
000000f0: 7a38 dabc 5fbb 10be 258b 833d 0e2c 5bbd
00000100: 485c e03a 9f4b 9b3d 7b1e f2bd b43f 583e
00000110: 8eff 2cbe 6f0b 233d 585b febc afc6 1ebd
00000120: edef 78bd ba0a 36bd fd65 473d 5f0b b3bd
00000130: 2229 e33c 5f0b 983c 80cc 603e 3daa 113d
00000140: d959 f7bd b324 f9bd 19ca 0dbd 093b 50bd
00000150: 9b95 0c3e 0448 813d b4fe c7bc 63fa a2bd
00000160: 354c f7bd 0da9 313e 427a 573e 3f83 d93d
00000170: add5 7d3c 6b61 303d 2283 ae3d ab46 ec3d
00000180: 3ebe 32be 932b 1c3c d32c a13d 3fa5 793d
00000190: 80a9 2bbe a904 0b3e 40fe f63c 57d5 0b3e
000001a0: fb7a 39bc 99c3 10be e014 50be 769b e33d
000001b0: 440d 7ebd 100f 0cbe 9072 263e 5798 d3bc
000001c0: 3f6f 8e3d ba54 11bd e113 f0bd 5a5e 2bbe
000001d0: f016 233e 5718 df3d f47e 043e e4d9 8d3d
000001e0: 6c0d cfbd 3ad6 b5bd f7cd bebd 6cc9 7dbd
000001f0: f0f4 d7bd e004 253d 556e fd3d f629 d33d
00000200: 1492 a2bd 1528 bf3c e12b 31bc bd48 eebd
00000210: 1fa0 12be 2ead 6dbd 69d9 1c3d 50b3 f43d
00000220: 661b 14be fd4a 93bd 0b80 0cbd c66b 04be
00000230: a5f6 9a3d 844a ccbd d5b4 373e 98df 3d3e
00000240: e625 33be 3020 f9b9 2149 bb3d e689 ebbd
00000250: b6e3 bb3d 66fe 653d d6bd 32bd 4877 0f3e
00000260: 3cc2 05be 1dee ce3d cbbc 1d3e 4ee5 d43d
00000270: cccd 88bd bb04 8bbd 0593 16be db17 f23d
00000280: 6bb2 333a daf2 323a b2b5 9c3d a21c 2a3e
00000290: 5ebf 3e3e 316b a33d aade b7bd 7196 2bbe
000002a0: 8d1e d0bd 76d3 2cbe 1c94 853c 37e5 a5bc
000002b0: 78d5 4cbd f4cf 843d 82a6 833d 176a 13be
000002c0: 0d1e c5bd 70e4 bcbd 84fd 24bd 1dbf 683c
000002d0: 53fa c3bc ba83 b5bd a362 abbd c471 23be
000002e0: 1d64 82bb 9328 7e3c 642c 1dbe 9494 813d
000002f0: 195b 40bd 61dd cabd 3345 fcbd 092b 40bd
00000300: a484 eabd 562d 07be fb06 853d 8576 aa3d
00000310: 7554 7bbd 218f 7a3d 953d 813c 2172 2bbe
00000320: 2fba cdbd 0a76 f53b d5df 52bd 7b88 953d
00000330: 2b03 493e 556d 07bd 5aae c7bd d6d2 a3ba
00000340: 3abd 1b3e 614e 30be f39d 20be 1831 1bbd
00000350: 61a4 0e3e 0738 85bd 9e76 213e 5529 ebbd
00000360: b5fb debc ddea 853d 4c4c 2d3d ee72 fa3c
00000370: fd41 b93c e200 adbd 1a82 27be bf19 973d
00000380: a280 d2bd 8309 943d e0df d3bc 8287 87bd
00000390: 1f88 583e 0838 b23d 5c4c 2c3d c78c 26bd
000003a0: 1e40 03be 5e59 d8bd 110b 8ebd 426f 12be
000003b0: 65bb 08be 19ed c03d cc49 8d3d ed3b 27bd
000003c0: 2c7c 41be 837a c03d bdad ac3d bbf4 00be
000003d0: 95ce d13d 5b20 10be 6b54 b3bc 7ca0 fe3d
000003e0: b15e 213e e22f 43be 7bab 253e f024 01be
000003f0: d9ba d0bd aa55 19bd a298 293e 194c 1c3e
0.010963073 0.07513857 0.0041547553 0.09565345 -0.0143191805 -0.075839095 0.034248687 0.12099898
-0.16069703 -0.010462678 0.14400408 -0.12393571 0.13759938 -0.009011734 0.09449324 -0.15554534
-0.10251088 0.040687222 0.08323016 0.13474096 -0.087054454 0.07849785 0.034026727 0.07969091
0.00915078 -0.06093841 -0.120837025 -0.21178268 -0.094611675 -0.0078026643 0.042869944 0.1325888
0.06985847 -0.07015787 -0.17387182 0.16880976 -0.0014912887 -0.047047164 -0.17631711 -0.15622915
0.11682169 -0.111579515 0.11165018 0.04673818 -0.06913238 0.090444386 0.08006587 0.083595395
-0.008155393 -0.015260298 0.046596315 0.19667311 0.021237953 0.0950931 0.034427807 -0.13531202
0.14011931 -0.009071932 -0.071380235 -0.11205057 -0.026638258 -0.14133976 0.06423024 -0.05350881
0.0017117346 0.07582783 -0.1182222 0.21118051 -0.16894361 0.039805826 -0.031049415 -0.0387637
-0.060775686 -0.044443823 0.048681248 -0.08742403 0.027729575 0.01856011 0.2195301 0.035562743
-0.12077684 -0.12165203 -0.034616563 -0.05083755 0.13728945 0.06312564 -0.024413444 -0.07957914
-0.12075082 0.17349644 0.21042731 0.10620736 0.015492839 0.043061655 0.08521105 0.11536916
-0.17455384 0.009531873 0.07869878 0.060948607 -0.16763878 0.13575996 0.030150533 0.13655601
-0.011320825 -0.14137115 -0.20320463 0.11113636 -0.06202437 -0.13677621 0.1625464 -0.025829477
0.06954812 -0.035481192 -0.117225416 -0.16735211 0.15926719 0.10893314 0.12939054 0.06926325
-0.10109982 -0.08878751 -0.093166284 -0.06195967 -0.10544765 0.040287852 0.1237456 0.10310738
-0.079380184 0.023334542 -0.010813684 -0.116349675 -0.14318894 -0.058026485 0.038293276 0.11948264
-0.14463577 -0.07192037 -0.0343018 -0.12931737 0.07566575 -0.0997515 0.17940076 0.18542325
-0.17494926 -0.00047516963 0.091448076 -0.115009114 0.09174292 0.056150816 -0.043638073 0.14010346
-0.13062376 0.1010401 0.1540405 0.10395299 -0.06679878 -0.06788012 -0.14704521 0.11820956
0.00068548945 0.0006826349 0.07651843 0.16612485 0.18627688 0.079794295 -0.08978017 -0.16756608
-0.10162077 -0.16877541 0.016305976 -0.0202509 -0.050008267 0.064849764 0.06428243 -0.14395939
-0.09624872 -0.092232585 -0.040280834 0.014205721 -0.023923075 -0.088630155 -0.08368423 -0.15961367
-0.0039792196 0.015512603 -0.15348965 0.06327167 -0.046961877 -0.09905506 -0.12317886 -0.04691604
-0.114510804 -0.13200888 0.06495472 0.08323387 -0.06135984 0.061171655 0.015776435 -0.16742755
-0.10045277 0.007490878 -0.051482994 0.07301422 0.19630115 -0.03306325 -0.09750052 -0.0012498747
0.15208903 -0.17217399 -0.15685253 -0.037888616 0.13929893 -0.06504827 0.15767905 -0.11482493
-0.027219633 0.06538937 0.04230909 0.03057238 0.022614473 -0.08447434 -0.16358224 0.073779576
-0.10278441 0.07228377 -0.025863588 -0.06617643 0.21145676 0.08702093 0.04206501 -0.0406616
-0.12817428 -0.105639204 -0.069357045 -0.14300254 -0.13352735 0.09420223 0.06898841 -0.040828634
-0.18895024 0.09398367 0.084315754 -0.12593357 0.102444805 -0.14074843 -0.02189084 0.12432954
0.15758778 -0.19061235 0.16178696 -0.12611747 -0.10191888 -0.03743521 0.16562131 0.15263404

attention_layers.0.AttentionBlock.keys_linear.bias f4 [30]
00000000: 0e28 613d a78f f23d 53f6 443e 9d94 f33d
00000010: 4cb0 52be 5608 4dbe 7918 4c3d dcb7 743e
00000020: 8637 5cbc 66d3 febc 8085 59be c250 8b3e
00000030: aa96 0a3c f263 3b3b f3b0 023e d364 f43d
00000040: 9acc 0e3e 6f17 eb3c 7035 c9bd f4d3 063e
00000050: 91a8 523c ed49 50bd dc59 5dbe 2492 3fbd
00000060: 53ff 28be 4938 e7bc 2fbf 14bd f2ba f9bd
00000070: 4a69 74be be70 f5bd
0.05496984 0.11843806 0.1923459 0.1189358 -0.20575064 -0.20022711 0.049828026 0.23898262
-0.013440972 -0.031106662 -0.21242332 0.2721005 0.008458773 0.0028593508 0.12762813 0.11933293
0.13945237 0.028697697 -0.098246455 0.13166791 0.012857572 -0.05085175 -0.2161631 -0.04677023
-0.16503648 -0.028225081 -0.03631514 -0.1219386 -0.2386829 -0.119843945

attention_layers.0.AttentionBlock.queries_linear.weight f4 [30, 30]
00000000: 8b55 20be 1576 393e 543b e3bd 0b1c 423d
00000010: 7640 fb3b 3c08 243d 0822 e73d f819 39bc
00000020: 8961 393e d9e8 083e a68b c53d 9aab 99bc
00000030: 586e 42bd fe5a 043d 9bc4 1cbe 9e38 dabd
00000040: 1d71 373c 53ca 133e cd56 453c 197b 2c3e
00000050: ce4b 2fbd 39ec e3bc 2f37 ae3c 8cc3 44bd
00000060: 61e4 edbd 0d39 b23d ef60 47bd 4a62 32bd
00000070: 2ee0 edbd 6468 dbbc 7af1 0c3e c996 2dbe
00000080: ff35 1c3e 9561 ee3d d7a3 2fbe 4df0 68bd
00000090: 2fdd dfbd 0fa5 09be 5a4a 07be 2c21 80bd
000000a0: 8112 13bd 1221 1b3e 9cf3 ba3d 8796 0abd
000000b0: fbc3 d0bd a774 e43b 62b9 7e3d f8d2 9b3b
000000c0: e073 97bd e505 a8bc aef3 4fbe b081 963e
000000d0: 9b8d dd3d 3bcc ecbb 3b51 a03d 40f8 3b3e
000000e0: 4a03 abbd b615 c93d d5db 043d 11c3 833d
000000f0: 233a 2c3e 610c 283d 5475 22be caba 143e
00000100: c900 39bc 2170 85bd c572 033e 350e 34be
00000110: b289 183e 0e4c 163e 0f9c 18be 4a5f cbbd
00000120: f304 993d b8b8 79be 9069 f63d d67a 1d3e
00000130: 4c73 913d 3038 a8bd 0d0d 6d3d af43 93bd
00000140: 67d6 99bd 9517 02be 38f7 bd3d 7e6e 293e
00000150: 72a3 f4bd 2dc4 00be 5b35 66bd a693 28be
00000160: 0f8e eb3c b347 aa3c 14ed 13be 1d6c 2cbd
00000170: 2132 2a3e 5f90 0a3e a9ca 4c3c 7967 333d
00000180: 2055 8e3d e946 c03c 4e46 14bc b662 233d
00000190: f7b3 0fbd 0c98 843d 68d3 02be de3c 843e
000001a0: 06c5 003e 7650 dfbd 8851 8ebd 4fdd 2cbe
000001b0: e6be 2e3e ee1a 0fbe 5574 863d b920 d23b
000001c0: b135 c83d 9d1f 39be 6fb2 863d 5586 d13d
000001d0: e26f 96bd 9a0a 413d 9238 a3bd 1256 eebd
000001e0: a221 cebd 4312 8b3d f1b7 aa3a 471f 2dbe
000001f0: 199d 1fbe 39fa afbc 9853 b2bd e025 3bbe
00000200: 1fab 8d3c 43ad 36bd 76a2 d3bd 8633 003e
00000210: 9637 90bd 2275 c23d 7579 b73d e5e3 da3d
00000220: 798b 243e 528e 393e bc82 073e f889 cdbd
00000230: f845 93bd e3df c1bd fcbe af3c 2628 b63d
00000240: d9e0 ea3d e7ee ecbb 7eca 9e3c b4e9 a43c
00000250: 4b41 81bb 81aa 6a3c f68f 06be 592e 3a3d
00000260: 9743 2abe 2865 1fbe 1dba 85bd 88fc 293e
00000270: beb5 23be 89d9 283e 53ab bfbc 1180 2c3c
00000280: 3728 98bc 1e86 1e3e 8ef3 a73c 5165 aabd
00000290: b25c 3a3d 95d0 ca3d 41f0 663d b8ab d73d
000002a0: 1241 c43d a175 28bd f414 f8bd 2459 a33d
000002b0: ccb4 6fba ff42 a23d 71c0 16be 7643 3dbe
000002c0: 4568 9a3d b289 293b edd8 dabd 132b 243e
000002d0: 8ecf 163e 7006 02bd 99b1 a8bd ec06 04be
000002e0: c0e1 683e c36e 15be 1a5d 303e eb6d fdbc
000002f0: 21ab f13c 7923 ffbc 98f3 a3bd dcce 323e
00000300: 40aa 10be 1c98 d5bc 88a9 bebc 3efe 09be
00000310: 6bbb fcbd de7b 7ebb a770 f2bd 7d1d 75bd
00000320: 0abd 6cbd 582f b8be 6a12 cb3d afd6 eabc
00000330: bf6d 813c 0c13 a1bb dfe3 dc3c 4d3e d8bd
00000340: 4282 c7bc dd8e bcbd b14c 003e 985d 283e
00000350: 6212 c53c 7121 4fbb ed54 103e b833 193d
00000360: 03e7 b2bd 12b6 e2bc dade 96bc 2c96 adbd
00000370: 4e01 183d d2e5 ef3d 6d61 f7bd fbc9 29be
00000380: 03f8 32be 1d33 10be 6810 32be b88c 623d
00000390: 4385 033e 1ac5 9abc a5fb cdbd 8fb0 07be
000003a0: ddb9 c33d 44fe 61bc 4779 33bc 5568 bebb
000003b0: 591b 5c3c 8568 1b3e cc36 d53d d0dd 1e3d
000003c0: 9980 a2bc 33fb b1bd ff17 9bbd 77b2 233e
000003d0: 8d11 a7bd e0b4 44bd ed06 7bbd ce58 aa3c
000003e0: b8fc 493d fd92 fd3d 4902 2f3e b4f5 d5bc
000003f0: 70bc 96bb 3b5e a5be d037 1a3e 6e52 80bc
-0.15657632 0.18111451 -0.110953 0.047390025 0.0076675965 0.040046915 0.11285788 -0.011297695
0.18103613 0.13370074 0.096457765 -0.018758584 -0.047468513 0.03231334 -0.15309374 -0.1065533
0.011196402 0.1443265 0.012044621 0.16843833 -0.042796902 -0.0278226 0.021266548 -0.04803805
-0.116158254 0.08702288 -0.048676427 -0.043550767 -0.116150245 -0.026783176 0.13763991 -0.16952051
0.15254973 0.11639706 -0.17152344 -0.056869794 -0.10930859 -0.13441871 -0.13211957 -0.06256327
-0.03590632 0.15149334 0.09128496 -0.03383496 -0.1019363 0.006971914 0.062188514 0.004755374
-0.07395148 -0.020510623 -0.203078 0.2939582 0.10818025 -0.0072264946 0.078279935 0.18356419
-0.08350237 0.09818594 0.03243621 0.0643369 0.16819052 0.04102743 -0.1586507 0.1452438
-0.011291691 -0.065155275 0.1283675 -0.17583545 0.14896277 0.1467745 -0.14903282 -0.09930284
0.07471647 -0.24386871 0.12031853 0.1537889 0.07102069 -0.08213842 0.057873774 -0.07190644
-0.07511597 -0.12704308 0.09275669 0.16546056 -0.11945237 -0.12574835 -0.056203227 -0.16462573
0.028754262 0.020786142 -0.14445907 -0.042095292 0.16620685 0.13531636 0.01249949 0.04379985
0.0694983 0.023471313 -0.009049965 0.03988906 -0.035083737 0.06474313 -0.12775958 0.25827688
0.12575158 -0.109040186 -0.069491446 -0.16881298 0.1706501 -0.13975117 0.06565157 0.0064125923
0.09775866 -0.18078466 0.06577002 0.102307 -0.07345559 0.04712925 -0.07969774 -0.1163751
-0.10065009 0.067905925 0.001302479 -0.16906463 -0.15587272 -0.02148162 -0.087073505 -0.18276167
0.017293511 -0.04459883 -0.10333721 0.12519655 -0.07041852 0.094949976 0.08958713 0.10687999
0.1606883 0.18120697 0.13233465 -0.10036081 -0.0719108 -0.09466531 0.021453373 0.088943765
0.114686675 -0.007230628 0.019383665 0.02013097 -0.003944551 0.014322878 -0.13140854 0.045454357
-0.16627346 -0.15565932 -0.06529639 0.1660024 -0.15987298 0.16489233 -0.023397123 0.01052858
-0.018573863 0.15480849 0.020501878 -0.08320106 0.045498557 0.09903065 0.056381468 0.105307996
0.09582724 -0.041127805 -0.121133715 0.079759866 -0.00091440673 0.07922935 -0.14721848 -0.18482766
0.07539419 0.0025869426 -0.106859066 0.16032057 0.14727613 -0.03174442 -0.08236999 -0.12893265
0.22742367 -0.14593033 0.17223015 -0.030936202 0.029500546 -0.031144844 -0.08005446 0.17461723
-0.14127445 -0.026073508 -0.023274198 -0.13475892 -0.12340435 -0.0038831155 -0.11837893 -0.059842575
-0.05779747 -0.3597362 0.099156216 -0.028666822 0.015799401 -0.0049156006 0.026964126 -0.10558758
-0.024354104 -0.092069365 0.12529255 0.16441953 0.024056617 -0.0031605626 0.14094897 0.03740284
-0.08735468 -0.027674709 -0.01841681 -0.08475909 0.03711062 0.117137566 -0.12079129 -0.16580956
-0.17477421 -0.14081998 -0.17389071 0.05530998 0.12843804 -0.018892813 -0.10057763 -0.13250946
0.09556935 -0.013793532 -0.010954208 -0.005810777 0.013434255 0.1517659 0.10410842 0.038785756
-0.01983671 -0.086904906 -0.07572936 0.15986048 -0.081576444 -0.04802406 -0.0612859 0.020794298
0.049313277 0.123815514 0.17090715 -0.026118137 -0.0046001 -0.32298455 0.15060353 -0.015664306

attention_layers.0.AttentionBlock.queries_linear.bias f4 [30]
00000000: 9ae7 f8bd f2f6 85bd e26e 833d c7dd d73c
00000010: 3a0f 8ebd af8c fcbd 385d fe3b 9653 2cbe
00000020: 54ce 24bd 6eb6 e93d 9cea 1cbd a116 30be
00000030: e27e 11be 5aad 1b3e 5174 a6bd d2e2 0b3e
00000040: eb04 223c 3b60 aabd 6a85 043c 7244 2a3e
00000050: 99c4 d63d 3266 0e3d 0da8 21bd 0e40 d2bd
00000060: e9ab 9d3d cc97 da3d ceeb 96bd d7f9 86bd
00000070: b83a d73d 83a8 073e
-0.121535495 -0.06541242 0.064176336 0.026350869 -0.06936498 -0.12331521 0.0077625774 -0.1682876
-0.040235832 0.11411749 -0.03830968 -0.17196132 -0.14208558 0.15202847 -0.08127654 0.13660744
0.009888868 -0.08319136 0.008088449 0.16627672 0.10486717 0.03476543 -0.039466906 -0.10266124
0.07698805 0.10673484 -0.07369195 -0.06590622 0.105092466 0.13247876

attention_layers.0.AttentionBlock.values_linear.weight f4 [30, 30]
00000000: fbbf c43d 6ec1 863d 8692 4d3d 799c a3bd
00000010: bf82 fd3d 0b18 99bc 28a9 193e 9596 253e
00000020: 290c 46bd 09f7 86bd d4bf 933b 41d8 d0bc
00000030: a448 97bd f5d6 513c ab48 1a3b 0c77 a53d
00000040: b427 883b 9598 1ebe 22b7 633c 09bb fb3d
00000050: 17dd 873d d8ff 0dbe 2959 eb3d 794a 2e3d
00000060: 3028 b7bc 1f56 903d e990 e3bb b859 1b3e
00000070: 3b0d a13a be0a be3d 2c59 d53d 076b 1cbe
00000080: 1c80 00be d9ca 3dbd e313 003e 4d15 fabd
00000090: d3b5 62bd 608a f03a 8fee 623d 86de 4e3e
000000a0: 37e9 f93d 131e 0b3d c447 abbd 7192 1abe
000000b0: e9dd c33d 44c0 dabd 5434 04be 4e74 6cbd
000000c0: 49d2 aebd 1bbc babc e835 d5bd c32a 02be
000000d0: 2297 6d3d dc23 c7bd f887 ba3c ba40 3bbe
000000e0: d20f eb3d a5ac c4bd 9d16 103e cfee 393d
000000f0: ee00 843d e2e4 9f3d 8030 48bd 8425 ffbc
00000100: 7b6e a73d e6d3 043b c6f7 413d 0ae5 bcbd
00000110: 7140 28be 7453 593c 57df 93bd 1ad5 18bd
00000120: a4a3 0fbe 9c7c 293e d7b5 b13d 4e27 9e3d
00000130: f75e 15be a877 cfbd 0a03 4bbd 83c6 cc3a
00000140: 6ae2 ca3d 8b3e 4f3d f685 4ebe 932c 1ebe
00000150: 343f d13c 68c8 85b7 1e98 39bd 3862 2cbd
00000160: ef72 53bd 943e 0abe 15e8 a13c ed52 b23d
00000170: 8314 b73d 3b53 18be fcc4 dc3d ea10 55be
00000180: a317 4cbd 7df0 2c3e 2fe9 033e 0e48 19be
00000190: a17b 23be ae33 003e 66ae c5bd ae24 fbbb
000001a0: 3de1 2abd e0bc 1cbc df06 6a3d 5d34 2d3e
000001b0: df56 09be 3861 cd3d 9a21 bfbd 9895 97bc
000001c0: fd36 f93b 446c 0abe 1e4f 9e3c 1b28 16be
000001d0: 596f dfbd de01 cbbd 9b73 973d 10fa 5fbe
000001e0: 29a1 a23d 45d9 89bd 11db 9b3d b72f 833d
000001f0: 02e5 1c3e 5ea8 99bd 8731 95bc 7e71 b73d
00000200: 08a8 edbd a153 b33c f98d b6bd 342f 3fbd
00000210: 49a9 10be ba4b 0c3e 3ad2 d3bd e5e9 003e
00000220: c3a9 23bd 9fe0 dd3d 09d6 c43b f1e2 1dbe
00000230: 5af9 29be 2c95 123e 96e4 033e d57f 14be
00000240: e4ab 013e 4fd9 a3bc d4ca 8e3d 2738 a63d
00000250: 018c f03d 5e30 aa3c 84b9 2f3e c5b3 303e
00000260: a296 313e 600f c83d 495f 7bbc ea07 3c3e
00000270: f891 663d 8a6b 003e 5144 0abb dac2 d6bd
00000280: 9785 8d3d cf5c f6bc 8f1c 2abe b9d1 20bd
00000290: e498 df3c dfb3 d1bd 38a8 753e f0d2 153e
000002a0: 53d6 0bbe bb1f 24be 4220 96bc 501e 2ebe
000002b0: 1bbd b1bc 5bf3 8d3d 6940 613e fb14 3ebe
000002c0: 95c3 e3bd 8c2c 1cbe 6be3 5c3d 6590 c03d
000002d0: c39e 503e 7f6e 2e3d 0ba1 1c3e 127d 46bd
000002e0: fea5 ac3d 15bc 10be 7ef0 99bd 52f8 283e
000002f0: f78a f2bc 5747 22be 5c65 0bbe bd3a d7bd
00000300: a5f5 7abd dda6 49be 9377 cbbd 8422 96bd
00000310: e682 823d bf32 13bd af9f f23d 42c4 623d
00000320: ed9b 00be 7d17 b4be ad74 34be 758e 873d
00000330: 8ac4 563d 7c99 f2bd a8d6 173d 09e2 15bd
00000340: db48 25bd 402a c33c 5566 20be 434a 1dbe
00000350: 0e37 c3bc b722 e83d aed3 91bd 6c82 013e
00000360: 20e8 303d a802 053e 56a0 21be c61a 1f3e
00000370: 9ff9 2d3e 1fea c83c ac2b 193e b921 4b3e
00000380: c86f 933c 8724 b1bd 3674 60be 13a8 633d
00000390: c494 88bb dcf9 263e 0e03 e5bd aeac 8bbd
000003a0: 34c3 423d 1c26 0fbe d5fd b23d de59 0e3e
000003b0: bed0 2cbe 06d0 12bd a5de c03d 1f27 483e
000003c0: dbe4 ffbd 732c e23c c9a7 a9bc 1b4f e2bd
000003d0: 8754 9cbd 2375 5b3c 8b8e 94bd 8a25 0f3e
000003e0: 6b8f 56bd c4f0 f1bd bd34 27be f272 873d
000003f0: 682d dabd e92d 0cbe f38b d33d 7ba4 d1bd
0.0960693 0.065798625 0.050188564 -0.07988829 0.123784535 -0.018688222 0.15005934 0.16170724
-0.04835144 -0.06590087 0.0045089517 -0.025493743 -0.07386902 0.012807597 0.0023541849 0.08079347
0.0041551236 -0.15487893 0.013898643 0.122915335 0.066339664 -0.13867128 0.11491615 0.04255149
-0.02235803 0.07047676 -0.006944765 0.15170944 0.0012287268 0.09279393 0.10417399 -0.15275203
-0.1254887 -0.04633603 0.12507586 -0.12211094 -0.055349182 0.0018351786 0.05540329 0.20202073
0.12202685 0.033964228 -0.083632976 -0.15094925 0.095638104 -0.10681203 -0.12910587 -0.057728104
-0.085362025 -0.022794774 -0.104106724 -0.12711625 0.05800546 -0.097236365 0.022769913 -0.1828641
0.11477627 -0.09603242 0.14071126 0.04539376 0.0644549 0.07807328 -0.04887438 -0.031145819
0.08175369 0.0020267903 0.047355436 -0.09223373 -0.16430832 0.013264526 -0.07220333 -0.037312604
-0.14027268 0.16551441 0.08677261 0.077223405 -0.14587007 -0.101302445 -0.049563445 0.0015623126
0.09906466 0.050596755 -0.2016829 -0.15446691 0.025542833 -1.5948157e-05 -0.045311086 -0.042085856
-0.05162328 -0.13500434 0.019763986 0.08707223 0.08939459 -0.148755 0.10779759 -0.20807233
-0.04982723 0.16888614 0.12881921 -0.14968893 -0.1596513 0.12519714 -0.096524045 -0.0076642847
-0.04171871 -0.009566516 0.05713546 0.16914506 -0.13412045 0.10028309 -0.09332581 -0.018503949
0.007605432 -0.13517863 0.019324835 -0.14663737 -0.1090991 -0.099124655 0.07395097 -0.21872735
0.07940895 -0.06730894 0.07610143 0.06405585 0.15321735 -0.075028166 -0.018212093 0.08957194
-0.11604315 0.021890463 -0.08913798 -0.046675876 -0.14127077 0.13700762 -0.10342832 0.12589224
-0.03995682 0.10833859 0.0060069603 -0.15418603 -0.16599026 0.14314717 0.12880167 -0.14501889
0.12663227 -0.020001082 0.0697228 0.08116179 0.117454536 0.020775016 0.17160612 0.17256077
0.17342618 0.097685575 -0.015342542 0.18362394 0.05629155 0.12541023 -0.0021097849 -0.10486384
0.06910246 -0.030073551 -0.16612457 -0.039262507 0.027294584 -0.10239386 0.23989952 0.14631248
-0.13655977 -0.16027729 -0.018325929 -0.17003751 -0.021696618 0.06931182 0.21997227 -0.18562691
-0.11121289 -0.15251368 0.05392782 0.09402541 0.20373063 0.042585846 0.15295808 -0.04845912
0.08430098 -0.14134248 -0.07516573 0.16500977 -0.02960728 -0.15847526 -0.13612884 -0.1050925
-0.06126942 -0.1969256 -0.09934916 -0.07330802 0.06372623 -0.035937067 0.118468635 0.055362947
-0.12559481 -0.3517417 -0.17622633 0.066189684 0.052433528 -0.11845681 0.037069947 -0.036592517
-0.040352684 0.023823857 -0.15664037 -0.1536036 -0.023829963 0.11334746 -0.07120453 0.12647408
0.04319012 0.12989295 -0.1578382 0.15537557 0.16989754 0.0245257 0.14958066 0.19837083
0.017997637 -0.08649545 -0.21919331 0.05558021 -0.004168125 0.16306251 -0.11182223 -0.068200454
0.04754944 -0.13979381 0.08739821 0.13901469 -0.16876504 -0.035842918 0.09417466 0.19546174
-0.124948226 0.027609086 -0.020709889 -0.110502444 -0.0763331 0.013394627 -0.072537504 0.13979164
-0.052382868 -0.118135005 -0.16328712 0.06613721 -0.10653192 -0.13689388 0.103294276 -0.1023645

attention_layers.0.AttentionBlock.values_linear.bias f4 [30]
00000000: 3c9b 423e 9657 e1bd e1b7 e5bc 7af3 e23c
00000010: 883e 25bd a3c0 e13c e07b 913d 0b7e 683d
00000020: c603 e63c e808 6e3d 04b9 01be 36f1 d2bd
00000030: 6d2f eb3d 5b85 24be 0ef0 123e 1e65 88bd
00000040: 9e1b 77bd ca7f 83bc acbf 00bd 2112 833c
00000050: 6960 963d e189 22bd 6537 2b3e 0d77 553d
00000060: 1198 00be 9f74 24bd 62fd 8dbd 015f 45bd
00000070: 5a04 113e a30a 913d
0.1900453 -0.11003034 -0.028041782 0.02770399 -0.040342838 0.027557677 0.071037054 0.05676083
0.028077971 0.058113962 -0.12668234 -0.102999136 0.11483655 -0.16066496 0.14349386 -0.066599116
-0.060329072 -0.016052146 -0.031432793 0.015999855 0.073426075 -0.039682273 0.1672035 0.05211549
-0.12558009 -0.04015028 -0.069330946 -0.048186306 0.14161816 0.07082107

attention_layers.0.ffn.linear1.weight f4 [120, 30]
00000000: 46f3 2fbd c859 423d 9b78 023d 3972 26be
00000010: 4acd ccbd b8a2 863d ed77 2c3e 4fe9 c2bd
00000020: 512f 87bd 84ca 73bd 0e6d afbc bb20 eb3d
00000030: 77b0 81bd d95c 7abd f4d0 3ebe 95a6 1dbe
00000040: a337 993c 36b9 f6bd 44ee 66bb 3645 a93d
00000050: 5321 28be a913 9abd a168 473e 965f 16be
00000060: 0a25 7d3d 87d8 05be b1d5 003e 86fd 0abe
00000070: 28e6 443e b4bf 3cbe e7fb 3c3c 3c28 7c3c
00000080: 50ea 9a3c 7079 063e 62ba babd b76c adba
00000090: e1bb 04be 7554 d53d 745d dbbc 3bdf faba
000000a0: 25db a13d fee4 583d 1cf3 bdbc 7bd1 543d
000000b0: 4988 22be 5d73 873d d87a e13d 0020 d7bd
000000c0: 3ffe 3cbe 121a 5e3c ffa8 7e3c f899 8f3d
000000d0: f565 413c 68df bebd 5657 9a3d 0ebd 5abe
000000e0: e724 e8bd cbe9 993d 72f2 733d 41ab 083e
000000f0: 4d3a 423e 0d54 7ebe c339 bf3c f786 e03d
00000100: ec99 183e c859 d4bd 9777 a13d 76b9 8bbe
00000110: a86b 5dbd 9618 bdbd 1259 0f3e 3335 473d
00000120: 9a08 01bd 0ec1 f73c 412f 20be ea7e 723d
00000130: c702 b2bd c0c1 cc3d abc0 02be 575c d03d
00000140: 9c8a 0ebe 0016 0e3e d83c 59be c0b2 44bb
00000150: e48e e43d b3a8 b13d c2e6 1ebc 393d 3e3d
00000160: 8eb0 643e 7fbc 1ebe 0d40 2d3e f9c5 45be
00000170: 9696 81bd 887c 263e 5139 9f3d 28f6 b43d
00000180: 7c24 0fbe 2e0e 50bd b9fb dd3d 725d 8abc
00000190: ffb3 f8bd 2923 59bd 4afd 073e 4ccf dbbc
000001a0: b864 56bd 3fee e3bc 4bf8 8fbc 30bd 0a3d
000001b0: 2fac 3ebd 0674 1d3e 26f0 dc3d d44d de3d
000001c0: 7afb f1bd c4dc 0c3d 46d0 0e3e 99f7 f93d
000001d0: 4429 bebd 764d 543e cef0 e93d 52d4 ea3a
000001e0: 81d0 b6bd e4d3 7c3d 9c82 c3bd 61db 16be
000001f0: 00f2 cdbd 21f2 55bd 5dd4 dcbd 7cd3 d7bd
00000200: 5484 5f3e a382 69be 7cff d9bd 5130 17be
00000210: 35d8 113c ddcf 673e 4e8b 13be caa9 313e
00000220: 82ce 8d3b 3790 503e 938f b3bc 4fb6 483c
00000230: 84a1 cabd 8581 1bbd 5416 2fbe 6f02 2abe
00000240: e4d8 353d fd69 e1bb f1a7 df3d f253 a43d
00000250: d9b3 0bbe e7b3 8a3d 4238 063d 430e 43be
00000260: 76d2 19be 27a9 1c3d fd7f 74be 56ac d7bd
00000270: f2ff 94bd 4833 02be 6ba8 e7bd 1d99 60be
00000280: 701d 16be a979 fbbd bc3f 243e de33 2b3e
00000290: 7c8e f8bd 7687 963e 2fc5 7b3e 8c29 13bd
000002a0: 374f 653c 7c67 1e3e 1b79 183e 8972 4e3e
000002b0: 0628 903d e77c 97bd 486e 2ebe a4b8 2c3e
000002c0: 0243 80be a9be 823e e373 41be b75b a0bd
000002d0: b729 77bd 1746 3cbe 08ed 673d 12a1 113e
000002e0: 73d7 8d3d 46fb 473e 69e4 dabd b685 c2bd
000002f0: b911 c43d 597f 4abe 1986 f23d c827 09be
00000300: 0610 2a3d aa9c d0bd 4daf 4e3c 02d5 203e
00000310: 9876 173e 4a8e 0ebe 3519 abbd 740b adbd
00000320: 16c9 b5bd 3f41 35bd e6ca dcbd 4f7a c43c
00000330: 4a4d 39bd 1b66 123e 15b7 0c3d 171c 8abd
00000340: c594 7fbd 3e35 133d e260 0e3e c248 4c3c
00000350: 5819 dabd cc03 1b3e f21d 99bd f12d 103d
00000360: 15b1 e03d 86bf b83d 6a82 00be bf1e 133d
00000370: b69c 79bd 69ec 11be e917 e1bd e6ad 213b
00000380: 27c2 de3d 45fe 1abe bc8f 013c 7d69 b0bd
00000390: 302f 4cbe f3fe f53d 5c1a 98bd 5f00 f03d
000003a0: 512e fb3c ad73 0abe 14e4 06be 29e9 3f3d
000003b0: 12e8 a73d ff6d 7c3d 37de 98bb c471 d73d
000003c0: 6c61 a3b9 0e23 3ebe 656f 663e fb10 d63d
000003d0: 03d3 e2bd c146 1f3e 5069 183d 68f0 86b7
000003e0: 8bb7 cb3d 0977 efbd 1b39 50be 67bd ad3d
000003f0: 6d42 e8bd d0e7 db38 b284 d3bd 0aed 09be
-0.042956613 0.047448903 0.0318533 -0.1625451 -0.10000093 0.06574005 0.16842623 -0.09517156
-0.06600822 -0.059519306 -0.021414306 0.11480852 -0.06332486 -0.061123703 -0.18634397 -0.15395577
0.018703287 -0.12047045 -0.0035237232 0.08265154 -0.16418962 -0.07523281 0.19473507 -0.146849
0.0618029 -0.1307088 0.12581517 -0.13573274 0.19228423 -0.18432504 0.011534668 0.015390452
0.018910557 0.13132262 -0.09117581 -0.0013231252 -0.12962295 0.104164995 -0.02677796 -0.0019140014
0.079031266 0.05295276 -0.023187213 0.05195759 -0.15872301 0.06613801 0.11009759 -0.105041504
-0.18456362 0.01355602 0.0155432215 0.07011789 0.011804094 -0.09319955 0.07536189 -0.21361181
-0.113351636 0.075152956 0.059557386 0.13346578 0.18967552 -0.2483675 0.023342973 0.109632425
0.14902467 -0.10368687 0.07884138 -0.27289933 -0.054057747 -0.09233205 0.13998821 0.04863472
-0.031502344 0.030243423 -0.15643026 0.059203066 -0.08691936 0.099978924 -0.1276881 0.101738624
-0.13920063 0.1387558 -0.21214616 -0.003001377 0.11160067 0.08674755 -0.009698572 0.046445105
0.22332975 -0.15501593 0.16918965 -0.19313802 -0.0632755 0.16258442 0.07774604 0.08836013
-0.13978761 -0.050794773 0.10839028 -0.016890261 -0.121437065 -0.053012047 0.13280216 -0.026832245
-0.052342147 -0.027823566 -0.01757445 0.03387183 -0.046550926 0.1537629 0.10787992 0.10854688
-0.118155435 0.034390226 0.13946638 0.12205429 -0.092852145 0.20732674 0.11422883 0.001791606
-0.08926488 0.061725512 -0.09546396 -0.14732124 -0.100559235 -0.052232865 -0.107826926 -0.10538384
0.21827823 -0.2280374 -0.10644433 -0.14764525 0.008901645 0.22637887 -0.1440861 0.17349926
0.004327596 0.20367514 -0.021919047 0.012250497 -0.09894088 -0.037965316 -0.17098361 -0.16602491
0.044396296 -0.00687909 0.10920704 0.08023824 -0.13642825 0.06772595 0.032768495 -0.19048409
-0.1502169 0.038247254 -0.23876949 -0.10530917 -0.0727538 -0.12714875 -0.1131142 -0.21933408
-0.14659667 -0.12279064 0.16039938 0.16719005 -0.12136552 0.29400223 0.24586938 -0.035928294
0.013995937 0.15469164 0.14889948 0.20160879 0.07038884 -0.0739687 -0.17034256 0.1686731
-0.25051123 0.25536087 -0.18891864 -0.07829993 -0.060342517 -0.18386112 0.056622535 0.142216
0.06925859 0.19529447 -0.10688097 -0.094981596 0.09573693 -0.19775142 0.11841983 -0.13394082
0.041519187 -0.10186131 0.012615037 0.15706256 0.14791334 -0.13921466 -0.08354417 -0.0844945
-0.08876245 -0.044251677 -0.10780887 0.023984103 -0.045239724 0.14296763 0.034354288 -0.06743639
-0.062397737 0.035939448 0.13904145 0.012468519 -0.10649365 0.15138167 -0.07476415 0.035200063
0.10971276 0.09020905 -0.12549749 0.035917994 -0.060940467 -0.1425034 -0.109908886 0.0024670302
0.10876875 -0.15136059 0.007907804 -0.0861387 -0.19939876 0.12011518 -0.07426903 0.11718821
0.030661734 -0.1352069 -0.13172942 0.04685322 0.08198561 0.061628338 -0.004665162 0.10519746
-0.00031162368 -0.1856806 0.22503431 0.104524575 -0.110754035 0.15554334 0.03720981 -1.6085993e-05
0.099471174 -0.11692626 -0.20334284 0.08483391 -0.11340795 0.00010485912 -0.10328044 -0.1346933

attention_layers.0.ffn.linear1.bias f4 [120]
00000000: d291 edbd 1831 03be 0143 1bbe c83b 5bbe
00000010: 3f82 2bbe e5ae 85bd c5bb 52bd 291f 37be
00000020: 0712 92bd 1c31 7e3d 34b2 5e3d e09c 883d
00000030: 6849 33be d47f e93d 44f4 51bd 5aac 2f3e
00000040: 209d 08be 7088 ce3d c26d 2bbe 3701 0cbe
00000050: 6734 e53d 3160 d53d 19d5 fbbd 29c9 eb3d
00000060: 8ff9 263d 7c0f d0bc 05bf 10be 218c 87bc
00000070: f058 963c a7df e2bd 6e24 b4bc 193e e7bc
00000080: 8feb bc3d 0088 12bd ef2a e53d b0e6 32be
00000090: 96c0 3dbc 0512 f5bd 5a70 96bd a8a7 b93d
000000a0: eaac b93d 0444 af3d bd8a e0bd b5db 713d
000000b0: 1831 313d 777e d53c 3fef 7dbd 4b4f 2e3e
000000c0: d1d9 f33c 40e8 db3d d6fb c43c 8a4b 99bd
000000d0: cb64 28be 9835 c2bb 7cc0 053e 8d2f 3e3d
000000e0: 2588 8bbd 0dbd e63d b146 fe3d 3461 2cbe
000000f0: c4e3 e4bd add5 93bc 3e45 2b3e b9fb f83d
00000100: 1699 ffbd dec8 7c3d 2686 dcbd 2688 f7bc
00000110: 9f0e 1c3e 3a2e 3a3d f6c6 26be d0b8 fe3c
00000120: d327 dc3b 9412 01be 3d0d 423e 8f3e 0e3e
00000130: ca5f dc3d 8295 103d 173e 5f3d 6e0b 03be
00000140: e84c 253e a395 3cbd f876 36be b715 033e
00000150: b96e 13bd 3326 29be f67e 36ba b328 b4bd
00000160: 0ef9 99bd c7ee f7bd c6e1 233e a6c1 2fbe
00000170: bf02 b23d ea1c 943d 5cbd d7bc 5443 233c
00000180: bb96 b73c 0dd0 253e 4195 45be 3962 79bb
00000190: a57f 183e 3439 0dbe 17e9 e33d 86ba c6bc
000001a0: c89d 1b3e fc5e bebd d9ec 0dbe e117 28be
000001b0: 7336 113c 0c39 edbd 7605 a63d 331e 3ebe
000001c0: 6588 dd3d cd9f cabc 64b8 e6bd e984 ec3d
000001d0: d2c6 2b3e 776c 49be 168d f63b fe64 6f3d
-0.11600079 -0.12811697 -0.15162279 -0.21409523 -0.16748904 -0.06527499 -0.051448602 -0.1788298
-0.07132345 0.062058553 0.054369166 0.066705465 -0.17508471 0.114013344 -0.05125834 0.1715559
-0.13341188 0.10084617 -0.16741088 -0.13672338 0.111916356 0.10418738 -0.122965045 0.11512978
0.04076534 -0.025398009 -0.14135368 -0.01654631 0.018352956 -0.110778145 -0.021990027 -0.028227853
0.09224617 -0.03577423 0.111898296 -0.17470813 -0.011581561 -0.119663276 -0.07345648 0.09065181
0.09066184 0.08557895 -0.10963962 0.05904742 0.04325971 0.02606128 -0.06199574 0.17022435
0.029766949 0.107376575 0.024045866 -0.07485111 -0.164447 -0.005926799 0.13061708 0.046432067
-0.06813077 0.11266527 0.12415827 -0.16833955 -0.11176255 -0.018046224 0.16725633 0.12157387
-0.12480371 0.061715 -0.10767774 -0.030216288 0.15239953 0.04545424 -0.16286835 0.031093985
0.0067186146 -0.12604743 0.18950363 0.13891052 0.10760458 0.03529883 0.054502573 -0.12797329
0.16142619 -0.046041142 -0.1781882 0.12801252 -0.035994265 -0.16518478 -0.00069616677 -0.08796825
-0.075182065 -0.1210609 0.16004094 -0.17163715 0.0869193 0.072320774 -0.02633541 0.009964783
0.022410741 0.16192646 -0.19295217 -0.003805293 0.14892443 -0.13791353 0.11128443 -0.024258863
0.15196908 -0.092954606 -0.13859881 -0.16415359 0.008863079 -0.115831465 0.0810651 -0.18566208
0.10817031 -0.024734402 -0.112656385 0.11548788 0.16775063 -0.19670282 0.007524143 0.058445923

attention_layers.0.ffn.linear2.weight f4 [30, 120]
00000000: ac18 0cbc 8bec 2b3d ea6d aebc 1e12 08bd
00000010: c94a bb3d c499 91bc a203 503d 9aa4 803d
00000020: 639d 26bd 3586 9e3c 600e db3c 7747 143e
00000030: 4f7c 6d3d 4476 823c 88c6 80bd 5c59 2cbb
00000040: 39b5 243d 505c 25bd 1d25 033d d713 483d
00000050: 6f8c edbc f7d1 9c3d b988 6b3c e41b 003d
00000060: 87f6 00bc bc58 ab3d 3ce9 61bd 5959 89bc
00000070: 12e8 ff3d f1b4 ce3c 461b 803d f3dd ac3d
00000080: dd38 9dbd 6c3e f33c 863a 0d3e dfbf 163d
00000090: 2f1b 16bd 76a7 60bd 02b9 373b cfbf b93d
000000a0: f055 13bd 4b61 2d3d 878d 0c3d c0c9 873d
000000b0: 1b24 f23b 51e1 2cbb ba40 edbc a6a7 843d
000000c0: 5107 c33d 1de2 adbd 57b9 1cbc b36a 36bb
000000d0: 8871 cdbd 6096 f6bc 8a38 66bd beb5 c13d
000000e0: 5a4d 3e3d ec44 38be 5bd6 6e3d b240 8c3d
000000f0: 4fb0 bd38 e207 023d b68b 393d 45fb f23a
00000100: edf2 1e3e b9db 68bd 697f 8a3d b3fb 15bc
00000110: 9afd d63c a03f 303d e598 bb3c fabd b63d
00000120: 7678 7f3d 47da 823d 8fe1 073e 73d0 a03d
00000130: cf9d 51ba fddf 493d 2e11 27bd ac32 aebd
00000140: f3cb 103e 5852 7e3c 3f06 1e3d 7b2c 44bd
00000150: 3e1f 9d3d 5333 2a3d 2bf8 8bbd bb53 1cbe
00000160: bd3a 823d 0fa3 b63d a24f b7bc f359 d53c
00000170: dc3f 033d 6358 ca3c afee 7d3d da00 e3bc
00000180: f868 a3bc 4609 b13d f290 3c3d 98d6 723c
00000190: 3ad5 f2bc fac0 8b3c 09d4 2e3d 9ac2 28bd
000001a0: d112 4d3d 3074 383d 3f9e 623d e2e5 9ebd
000001b0: 1245 4f3d be76 58bd f738 663d b756 aebc
000001c0: 6aa3 11bc 8d3e df3d 25e4 6bbd 6668 3c3d
000001d0: b46c 6cbd 3f03 903d 94f8 2dbd 20e4 2b3d
000001e0: b109 1dbd e1e7 19bd 12ad aebd 11c0 e83b
000001f0: 2d3e f2bd 1e5e b7bc 2237 8d3d 3639 86bd
00000200: 6702 8b3d a193 e43d a4b7 f23c eb5e 1abe
00000210: b6b9 293d 50d3 bb3d 75a5 913d ebd9 7b3d
00000220: cf97 d43c c851 af3a f110 24bd 220b 92bc
00000230: 3a33 38bd d4f1 5cbd 3a45 97bd acea 8a3d
00000240: 99dc b23d 40c4 d63c 8bdb 6f3c 92ed 0a3d
00000250: dc87 7cbd 1475 21bd 7a12 c63c 983a 7f3b
00000260: bd31 9bbc 6fc2 18bd 125c c6bd ea28 6b3c
00000270: 9dd6 4abd 7e33 fbbc 281c e0bd 9b6d ef3c
00000280: 2d4b 303c 12ea 20bc b2f9 343d a23a 273d
00000290: 0035 1b3c d0e2 053d 6653 14bd dbd6 1f3d
000002a0: 7739 35bd 4adb 40bb 1a40 5cbd 5168 62bd
000002b0: 5dee cbbc 8694 ab3d 0a42 3b3d ff22 133e
000002c0: 0476 953d b133 2b3e c7ff 35bd 8a91 b8bd
000002d0: d5a4 8dbd 35e6 083d dcf8 623a ca93 bebc
000002e0: 0df3 573d 1d4a 033e 85f6 cabd 59bf 71bc
000002f0: 28db 9ebd 98ad f23d 62ed 733d a917 91bd
00000300: 3c5b 363c 1c0a 8ebd 9c09 dc3d 0054 51bd
00000310: 3dfd 923d 79d3 55bd 4202 5ebc 1ff0 50bd
00000320: e5b6 1a3d c879 313d 4fdf cc3c 8048 4ebd
00000330: 78c8 d63d a06c 103c c42f 48bd 9533 193e
00000340: e1bf 03bc f7fa 5ebd 12a1 9d3d 70f5 c5bd
00000350: 3dbf 8ebd 4d33 c13c c103 70bd e538 8d3d
00000360: 58fe 1b3d 5af6 6e38 de9a 33bc e7ab 983c
00000370: a953 29bd 9aab c83d dd07 afbd d2b8 dcbc
00000380: 7695 253d 00f9 efbd f935 7f3d 1a2d 69bd
00000390: 920e b5bd 5d38 40bd 4400 9f3d 6c71 4cbd
000003a0: bdf8 bdbc 9899 59bd 6517 143d d00e 91bc
000003b0: a121 ddbc d697 463c 5e1d c23d bdb0 56bd
000003c0: a074 5abd c6bb cb3b 4b72 2e3e 2618 fe3b
000003d0: 98ef 9cbd 70b9 6c3d 7dc2 09bd 37e3 fb3c
000003e0: a308 fcbc 978b 7fbd fbfd 45bd 3ff2 c7bb
000003f0: c3dd 86bd f783 40bd 9051 22bd 8510 5abd
-0.008550804 0.04197363 -0.021292645 -0.033220403 0.091451235 -0.017773516 0.050784715 0.06281395
-0.04067744 0.019351104 0.026740253 0.14480387 0.057979878 0.015925534 -0.06287867 -0.002629838
0.04021189 -0.04037124 0.032017816 0.048847046 -0.028997628 0.07657235 0.014375859 0.0312766
-0.007871277 0.08366534 -0.05515407 -0.016766237 0.12495436 0.025232764 0.06255202 0.08440771
-0.076768614 0.029692851 0.13791856 0.036804076 -0.036647018 -0.054847203 0.0028033857 0.09069788
-0.03597063 0.042329114 0.03431466 0.06630278 0.007389558 -0.0026379416 -0.028961528 0.06477289
0.0952288 -0.08490393 -0.009565673 -0.0027834594 -0.1003142 -0.030101001 -0.056206264 0.09458493
0.046460487 -0.17995042 0.058309894 0.06848277 9.045062e-05 0.0317458 0.045299254 0.0018538019
0.15522356 -0.05685017 0.06762583 -0.009154248 0.026243974 0.043029428 0.022900054 0.08922954
0.06237074 0.06389289 0.13269638 0.078522585 -0.00079962326 0.049285877 -0.04078787 -0.08505759
0.141403 0.015522562 0.038580175 -0.047893982 0.076719746 0.041552853 -0.06834444 -0.15266316
0.0635886 0.0891782 -0.02237684 0.026043868 0.032043323 0.02470035 0.061995205 -0.027710367
-0.019947514 0.08644347 0.046036668 0.014821671 -0.02964269 0.017059792 0.04268268 -0.04120121
0.050066773 0.04503268 0.055326696 -0.077586904 0.05060298 -0.052847616 0.05620667 -0.021281583
-0.008889059 0.109006025 -0.057590622 0.045998 -0.057720855 0.07031869 -0.04247339 0.041965604
-0.03833932 -0.037574653 -0.08529104 0.007102974 -0.11828265 -0.022383746 0.068952814 -0.06553881
0.067875676 0.111609705 0.029628582 -0.15075271 0.041436873 0.09171164 0.071116365 0.06148712
0.025951294 0.0013375813 -0.04005522 -0.017827574 -0.04497073 -0.053941563 -0.07386251 0.06783041
0.08733482 0.026216626 0.0146397455 0.03391797 -0.061653003 -0.039418295 0.024178732 0.0038944837
-0.018944615 -0.0372948 -0.0968553 0.014353016 -0.049521077 -0.030664202 -0.109428704 0.029227069
0.010760111 -0.009821432 0.04418344 0.0408274 0.009473085 0.03268701 -0.036212347 0.03902326
-0.044244256 -0.0029427581 -0.05377207 -0.055275265 -0.024893934 0.08377938 0.045717277 0.14368819
0.072979 0.16718937 -0.04443338 -0.090121344 -0.06916205 0.033422668 0.0008658299 -0.02326383
0.052722026 0.1282124 -0.09910301 -0.0147550935 -0.077566445 0.11849517 0.059552558 -0.07084591
0.01113015 -0.06935522 0.1074402 -0.0511055 0.071772076 -0.05220363 -0.013550343 -0.051010247
0.037772078 0.04332903 0.025008826 -0.05036211 0.10487455 0.008814961 -0.048873678 0.14961083
-0.008041353 -0.054438557 0.07696737 -0.09665954 -0.069700696 0.023584032 -0.05859733 0.068956174
0.038084358 5.6973055e-05 -0.010962216 0.018636657 -0.04133955 0.097983554 -0.08546422 -0.026943598
0.04042574 -0.11717415 0.06230733 -0.056927778 -0.0884067 -0.046928752 0.077637225 -0.049912855
-0.023189897 -0.053124994 0.036155123 -0.017707258 -0.026993575 0.012121161 0.094782576 -0.052414645
-0.05333388 0.0062174527 0.17035787 0.0077543436 -0.076628864 0.057794034 -0.033632744 0.030747993
-0.030765837 -0.062388983 -0.048337918 -0.006101876 -0.065852664 -0.04700085 -0.039628565 -0.05323841

attention_layers.0.ffn.linear2.bias f4 [30]
00000000: 314c 1fbd e257 aabd 1848 72bd 48fa 95bd
00000010: fd64 9d3d 2f30 a4bd 442a 803c 4072 b4bd
00000020: 280c d1bc 72ff 6c3d d243 e6bc b801 cebc
00000030: 43d3 553d c186 12bd bf18 823b d03b a4bd
00000040: 1883 4e3d 20c9 d03c 4c58 163d ae56 6cbd
00000050: 3968 11bd 4bb3 61bc 7b3a 81bd 0b5d a6bd
00000060: 5659 89bd d291 c1bb 0f2b 1c3d 22e4 13bd
00000070: 8a1c 2d3d db6e 8d3d
-0.03889102 -0.083175436 -0.059150785 -0.07323128 0.076852776 -0.08017003 0.015645154 -0.08810854
-0.025518492 0.0578608 -0.028108511 -0.025147304 0.052203428 -0.035773043 0.003970235 -0.08019221
0.05041799 0.025486529 0.0367053 -0.05769985 -0.035499785 -0.013775657 -0.063099824 -0.08123215
-0.067064926 -0.0059072757 0.038127 -0.036106236 0.042263545 0.0690591

attention_layers.0.norm1.weight f4 [30]
00000000: 82a4 7d3f 08f4 7e3f 919c 813f c401 803f
00000010: 135d 7c3f 56dc 833f c1d8 8d3f b30e 823f
00000020: 7354 7a3f e2a8 823f d6ca 7e3f ffdb 7c3f
00000030: f9ab 7e3f 07eb 7c3f ca00 813f 00cf 833f
00000040: 269a 843f 2ff6 7f3f 6a03 823f 45ab 7e3f
00000050: 60af 813f a779 7f3f 7e7d 903f 61c0 803f
00000060: a37a 7a3f 083d 793f 7b75 7e3f 732d 833f
00000070: 0f1e 7c3f 4a14 723f
0.99079144 0.9959111 1.0125905 1.0000539 0.9857952 1.0301616 1.1081773 1.0160736
0.9778511 1.0207789 0.99528253 0.9877319 0.9948116 0.98796123 1.0078366 1.0297546
1.0359542 0.9998502 1.0157292 0.99480087 1.0131645 0.99795 1.1288297 1.0058709
0.9784338 0.9735875 0.9939801 1.0248245 0.98483366 0.9456221

attention_layers.0.norm1.bias f4 [30]
00000000: 5068 8c3c eccc 82bc 8564 f03b 4866 6b3c
00000010: 54c8 39bc e3ae cfbb a0cc 353b 0adb 89bb
00000020: e034 44bc 1027 9dbb 0a79 ed3b 7458 05bd
00000030: 876c 6e3b f0a1 f8bb de28 9cbc ead7 d0bb
00000040: 223e c73b fc97 843c 26b6 633a 2ead be3c
00000050: 5e29 42bb d989 723c 9772 9d3a bea5 f33b
00000060: f6ea 7e39 88e1 81bc 74d3 9abc 8647 18bc
00000070: f97d 9f3c 7d60 08bc
0.017139584 -0.015966855 0.0073362016 0.0143676475 -0.011339266 -0.006337987 0.0027740374 -0.0042070197
-0.011975497 -0.0047959164 0.007247095 -0.03255506 0.0036380605 -0.007587664 -0.019062456 -0.006373395
0.006080405 0.016185753 0.0008686505 0.023275938 -0.0029626708 0.014803373 0.00120123 0.0074355295
0.00024310857 -0.015854612 -0.018899657 -0.009294396 0.019469248 -0.008323786

attention_layers.0.norm2.weight f4 [30]
00000000: 23d8 763f 608a 7b3f 4a0e 7c3f fbb4 803f
00000010: 9c87 7a3f a2b6 853f 57b4 8f3f 090d 813f
00000020: 8ab5 783f 252a 7a3f cfea 7a3f 2d10 7d3f
00000030: 382d 7c3f 2f8c 793f c1fe 813f fd93 7d3f
00000040: 6435 863f b7c6 7d3f 2404 833f 864d 823f
00000050: dd03 823f b006 843f 5957 873f 4465 803f
00000060: a432 873f 4f32 7b3f c13d 7c3f ea0b 833f
00000070: 412d 7d3f 0071 733f
0.9642355 0.9825802 0.98459303 1.0055231 0.97863173 1.044636 1.122691 1.0082103
0.97152007 0.9772056 0.9801454 0.9885281 0.985065 0.9747953 1.015587 0.9905394
1.0485044 0.9913134 1.0235639 1.0179908 1.0157429 1.0314541 1.0573531 1.0030904
1.0562329 0.9812364 0.9853173 1.0238011 0.98897177 0.950943

attention_layers.0.norm2.bias f4 [30]
00000000: c39b 4f3c 84a5 8dbc e513 6a3b 5614 683a
00000010: 403a 4ebc d648 f1bb 9b51 26bc 2636 14bb
00000020: d542 1dbc 35b2 d3bb 1bb8 723b 8f22 93bc
00000030: 965c afbc a41d 11bc e169 2bbc a7d6 f6bb
00000040: f664 efbb a8b2 4e3c e592 afba 71e6 113c
00000050: b313 47bc 9232 b6bb ef75 62ba 7e17 a1b9
00000060: 4cdb a6ba acbc 26bc 8ea2 1abc 897f 7abc
00000070: 92a0 6d3c e15c 0abc
0.012671414 -0.017290838 0.0035717424 0.0008853128 -0.01258713 -0.007363419 -0.010151292 -0.0022615283
-0.0095984535 -0.006460453 0.0037036005 -0.017960815 -0.021406453 -0.0088571645 -0.010462255 -0.007532913
-0.0073057367 0.012615837 -0.0013395218 0.008905039 -0.012150693 -0.0055602277 -0.00086387893 -0.00030725816
-0.001273015 -0.010176819 -0.00943817 -0.015289196 0.014503615 -0.008444996
