data/best_model.pt (torch, 158069 bytes, 50 tensors)

input_proj.weight f4 [30, 58]
00000000: b637 b7bc 18d3 63bd 1a1e 223d 90e3 0fbd
00000010: cb97 673e 99a6 f7bd f578 893c 62df b3bd
00000020: 98ca 2b3e 51ac ddbd 518e e23a 89dd 753e
00000030: 611e ec3c 778a 16bd 6c3a b73e 9094 edbe
00000040: 0855 46be fe18 343c 8dc1 5d3e afaf 633a
00000050: 1008 ad3d 6b88 a53d 5815 d9bc 9743 01bd
00000060: 20c9 aa3b 5c6a 17be c383 24bd 41f4 293e
00000070: 18af ecbd e716 883e 3ad3 2a3e 66d0 8a3e
00000080: b1b0 473e 4661 10be 5d4b cb3c 6d9c f9bd
00000090: 2f04 bfbc 819f 0d3d 42f5 94be 8242 d4be
000000a0: 24e1 8c3d b876 91bd 9287 b83d 662e c63b
000000b0: 79ae f3bd a340 3dbc e0ea 17bc 594b 30be
000000c0: 2077 24be 33a8 54be 9d48 4abd c593 87bc
000000d0: 49a0 77bd 9d27 9dbd 2a6d 773d ca8b c1bd
000000e0: 80be a53d 345e c1bd f1d2 ae3d b3a9 043e
000000f0: 76c0 18bd c04d dbbd c9b0 3d3e 4c8b 593c
00000100: 55a5 e3bc 6ff7 623d 2be5 49be 5501 7f3e
00000110: 6096 703c 7e39 573e 591c 1dbd b589 e0bd
00000120: 14b1 bcbc 03ed 883e 9340 d73d 37d8 e33d
00000130: 7f49 013e a8a8 893c 3d0d 0e3e 8780 babe
00000140: fd81 4d3d 708a a6bc eea5 243d 8c65 5f3e
00000150: 4fd5 fbbd 5bca 933c 6a31 84bd de39 57bd
00000160: a0dc 213e 7186 f73d 4216 65be 7e4c 1bbe
00000170: 7216 89be f9c6 e8bc 237c a4bd bf11 a6bc
00000180: e21a 2bbc 0be8 ac3d d03e 12bc 2674 f13c
00000190: d70c 113e 9dff c3bd e76a 063d 725e 3cbd
000001a0: 2303 cebd aa75 dabc 2b01 b63d 06d8 ca3d
000001b0: 1484 c63d 664d 2fbc 8734 33bb a7bf e63d
000001c0: f846 9bbb d416 c1bd 6189 df3d cee8 94bc
000001d0: 051b 5f3d 34ea debd 4e2a 83bc 792a 2b3d
000001e0: 316c 053e 6707 b2bd b769 013e 4085 333e
000001f0: 537e 77bd 5154 de3d d2de f1bd c6a2 d23d
00000200: 1346 913c f952 80bd 552f bcbe 4f40 b83d
00000210: 17d7 3f3e a4d0 213d 90e2 3cbd d2ad ddbd
00000220: 5035 0e3d bb6f 12be 519b 873d 4f06 863d
00000230: 3cac 10bc ebd8 35bd ff07 223d 6693 e93c
00000240: c663 5bbd c74b afbd 1314 81bd 987d 373d
00000250: 85db af3d 8b84 ecbb feb6 b0bd d7f5 cd3d
00000260: 1c51 29be 759f 7abe 91b4 873e 35de 2e3e
00000270: c5e6 ebbd 7b52 87bd feff 04be 5b06 89bd
00000280: 267f 88bd 01e1 42be 2c3b 103e f461 a1bc
00000290: 6427 d63d 523d 273e 6d6d d5bd af47 5cbd
000002a0: be06 4fbb 10a0 3ebd a9dd 56bc b848 983c
000002b0: 1c38 e13c 838e 04bd 6afe 21bc 146a ffbc
000002c0: b705 ccbc eed3 90bd efe3 e03d a2cd 2b3e
000002d0: 7027 67be cb4b 2abe c313 ce3d 2731 afbe
000002e0: e1ea ee3c 4e6e 873d cf64 8abd b772 7cbd
000002f0: 1b42 913e 8a25 c7be b8f9 58be aa5c a1bd
00000300: 0b40 853e ea09 eebd 2a5c bebd 3a52 8c3e
00000310: 15da 323d ac28 9abd 4722 4c3b d4dd 8cbe
00000320: 698e 093e 526a 7a3d add5 09be 16e0 123d
00000330: 6d0a 8a3d 5a32 ad3d e3b8 933d 6984 763c
00000340: 1fd4 de3d 8d7f 0abc 8083 4ebe c597 d33e
00000350: e0c3 3cbd 435d e0be 3475 1f3e 3104 dbbd
00000360: 213c 48bc f85d 45be d614 84bd 96f4 963c
00000370: 6a4f 90be bdf2 01bd de85 02be 5a1b 59be
00000380: d3f3 513d 8f54 ecbd c6b2 953d 4ae6 73bd
00000390: 5539 d03d 19b8 ab3d c663 ca3d 6c10 e83c
000003a0: 7a08 83bd 39fe 33bb 51aa 923d 9f57 2e3d
000003b0: 1bf7 cfbd f64d d9bd 7767 fbbd 1f13 813e
000003c0: b3fd 5b3d adb8 813d 463b 5ebd 0e9b 173e
000003d0: dda3 e3bc ee76 363c 7ce6 2ebe 3e73 8bbd
000003e0: c189 d6bc b591 793e 852f 193e 2705 82be
000003f0: 9486 05bd 4a88 3ebe 6b60 bd3d 0c26 353e
-0.022365432 -0.055621237 0.03957949 -0.03512913 0.22616498 -0.12092323 0.01678131 -0.08782841
0.16776502 -0.10823882 0.0017284845 0.2401029 0.02882308 -0.036753144 0.3578676 -0.46402407
-0.19368374 0.010992287 0.21655865 0.00086855417 0.084488034 0.0808266 -0.026499435 -0.0315586
0.0052119642 -0.14786667 -0.04016472 0.16597082 -0.11556834 0.26579973 0.16682139 0.2711212
0.19500996 -0.14099607 0.02481621 -0.12188039 -0.023317425 0.034575943 -0.29093367 -0.4145699
0.0687888 -0.07102722 0.09010233 0.0060480116 -0.118985124 -0.011551055 -0.009272307 -0.17216243
-0.16061068 -0.20767288 -0.049385656 -0.016549954 -0.060455594 -0.07673571 0.06040684 -0.09450491
0.080929756 -0.09441796 0.08536328 0.1295536 -0.03729292 -0.10708189 0.1852447 0.01327784
-0.027788797 0.055411752 -0.19716327 0.24902852 0.01468429 0.21018025 -0.038357113 -0.109637655
-0.023033656 0.26743326 0.105103634 0.11125224 0.12625693 0.016804054 0.13872238 -0.36426184
0.050172795 -0.020329684 0.040197305 0.21816081 -0.12296545 0.018040827 -0.064547375 -0.05254542
0.15806818 0.120861895 -0.22371772 -0.15165898 -0.26774937 -0.02841519 -0.0803149 -0.020272134
-0.010443421 0.08442696 -0.0089261085 0.02947433 0.14165054 -0.09570239 0.032816794 -0.045988508
-0.10059192 -0.026667435 0.088869415 0.099044845 0.09693161 -0.010699606 -0.002734454 0.112670235
-0.0047386847 -0.09428182 0.10914875 -0.018177416 0.054469127 -0.108845145 -0.016011383 0.041788552
0.13029553 -0.08692818 0.12637983 0.175313 -0.060423207 0.10855926 -0.11810078 0.10284953
0.01773361 -0.06265826 -0.3675486 0.08996641 0.18734394 0.039505616 -0.046114504 -0.10824169
0.03471881 -0.14300434 0.06621421 0.06544172 -0.008830126 -0.044396322 0.039558407 0.028512668
-0.05356195 -0.08559375 -0.06302657 0.04479751 0.08586792 -0.007217949 -0.08628653 0.10056656
-0.16534847 -0.2447489 0.2650495 0.17076953 -0.11518625 -0.06607529 -0.12988278 -0.06690665
-0.06664877 -0.19031145 0.14085072 -0.019700028 0.10456732 0.16331986 -0.10421262 -0.0537793
-0.0031589712 -0.046539366 -0.013114371 0.018589363 0.027492575 -0.032362472 -0.009887317 -0.031178512
-0.024905069 -0.070716724 0.10980975 0.16777661 -0.22573638 -0.16630475 0.10062363 -0.34217188
0.029164733 0.06612836 -0.06757509 -0.061632838 0.28370747 -0.38895828 -0.2118901 -0.078790024
0.26025423 -0.11622985 -0.09294923 0.27406484 0.04366501 -0.07527289 0.003114836 -0.2751299
0.13433231 0.06113655 -0.13460417 0.035858236 0.0674027 0.084568694 0.07212999 0.0150462175
0.10880303 -0.008453262 -0.20167351 0.41326728 -0.04608524 -0.43821153 0.15572053 -0.10694159
-0.012221367 -0.19274127 -0.06449287 0.018427175 -0.28185588 -0.031725634 -0.12746379 -0.2120184
0.05125792 -0.11539566 0.07309489 -0.059545793 0.10167185 0.08384723 0.098823115 0.028328143
-0.06398101 -0.002746476 0.071613915 0.04256403 -0.101545535 -0.10610573 -0.12275594 0.252099
0.053708743 0.06334052 -0.054255746 0.14805242 -0.027788097 0.0111367535 -0.1708011 -0.0680909
-0.026188733 0.24371989 0.14959534 -0.25394556 -0.032599047 -0.18606678 0.09246906 0.17690295

input_proj.bias f4 [30]
00000000: 3c42 d43d dde8 093d b23d 003e e194 08be
00000010: d4b2 483c b59d 60bc 2f3a 123e a9bc c63d
00000020: 9c23 af3d 384b d2bc b0e0 debd 8bda f4bd
00000030: acad bbbd 1537 d43d 0b3b 47bd a200 9cbd
00000040: bfce 623d 2ade 763d fd23 44bd 7594 5bbd
00000050: a8c8 0bbd 6f6f 5a3d 06d2 88bd 3139 083e
00000060: 01ea e23d ce19 0ebe b1bb 853d 0834 97bc
00000070: d1af 9c3d d142 afbd
0.10364196 0.03366934 0.12523535 -0.13338043 0.012249667 -0.013709475 0.14280008 0.09703953
0.08551714 -0.025670633 -0.108826995 -0.11955746 -0.09163985 0.103620686 -0.048640292 -0.07617308
0.05537295 0.060270466 -0.047885884 -0.053608377 -0.034126908 0.053328928 -0.06680684 0.13303067
0.11079789 -0.13877031 0.0652994 -0.018457428 0.07650722 -0.08557666

attention_layers.0.AttentionBlock.keys_linear.weight f4 [30, 30]
00000000: f9fc d23d e758 123e 72ba 333e 8ad7 e53d
00000010: c351 07bc 41dd 2d3e dcf9 333d 0693 503d
00000020: 416c f7bd ca65 ce3b 8e2b 30be c79d 173e
00000030: d633 abbc d415 17bd bd6b 223d 7684 823d
00000040: 0efb ad3b 282b 8a3d 255b 7c3d 73d5 8fbc
00000050: a6b2 0e3e cb6b 78ba 3fd6 f2bc 8f30 13be
00000060: 1690 fb3d 310f bcbd 5e1b bbbd 75a3 ed3d
00000070: 29de bdbd 200e e7bd 465e 89bd d68c a23d
00000080: dc95 c4bd 8e45 77bc 153e 173e 2052 183d
00000090: 9293 8f3d 37a6 19be 0e74 7fbd 2f67 9bbb
000000a0: 3ad6 81bd a446 173e 251d 7c3d cb3d 173d
000000b0: bf4d 343e eb59 b33d 4bfe 423e cf97 59bd
000000c0: fcab 4cbd 0082 85bd 6780 c4bd 57ee 223d
000000d0: d7f0 8cba 1794 543d bf51 0f3d bd6c 0abe
000000e0: 5fd7 9cbc b3e4 aabd 7fde 0bbd dc29 efbd
000000f0: 93ba 15be e1b2 d33d f1b8 95bc a556 1b3e
00000100: 3f3a b83d a9c4 f03c 164f b03c 32c7 28be
00000110: 503b 053e 6230 cd3d 42e4 59bd f593 253e
00000120: 0949 8cbd 989e c2bd 806c 453e 28b4 1fbe
00000130: 2a04 163e da8f 0fbe 1956 33bd bfba 053e
00000140: e0d9 383d 1eea 2c3d 570d 17bc 26d1 6ebc
00000150: 7cdc 053e 7f4e a03d f433 c0bd c81e 31be
00000160: 6a8f 0c3e 9cd4 523d 2609 153e 414a 8f3d
00000170: f322 33bd 141f adbd be26 ec3d 642a 0c3e
00000180: 124b 013d 2652 143e bfd7 163e 964b febb
00000190: 65bf e23c 0427 f23d 594e 6a3d e8f7 b73b
000001a0: a1ff 19be 9581 e13d fe04 31bd f65c 153e
000001b0: 5008 133e b14e fabc 3bfc 263d 3102 873d
000001c0: ae92 7cbd 80d3 30bd 6396 f43d 7513 e33d
000001d0: bfcc 0ebe 3470 063c 10fa 23be d571 21be
000001e0: f9f7 a0bc 1a63 1d3e ef26 3a3e ef93 013e
000001f0: e10e 183e bd39 1b3e 2dd2 013e 29d6 debd
00000200: 42c4 f13d ada8 69bd e61c 4c3e 66e2 35be
00000210: 6751 353d d200 033e dc57 f53d d385 5dbd
00000220: 9b23 b9bd fbcb e93d c07e d73d 0997 133e
00000230: 44ba 44be 0ebf a13d 0b50 eabd 631e 9cbd
00000240: 1830 ccbc fcf0 84bd 7cfe 473d 4280 38be
00000250: b6ee b7bc 21a8 84bd 7ed4 f8bd 11d4 863d
00000260: 5cd1 40be 8c32 2abd e071 193e c053 e9bb
00000270: 2678 c23d 05be 0f3d 720f d93d 08b5 f1bb
00000280: 2382 4fbd 81d5 3dbb f9d1 09be 4d2b d2bb
00000290: 4f57 0dbe 4968 87bd ef5c 9a3d 3390 143d
000002a0: 7e7f d93c f558 4d3d 9208 a03c 8db1 2dbe
000002b0: 4b5e 833d dd25 363e d1f3 02be 92bc ab3d
000002c0: 9218 e0bc e279 083e 8078 053e eb72 acbc
000002d0: 4555 d73d 380d 893c 5afb 20be aff3 89bd
000002e0: 5a5f dcbd 141e 0abe 1b98 27be 850e 163e
000002f0: 3c49 263e 417a d53d 09fa 1bbe 74b0 c5bd
00000300: c54b 99bd 1dbe a8bd e42e 41be 2f1f 1fbe
00000310: 7c8a 103d 7d97 9dbd dccc eabd c240 1fbe
00000320: 7132 d83d 4833 8c3d 8412 ef3d 5ab0 383d
00000330: 1c62 973d 7b9a e0bd ffcb 24be 6aa1 9ebb
00000340: ea24 bdbd 5fa6 5d3d 429f 033e 44e3 c13d
00000350: 5de2 2c3e 8e37 463d bc9d 82bd 884e ab3d
00000360: e9b6 0d3d 2626 153e 0798 363d dd5c c4bb
00000370: fc5d a1bd 702e f53d 94fa 49be a065 97bd
00000380: da44 bfbc 1c09 b2bd 1e1f a93c 62e7 2a3e
00000390: ec0f 013e 236c 2e3d 674b 123e 8971 1fbe
000003a0: db49 933c bbb5 82bd 0473 f5bd 509d 8f3d
000003b0: 10fb 4abb 013f e5bd 18d4 85bc 5eb6 3ebe
000003c0: f2f2 ae3d 7e9b e6bd 9845 06be 0cba e63d
000003d0: 36d5 223d c400 b8bc b99b 59bd 1263 c03c
000003e0: 2d39 a4bd 074a 6abd 9b3b e1bc 1d62 4bbd
000003f0: 1c0b 95bd 618d 86bd 2806 dc3d 04a2 563c
0.10302157 0.14291726 0.17551592 0.112227514 -0.00825924 0.16978933 0.043939456 0.050921462
-0.12081195 0.0062987553 -0.17204115 0.14806281 -0.02089874 -0.03688605 0.03965353 0.06372921
0.005309469 0.06746513 0.06161036 -0.017557835 0.13935336 -0.00094765116 -0.029643176 -0.14373992
0.122833416 -0.09182585 -0.09136079 0.116034426 -0.09270889 -0.11281991 -0.06707434 0.079370186
-0.09598896 -0.015092267 0.14769776 0.037187696 0.07010569 -0.15004812 -0.062366538 -0.004742525
-0.063396886 0.14773041 0.061551232 0.036924165 0.17607783 0.08757385 0.19042318 -0.05312329
-0.049968705 -0.06518936 -0.09594803 0.03977808 -0.0010752928 0.051899042 0.03499007 -0.13518043
-0.019145666 -0.08344402 -0.034147736 -0.11677906 -0.14621954 0.10336853 -0.018276663 0.15169771
0.089954846 0.02939065 0.021522086 -0.16482237 0.13010907 0.10018994 -0.0531962 0.16169722
-0.06849868 -0.095029056 0.1927967 -0.15596068 0.14650026 -0.14019719 -0.04378328 0.13059519
0.045129657 0.04221546 -0.009219489 -0.014576232 0.1307239 0.07827472 -0.09384909 -0.17296898
0.13726583 0.05147229 0.14554271 0.06996585 -0.043734502 -0.08453193 0.11530827 0.13688046
0.031565733 0.14484462 0.14730738 -0.0077604754 0.027679155 0.11823848 0.057203624 0.0056142695
-0.15038921 0.11011044 -0.04321765 0.14586243 0.1435864 -0.030555101 0.04076789 0.06592215
-0.061663322 -0.043170452 0.119427465 0.110876955 -0.13945292 0.008205462 -0.1601336 -0.1576608
-0.019649493 0.15369835 0.18178914 0.12654088 0.14849426 0.15158744 0.12677832 -0.108806916
0.11805011 -0.057045627 0.19932899 -0.17762145 0.044267084 0.12793282 0.119796485 -0.054082703
-0.09039994 0.11415859 0.105222225 0.14413084 -0.1921168 0.07897769 -0.11441048 -0.07622983
-0.024925277 -0.064912766 0.04882668 -0.18017676 -0.022452693 -0.064773805 -0.12149905 0.06583417
-0.18829864 -0.04155211 0.14984846 -0.0071205795 0.09495573 0.035093326 0.10598649 -0.007376317
-0.050661217 -0.002896637 -0.13459004 -0.0064138533 -0.13802837 -0.06611688 0.07537257 0.03627033
0.02655005 0.050133664 0.019535337 -0.16962261 0.06414469 0.17787881 -0.12788321 0.08385576
-0.027355466 0.13327745 0.13034248 -0.02105089 0.10514311 0.016729936 -0.15720883 -0.06735932
-0.10760374 -0.13488036 -0.16366617 0.14653976 0.16238874 0.10423709 -0.152321 -0.096527964
-0.07485155 -0.08239386 -0.18865544 -0.1553924 0.03528832 -0.0769491 -0.11464855 -0.15552047
0.10556496 0.068457186 0.116734535 0.045090057 0.0739176 -0.10966965 -0.16093443 -0.0048410194
-0.092355564 0.054113742 0.12853721 0.094671756 0.16883226 0.048392825 -0.06377742 0.08364588
0.034598265 0.14565334 0.04457858 -0.0059925155 -0.07879254 0.11971748 -0.19724494 -0.0739243
-0.02334826 -0.08693144 0.02064472 0.16689828 0.1260373 0.042583596 0.14286576 -0.15570654
0.017979553 -0.063823186 -0.11984828 0.07012427 -0.0030972399 -0.11193658 -0.016336486 -0.18624255
0.08542432 -0.112601265 -0.13112485 0.112659544 0.039754115 -0.022461303 -0.053127024 0.02348474
-0.08018718 -0.057199504 -0.027494242 -0.049654115 -0.072775096 -0.06569935 0.10743362 0.013100151

attention_layers.0.AttentionBlock.keys_linear.bias f4 [30]
00000000: dcd0 46bd a896 c7bd a1ee 08be c47a 053e
00000010: 903f cebd c7f3 9cbc 8d33 9bbd 03ea 3f3d
00000020: e12c f9bd a9c3 003e d9b3 373e 4efc 0bbe
00000030: b08e 043e 0c39 7f3c 0495 a53d ea96 bbbd
00000040: fae6 fdbc 5b66 7a3d d3ba 0dbe 1728 1d3d
00000050: 1687 fe3d 2a18 07be 9c5b 44bd 0a06 6bbd
00000060: fe09 4d3e c46e 1cbe c2d2 1f3e 4dfc 75bd
00000070: 90bd d9bd c0da fe3d
-0.048539028 -0.09745532 -0.1337228 0.13035113 -0.10070717 -0.01915921 -0.07578192 0.04685403
-0.12166763 0.12574638 0.179397 -0.13670465 0.12945056 0.015577566 0.08085063 -0.09159644
-0.030993927 0.06113277 -0.13840799 0.03836831 0.12428109 -0.13192812 -0.047938928 -0.057378806
0.20023343 -0.15276629 0.15607741 -0.060055066 -0.10631859 0.12444067

attention_layers.0.AttentionBlock.queries_linear.weight f4 [30, 30]
00000000: 5954 a9bc b984 113e 71a2 18be 850f 913d
00000010: 0ebe 153e 211c 0ebe 168f 26be be31 d0bd
00000020: a416 04be 8566 583c dfd5 09be 25b5 183d
00000030: 0d1c ab3d fad9 23be 6ebc d3bd c509 b5bd
00000040: a03d 34be 7f14 a8bd 6f75 9fbd b837 753d
00000050: 50bf b5bd d119 bd3d 9be7 77bc 6d8b da3d
00000060: 7e47 86bb bbbe 03be ea16 bebd 42b0 213d
00000070: e043 c1bc f771 1b3e c874 34bd 19e5 d43d
00000080: 0da4 d5bc ad7c bc3d 839d 313e 9a53 5d3d
00000090: ceba 163d e235 10be b67f 643d 32a2 eabd
000000a0: 6d07 52bd 33dc 473d 40ba 63bc 2f7c 163d
000000b0: 35a7 81bc 7d00 54bb ea16 343d c122 353d
000000c0: 3995 0fbe a1cf 143e bebf f7bd bec7 aebc
000000d0: 102d 13be eedf f2bd 915d e33c 2b05 64bd
000000e0: c547 38be 4339 ab3d a5fd a7bb 0a3b aabb
000000f0: 9633 36be 59a6 aabb dbef f6bd 0593 14be
00000100: 54d4 62bd d96d a43c d3a5 26be b313 d13d
00000110: 6d46 6cbd 0c92 e4bd 0e2b fdbd b609 d0bc
00000120: 1839 c1bd 0e95 c9bd 9bb1 29be fe77 823d
00000130: 5598 3fbd a963 e63a 7848 37be 6d67 67bd
00000140: d67f 1bbe 4609 f1bb 3c8e 023d 7460 04bd
00000150: 17ac 38be cbb1 2bbe 25ed 13be c403 fa3d
00000160: 3485 22be 6475 ad3d c56d 7e3d 31f0 d73d
00000170: 2770 8f3d a042 c83d cdf8 a5bd 41a0 97bc
00000180: 95f4 e8bc 65bb bd3d 406b 813d 98cc c13d
00000190: 850a 2abe d05d 12be 6f29 a9bd ca43 33bd
000001a0: bef3 32be 970e c13d 1ea5 1abe 1c4b 033e
000001b0: 0488 003e ee05 fabd 57bb 813d 421b 70bc
000001c0: 5b91 a33c 136c d03d 6914 99bd b5c8 053d
000001d0: 3268 143e 52fa f83d 0164 c8bd 9d5c 053e
000001e0: ae75 1f3e 2045 153d 441c e1bd 20e9 e8bd
000001f0: 8fc9 053e 11a5 7ebd 1afe 1e3e 575e 313d
00000200: 575e 1bbb 1a92 2c3d dac4 1abe 5a7c 043e
00000210: 3283 c33d c319 aabd 6c28 efbd cdb3 58b9
00000220: 7e29 2fbe 036a a2bd 8b27 30be ed28 ffbd
00000230: b784 efbc 4ec4 53bd 0eaf 8c3c df8a 963d
00000240: fc09 0bbe a43b 19be 6248 33bd 6415 a5bc
00000250: d05d 27be 832e 0d3d e917 c73d 1612 17be
00000260: 7495 3d3e f791 243e f300 1b3e 533f 723c
00000270: 49f1 a13d 3712 e33c 0f1a 8e3d 4f9f db3d
00000280: fa93 593d 9cd2 a03d a600 2c3e 04fa 8dbd
00000290: 1aab adbc b5a8 0f3e dbb2 fe3d b539 86bd
000002a0: 930f 03be 3dec 3c3c 7dde 37be 9606 413c
000002b0: 23ae 21be 2f0e be3d 6c8d 1dbe 0183 d5bc
000002c0: 42a3 34be e8cc ebbd 9d00 04be d32c 5abd
000002d0: ffd3 b23c b85c 2c3c 9244 1f3e d276 22be
000002e0: a1ad acbd a018 e0bd b8f6 f3bd df2a 963d
000002f0: 9a69 7c3d daf3 e0bc 4516 1c3e 98e3 efbd
00000300: a7aa 0ebe 49d3 163e 99a9 b23d d5c8 d33d
00000310: 0eb2 073e 0118 37be 1e70 833d ccf9 033e
00000320: a1ae aabd 0298 18be a78c 153e bcfa 083e
00000330: 148d 273e ee6f a23c c443 3d3e c175 c7bd
00000340: f7c1 1dbe 77c5 1dbe 4cae 21be 3944 353e
00000350: 60d0 593d baa2 2bbe 24f8 08ba 775b 913d
00000360: 61d3 ff3d fb35 0fbd 82a5 29be ae46 06bd
00000370: 2083 f3bc 24f1 50bd 9ccc 42bd 6bf5 1bbe
00000380: 233a 043e 7f01 ed3d 509e 16be 0aa4 12bd
00000390: 76f4 093e eda6 54bd 1e21 a4bc 095d c8bc
000003a0: 0c7f 293e 2e37 a8bd d5dd 263e 8d97 273c
000003b0: cf84 0bbe a614 183e 8eda de3d b388 13bd
000003c0: 4de3 a6bd b4ff e83d c4c5 dcbc 8065 adbd
000003d0: 9465 363e 55e5 873a 747d 2d3e 2a1e 18be
000003e0: 4836 063e 8c24 fabd 142a 91bd 6efe a2bd
000003f0: 4377 e8bd d8e8 0c3e 1570 0abe f5cf 8fbb
-0.020670103 0.14210786 -0.14905716 0.07083038 0.14623281 -0.13877918 -0.1626552 -0.101657376
-0.12899262 0.013208036 -0.13460492 0.037282128 0.0835496 -0.1600112 -0.103386745 -0.08839754
-0.17601633 -0.08207034 -0.077860706 0.05986759 -0.088743806 0.0923344 -0.015130903 0.106711246
-0.004097878 -0.12865727 -0.09281714 0.039474733 -0.023591936 0.15180193 -0.044056684 0.103952594
-0.026079202 0.092034675 0.17345242 0.054034807 0.036799245 -0.14083055 0.055785857 -0.114567176
-0.051276613 0.048793983 -0.013899386 0.036739524 -0.0158268 -0.0032348924 0.043967165 0.044222597
-0.14021768 0.14532329 -0.12097119 -0.021335479 -0.14372659 -0.118591174 0.027754577 -0.05566899
-0.17996128 0.08360531 -0.0051266723 -0.0051950263 -0.17793116 -0.0052078185 -0.120574676 -0.14509209
-0.055378273 0.02007191 -0.16274194 0.102088355 -0.05768435 -0.11160669 -0.12361728 -0.025395256
-0.09434718 -0.09842883 -0.16571657 0.06370543 -0.046776135 0.0017577308 -0.17898738 -0.05649512
-0.15185484 -0.007355842 0.031873927 -0.032318547 -0.18034397 -0.16767041 -0.14445932 0.122077495
-0.15871125 0.08469656 0.062116403 0.1054386 0.07003813 0.09778333 -0.081040956 -0.018509032
-0.028436938 0.09264258 0.063192844 0.09462851 -0.16605575 -0.14293599 -0.08259856 -0.04376582
-0.17475793 0.09426611 -0.1510205 0.1282162 0.12551886 -0.12208162 0.0633456 -0.014654936
0.019966772 0.101768635 -0.07474596 0.032662112 0.14492872 0.1215712 -0.09784699 0.1302361
0.15572235 0.036442876 -0.10991719 -0.1137259 0.1306517 -0.06216914 0.1552662 0.04330286
-0.0023707354 0.04213152 -0.15114155 0.12938061 0.09546508 -0.08305695 -0.11677632 -0.00020666346
-0.17105672 -0.079303764 -0.17202584 -0.12458978 -0.029238088 -0.051700883 0.017173316 0.07350706
-0.13578027 -0.14964157 -0.0437702 -0.020151801 -0.1634438 0.034468185 0.097213574 -0.14752993
0.18514043 0.16071306 0.15137081 0.0147856055 0.079073496 0.027718646 0.06938564 0.10723745
0.053119637 0.078526706 0.16797122 -0.06932452 -0.021199752 0.140292 0.12436458 -0.065539755
-0.1279891 0.011530933 -0.17955966 0.011781355 -0.15789084 0.09280049 -0.1538598 -0.026063444
-0.17640403 -0.11513692 -0.12890859 -0.053265404 0.021829603 0.010520153 0.15553501 -0.15865639
-0.084315546 -0.10942197 -0.11912292 0.07332396 0.061624147 -0.027460027 0.1524287 -0.11713332
-0.13932286 0.14729036 0.087237544 0.1034104 0.13251516 -0.1788025 0.06417869 0.12888259
-0.08334089 -0.14901736 0.14604436 0.13376898 0.16362411 0.019828763 0.18482882 -0.09739257
-0.15406023 -0.15407358 -0.15789145 0.17701806 0.053177238 -0.16761294 -0.0005224964 0.07097524
0.12491489 -0.03496359 -0.16567042 -0.03278225 -0.029725611 -0.05101122 -0.047558412 -0.15230338
0.12912802 0.11572551 -0.14708829 -0.03580097 0.1347216 -0.051917005 -0.020035323 -0.024458425
0.16552371 -0.0821365 0.1629556 0.010229004 -0.13624881 0.14851627 0.1088153 -0.03601904
-0.08148823 0.113768965 -0.02694977 -0.08466625 0.17812186 0.0010368029 0.16942388 -0.14855257
0.13106644 -0.12214002 -0.07088104 -0.07958685 -0.11350872 0.13760698 -0.13519318 -0.004388804

attention_layers.0.AttentionBlock.queries_linear.bias f4 [30]
00000000: 5539 6e3d 5fba c7bd 86f1 f73d 1a0e d1bd
00000010: 96fe 5ebd ed09 fdbd 3fac 0abe 6a12 86bd
00000020: 0b1d 89bb a46c 703d 2021 9c3c 39f9 033e
00000030: a82b 1b3e 69e4 4ebd b7db d73d cb5d afbd
00000040: c0f7 d53b 715f 17be bbe6 d63d cae5 2a3e
00000050: 526a 3abe 711d 97bc 2d04 1fbd 1041 19be
00000060: 757d 1ebe 65c9 1fbc 165b d73d 7ecf 15bd
00000070: bdd6 2ebd 28e4 513c
0.058160145 -0.09752344 0.12106614 -0.10207768 -0.05444201 -0.12355409 -0.13542269 -0.06546481
-0.0041843704 0.058697358 0.019058764 0.1288804 0.15153372 -0.050510798 0.10539954 -0.085628115
0.0065297782 -0.14782502 0.10493227 0.1668922 -0.1820462 -0.018446656 -0.03882234 -0.14966226
-0.15477546 -0.009752606 0.1051542 -0.036574833 -0.04268526 0.012810744

attention_layers.0.AttentionBlock.values_linear.weight f4 [30, 30]
00000000: 9c50 38bd 0013 acbd 5874 06be 084d 173e
00000010: dcd5 37be 9b27 3b3e f08c b33b d906 0c3e
00000020: d52a 51bd ca7d 6e3d bf55 2bbe 5cec 193e
00000030: f1f9 b9bd f925 a1bd bbce c3bd 6fb3 313c
00000040: 5ab9 74bd 4a00 eabc 0c5c 793d 8408 0c3e
00000050: 6de0 12bd 0b81 1bbd 8bab b1bd e11a a53d
00000060: b32c 97bd 1d92 493e 2a02 2f3e 3b3b bebd
00000070: 9309 14bd 6891 493d e24a 95bd 23d4 183e
00000080: 6919 66bd 45db 163e ee7e 5a3c cc8e 3ebc
00000090: 6f8b 36be a570 c63a 7626 873d 0876 a63d
000000a0: ca33 053e 7736 fcbd 709b af3d 67dd 4f3d
000000b0: f947 963d 9c10 e43d 72cf fb3c c5c7 d1bd
000000c0: 7e00 f53d 2674 923d cfd4 cd3d 58a7 b3bd
000000d0: 63c2 a43d 0615 9cbd b482 0e3e c589 a23d
000000e0: 60cf afbc d89b cdbc 4f09 0bbe dedc 8abb
000000f0: 9a35 263a 8bf8 07be e92b 92bd 7f43 303e
00000100: 34b4 dd3d aa50 7bbd f426 0f3e f602 0bbe
00000110: 5e29 a33d 6060 cabd ed63 923c f870 2e3e
00000120: 7adf 3bbe 2a11 2dbd 821b 403e cfa7 a5bc
00000130: 2276 1cbe 7e82 a2bd d076 863d 0d19 0c3e
00000140: e9c4 603d 6ed7 003e 40d2 283e fdda 173e
00000150: b33c d63a cb6b efbd c47f 90bd 32c9 cabd
00000160: 3ecf a03c 628a d5bb 0bc4 0c3e 42bc 04bd
00000170: f4fa edbd fc51 703d 0cb6 2a3c 431a f0bd
00000180: 948a 2a3e 07b1 1ebe c0c0 703d bb58 353e
00000190: cf9f 01be 52fc a23d 602f 71bd 8f18 06bc
000001a0: d3c4 41be a828 19bd d512 063e 786e 29be
000001b0: a49e 2ebe a5c8 a6bd 7609 143d ac6b 223e
000001c0: c6f9 d7bd 68da 1d3e c160 153d ce82 00bd
000001d0: f136 e93d 9f59 18be 5a3d adbd c6e2 ef3d
000001e0: fc15 97bd e4da 383e 2429 e6bd 27b5 dfbd
000001f0: e57c 1c3e 368d 113d 064d b7ba 3f31 e33d
00000200: 21bf 3f3e f70f d63b 5f2e 02be a8c9 943d
00000210: 83ed 27bd bd85 5c3d d01a 5e3d e521 b5bc
00000220: 0143 17be ae02 8c3d f944 e63d 6b43 923c
00000230: 7b14 1f3e 2d32 e6bd ce0c 42be 9a54 203e
00000240: 1d70 853d 4703 a63d 445d 1e3e 6886 e4bd
00000250: e5ad f13d 7563 913d 0f21 143e 5d40 24be
00000260: 8363 213e bdce edbd 0971 f4bd 8b90 8ebd
00000270: 671d ca3d 1144 033e 1654 403e f207 1e3a
00000280: 5ede 0c3d a49b 0e3e 01bb 35bd e0b3 58b8
00000290: ff15 6cbd 40f5 8b3d 4cdb 15bd 5c45 1e3e
000002a0: 6454 d1bd 2d0b cfbb 53a6 1bbe 8488 0d3e
000002b0: 643a 90bd 1567 273c b9ef 23be eea0 36be
000002c0: 2fe4 30be 89b0 1dbe bb49 da3d 0ee2 ee3c
000002d0: f5e0 29be b4d1 903d 5054 18bd f2ff b3ba
000002e0: a224 b13c 20a5 34be 9339 443d 47bd f1bd
000002f0: 734b 4b3d fed7 25be 38c7 023d 5611 01bd
00000300: 71d1 85bd 4cfd dcbd c5d5 f0bc 268c a13d
00000310: 5856 37bd fec0 4ebd 17bb 8cbb 96e1 593c
00000320: b207 163c fccb 163e 6ec1 023e 1076 103e
00000330: 527a 263e 5f32 053e d6af 19bd ba92 8cbd
00000340: 3ff9 3dbe 05f6 103e e232 9d3d 0d24 34be
00000350: da86 92bc 627b 343d 849b 8a3d c33f 33be
00000360: be74 c4bd 2b75 47be 418a e8bc 8d18 023e
00000370: 5a73 11bd e2dd df3d 8091 be3d 80b7 08be
00000380: bd1e 2f3d 90a4 e0bd 7f79 e73d b684 93bc
00000390: a575 7abd a937 1bbc c61f 5f3d 9b06 cfbc
000003a0: b8f1 013e b802 e2bc dfda 633d feb3 6cbd
000003b0: 0031 16be c7e8 e4bd ff6f 30bd c9a1 b4bd
000003c0: 0d88 4bbe d5e3 aa3c ee28 dcbd 5014 0d3e
000003d0: 41f5 dc3d f29c 3cbd 1f54 1cbe 107a f4bd
000003e0: ca5a 123e 0a26 05be 699e 2dbe 5c1e 29bd
000003f0: 519b 08bc 5d93 3bbc 5a28 e73d 62a1 f9bb
-0.04499875 -0.084020615 -0.13130319 0.14775479 -0.17952675 0.18276827 0.0054794475 0.13674487
-0.05106624 0.05822543 -0.16731928 0.1503157 -0.09080876 -0.07868571 -0.09560915 0.010846003
-0.059747078 -0.028564591 0.0608788 0.13675123 -0.03585856 -0.03796486 -0.08675297 0.08061767
-0.073815726 0.19684644 0.1709067 -0.09288641 -0.036141943 0.049210936 -0.072896734 0.14924674
-0.056176577 0.14732082 0.013335926 -0.011630725 -0.17826627 0.0015139772 0.06599133 0.081279814
0.13008037 -0.12315076 0.08574569 0.050748255 0.073379464 0.111359805 0.030738566 -0.10243181
0.119629845 0.0715106 0.10050356 -0.08772153 0.08044889 -0.076211974 0.13917047 0.07936434
-0.021461189 -0.025098726 -0.1357777 -0.004237755 0.0006340385 -0.13278405 -0.071372814 0.17213248
0.10825387 -0.061356224 0.13979703 -0.13575348 0.079668745 -0.09881663 0.017869914 0.17035282
-0.18346968 -0.042252697 0.18760493 -0.020221619 -0.15279439 -0.07935046 0.065656304 0.13681431
0.05487529 0.1258218 0.16486454 0.14829631 0.0016344994 -0.11690482 -0.07055619 -0.09901656
0.01963007 -0.0065167407 0.1374666 -0.0324061 -0.11620131 0.058671936 0.01041938 -0.11723759
0.16654426 -0.15497218 0.05877757 0.17709629 -0.12658618 0.079582825 -0.05888307 -0.008184566
-0.18922739 -0.03739229 0.13093121 -0.16546047 -0.17052704 -0.08143739 0.036141835 0.15861386
-0.105456874 0.15415347 0.036469225 -0.031374745 0.11387432 -0.14877938 -0.084589675 0.117131755
-0.0737724 0.1805225 -0.11238316 -0.10923224 0.15282018 0.03553506 -0.0013984747 0.11093377
0.18725254 0.006532665 -0.12713002 0.072650254 -0.040997993 0.05383848 0.05422479 -0.022110889
-0.14771654 0.068364486 0.11243624 0.017854413 0.15535156 -0.11240039 -0.18950197 0.15657273
0.065155245 0.08106094 0.15465266 -0.111584485 0.11800746 0.07099048 0.14465736 -0.16040178
0.15760617 -0.11611698 -0.11935622 -0.06961163 0.09868889 0.12818934 0.18782076 0.00060284056
0.034391753 0.1392656 -0.044367794 -5.1665935e-05 -0.057638165 0.06833887 -0.03658609 0.15456146
-0.10221174 -0.006318471 -0.15200166 0.13821608 -0.07042387 0.010217448 -0.16009416 -0.17834827
-0.17274545 -0.15399374 0.10658594 0.029160526 -0.1658972 0.07071248 -0.03718978 -0.0013732894
0.021623913 -0.17641115 0.04790647 -0.1180368 0.0496325 -0.16195676 0.03192827 -0.031510673
-0.065340884 -0.107905 -0.029398808 0.07888059 -0.04476008 -0.05047702 -0.004294764 0.013298413
0.009157108 0.14726251 0.127691 0.14107537 0.16257599 0.13007496 -0.037521206 -0.06863923
-0.18552111 0.14156349 0.07675721 -0.17591877 -0.017886568 0.04406298 0.067679435 -0.17504792
-0.09592579 -0.1947829 -0.028386237 0.12704678 -0.0355104 0.10930993 0.09305096 -0.1335125
0.042753924 -0.10968888 0.113024704 -0.018007617 -0.06114735 -0.00947372 0.05447366 -0.025271704
0.12689865 -0.027589187 0.055628654 -0.05778884 -0.1466713 -0.11177211 -0.043075558 -0.088199206
-0.19876118 0.020860592 -0.10749994 0.1377728 0.10788966 -0.046048112 -0.15266465 -0.11937344
0.14292446 -0.13002792 -0.1695496 -0.04128872 -0.008337812 -0.011448708 0.11286993 -0.0076181153

attention_layers.0.AttentionBlock.values_linear.bias f4 [30]
00000000: 0101 33be 8d33 75bd ccb0 e3bc 7496 003e
00000010: da13 e03d 93df a1bd 897b 373e ce9c 983d
00000020: ba87 113c 396d 313d ff4a adbd 8c17 813d
00000030: f616 06be 2849 173d 9d75 8abd 8e44 923d
00000040: 8cc9 8a3c 7a1a ed3d c1a9 c13b 8b8b 2bbe
00000050: bd5a b1bd c99a 373e 5e42 223e 1bfa 9dbc
00000060: d4cb 143e 83d4 b5bd 7d0d 72bd 2eb0 cbbd
00000070: 5d4c 923c ea49 243c
-0.17480852 -0.059863616 -0.027794264 0.12557393 0.109412864 -0.079039715 0.17918219 0.07451783
0.008882457 0.043317053 -0.0846157 0.06303319 -0.13094696 0.036935 -0.06760714 0.07141982
0.016941808 0.11577316 0.005910129 -0.1675245 -0.08659885 0.1793014 0.1584563 -0.019284299
0.1453088 -0.08878424 -0.059094895 -0.09945713 0.017858678 0.010027388

attention_layers.0.ffn.linear1.weight f4 [120, 30]
00000000: 1f8e 94bc 6454 eb3d 742a 06be 2241 083d
00000010: 8dce dfbd c1c8 8fbd 09f4 08be 7ace 0abe
00000020: fb99 263c 4c4d cc3d e2ee ec3d 1834 393e
00000030: e5bd af3d 16a8 233e de6d 42be 1dfc bd3d
00000040: 0461 9c3d 8dfd 0d3e c18d c6bd 8293 43be
00000050: 2657 c8bd 2825 2bbe 56e4 f93d 8b32 59bc
00000060: 3e21 003e 2f35 bfbc ea8a 9ebd ccb6 823c
00000070: 54e8 31be 7930 e1bd 6991 0ebe d2fe e93d
00000080: dc5c 163e 31a0 c3bc ce9b e53d 079f a93d
00000090: cea6 cdbd d3bb 19be 45bb 80bd 3711 e1bd
000000a0: a2c1 14bd eb20 863d 0ea1 053e 742f 33bd
000000b0: f285 45be c30c 883d 9970 033e bad6 ef3b
000000c0: 49a4 bbbc ea99 b73d fbef 27be 998f d83d
000000d0: 1700 19be 95b5 19be 2963 06be 20bf 173e
000000e0: 08ea 58bd 6677 8c3d d3e2 3e3e 4194 4dbc
000000f0: 0048 12be 705c 6fbd 4eb1 c03c 3000 57bd
00000100: 0823 98bd e0c1 31bd b706 2bbe 09d7 003c
00000110: 81de d4bc 9308 213e 1089 c8bd 8e5c 1fbc
00000120: 7ae2 febd 0f0e 013e f7a0 903d 1f02 19bd
00000130: c0c6 92bd cdcf f93d 5233 24be 580b 48bd
00000140: 9bf6 c13d 56d9 8b3d dd29 dfbd 9247 203d
00000150: b262 ec3d 464f d6bd aa97 d13d 487f 75bc
00000160: 5f9f 0a3e c0ab 033e c3e3 3cbd e4b7 0e3d
00000170: 7c95 db3d 8d6d 8dbc 5c23 6ebd 6449 e63c
00000180: 54af 973d 50f5 01be fab0 babd 4359 0d3e
00000190: d725 833d 3aed 153e 6445 2fbe 8fc1 103e
000001a0: a606 da3d 0c17 e43d 5df7 4abd aad8 403d
000001b0: dfce dfbd 4e04 4dbc f9fd 2b3e 15ca e03d
000001c0: e605 fc3d 5943 0ebe b7b4 04be ff52 303e
000001d0: 0a75 043e c3ce 07be 39bb 303e 01f5 41be
000001e0: 6bac 85bd 101e ee3c dd10 31bd d8ea 303d
000001f0: 86a1 afbd 6956 27bd 9a0a d0bd e0af f1bc
00000200: ac72 403d abd4 b7bd 14f8 d33d 7b05 c5bd
00000210: a6b0 2fbc 0d07 8bbd 041d 3a3e ae3e 1ebe
00000220: 5ac1 e63d 3a2f f0bc d6ff 843c 7828 9e3c
00000230: 1330 07be bf75 4c3d 6f2a 04be 3b5e 2d3d
00000240: d687 bf3c 9cd0 b4bd 7419 cabd a491 31be
00000250: e89a d63b 6d78 96bb e885 d0bd fa55 083e
00000260: dd18 1e3d 2d1c 0a3e 7325 c9bd 41f5 e23d
00000270: bea6 673c 1584 ecbc 9d65 16be 8df1 183e
00000280: f1ac a23d 03b0 163e e050 6ebd 4487 d03d
00000290: 4980 38bd 9692 21be a42d 07be 0662 c0bc
000002a0: b131 fd3d 5847 19be b66d 04be b3dd 383e
000002b0: 1b8f 243e bade 9abd 100d 02bd 7586 693d
000002c0: e42a 7a3d f63b 2f3e afb5 2b3e 0eae 9d3c
000002d0: a9df 82bd c304 893d 749c 32be 902e 3dbe
000002e0: 0c20 0e3d 6f43 afbd 2775 98bc 76de 64bd
000002f0: bdeb 96bd 2bbf 3fbe 97df 0c3e 905a 033d
00000300: 49b1 193e 8dbe 35be 03dc 123c ddaf 333e
00000310: 3607 b3bd 3789 4f3e dab6 86bd 0afc 953d
00000320: 9194 d63d 5959 3c3e cb5c 9cbd a24d 81bd
00000330: 4c90 9fbd 9aa7 e83b 9e27 223e c9e0 0dbe
00000340: bf29 2b3d d659 fbbd 4f03 033e 8218 323e
00000350: 23a3 483c f299 833c 6530 883d 4bad a53d
00000360: 585c a23d 1eaa 503d f22b 343d 98b3 02be
00000370: 15bb 0fbe 5d66 b33d ccbc bebd 5a1e a5bd
00000380: 2093 91bd 93d6 013e 0219 b33c 2932 c43d
00000390: 45e0 613d d3e1 e83d 16ff a2bd 9d4e 32be
000003a0: f25a 103e 85cc 173e f9b2 ebbd c80c f13d
000003b0: 589f 96bd 9f8a b83d de6b ee3d 39e3 df3d
000003c0: 8ad1 343e 5e21 523d 71af 2e3e b4b7 1f3e
000003d0: 7055 183e e333 aabc 6f96 063e 78b4 0ebe
000003e0: 32a9 11be dade d63d 0aaa d13d 42e7 07be
000003f0: ae6c 23be c61b fa3d f04d a3bc 7fa8 d03d
-0.018134175 0.114907056 -0.13102132 0.03326524 -0.10928068 -0.07020713 -0.13374342 -0.13555327
0.010168548 0.09975681 0.11569001 0.18086278 0.085811414 0.15982088 -0.18987224 0.092766024
0.07635692 0.13866253 -0.09695006 -0.19099239 -0.09782247 -0.16713393 0.12201755 -0.013256679
0.12512681 -0.02334079 -0.077413395 0.015956305 -0.17373782 -0.109955736 -0.13922657 0.11425556
0.1468386 -0.023880096 0.11211358 0.08282285 -0.10041581 -0.15013056 -0.06285719 -0.109896116
-0.036317475 0.06549247 0.13049719 -0.043746427 -0.19289377 0.06643059 0.12835921 0.0073192986
-0.022905486 0.08964904 -0.16400139 0.10574264 -0.1494144 -0.15010674 -0.13123764 0.14819002
-0.052957565 0.06858711 0.18641214 -0.0125475535 -0.14285278 -0.058437765 0.023522045 -0.052490413
-0.07428557 -0.043397784 -0.1670178 0.007863768 -0.025985004 0.15725927 -0.097917676 -0.009726657
-0.12445541 0.12603019 0.070619516 -0.03735554 -0.07166815 0.12197838 -0.16035202 -0.048838943
0.094708644 0.06828563 -0.10896657 0.039130755 0.11542262 -0.10464339 0.10234006 -0.0149839595
0.13537358 0.12858486 -0.046115648 0.03484334 0.10721871 -0.017264152 -0.05813919 0.028111167
0.07406488 -0.12691236 -0.09115787 0.13803582 0.06403702 0.14641276 -0.17116314 0.14136337
0.10645799 0.11137208 -0.04955231 0.047081627 -0.109281294 -0.012513233 0.16796102 0.10976044
0.123058125 -0.13892879 -0.12959562 0.1721916 0.12935272 -0.13262467 0.1725892 -0.18941118
-0.06527027 0.02906707 -0.043228973 0.043192714 -0.0857573 -0.04085389 -0.10158272 -0.029502809
0.04698436 -0.0897611 0.103500515 -0.09620186 -0.010723269 -0.06788454 0.18175131 -0.15453598
0.11267348 -0.029319394 0.016235273 0.019306406 -0.13201933 0.04991698 -0.12906812 0.042326193
0.023380201 -0.088288516 -0.09868136 -0.17340714 0.006549228 -0.0045919926 -0.101817906 0.13314047
0.03859793 0.1348731 -0.09821596 0.11081935 0.0141388755 -0.028871575 -0.146872 0.14935894
0.07943142 0.1471558 -0.058182597 0.1018205 -0.045044217 -0.15778574 -0.13201004 -0.023484241
0.123629935 -0.14968622 -0.12932476 0.18053322 0.16070215 -0.07562013 -0.03175074 0.057012994
0.06107606 0.17112717 0.16768526 0.019248035 -0.06390316 0.06690361 -0.17442495 -0.18474793
0.03469853 -0.08557784 -0.01861055 -0.055876218 -0.07369182 -0.18725269 0.13757168 0.03206879
0.15009035 -0.1774847 0.008963588 0.17547555 -0.0874161 0.20267187 -0.06577845 0.07323463
0.104775555 0.18393458 -0.07634886 -0.063136354 -0.07791194 0.007100058 0.15835425 -0.1385528
0.04178786 -0.12272994 0.12794231 0.17392161 0.012245926 0.016064618 0.066498555 0.08089694
0.079277694 0.050943486 0.043987222 -0.12763822 -0.1403621 0.087597586 -0.09313354 -0.0806243
-0.0710814 0.1267951 0.02186251 0.0957988 0.05514552 0.113711976 -0.0795881 -0.17412801
0.14097193 0.14824112 -0.11508746 0.11770016 -0.07354611 0.09010815 0.11641668 0.10932011
0.17658058 0.051301353 0.17059113 0.15597421 0.14876342 -0.020776695 0.13143323 -0.13936031
-0.14224699 0.10491724 0.102375105 -0.13271812 -0.15959427 0.122123286 -0.019934624 0.10188388

attention_layers.0.ffn.linear1.bias f4 [120]
00000000: a2d6 22be 4c5f 92bc d0ed 123e 2278 5fbd
00000010: 12fd 35be afa6 1d3e f7aa 0dbe 28a7 cd3d
00000020: ccdf ebbd e3c7 253e 0eea 03bd de37 2b3e
00000030: 0b8f 963c 3058 13bd ad18 a63c 15d3 42bd
00000040: ed12 363e 784a bcbd aa4d cdbd a5a6 933b
00000050: e732 12be 1a27 65bb 8393 d83d 2615 bb3d
00000060: 0075 0ebe 9d46 9c3d f7d1 ebbd 076f 25be
00000070: 1acb 18be 2ad2 2c3d 39ed 2cbe d697 debc
00000080: f4ae 29be 94d6 323e d4ce a93d 337a 2c3d
00000090: 5e44 af3d e7fb ebbd 01c7 423e 9b32 08be
000000a0: 1627 34be df16 623d 32bc 36be 0873 973d
000000b0: 4225 40be 3300 ce3c 5b6f 033e 7ddd 243e
000000c0: 9582 133e 93c9 023a 0c3a 233d 20dc 003b
000000d0: c323 ed3d f422 1a3e bb33 f4bb 6d91 bfbd
000000e0: 25f3 e6bc 2ce2 003e 546e 2e3d 1b21 a0bd
000000f0: 931b 143e e1db f33c 280d 163d 0143 fabd
00000100: 7b6d 9b3d b55e 25bd c84d 32be 2c9d a3bd
00000110: bfc1 23bd cb12 10bd d4ed f63d d0a8 fd3a
00000120: c553 243d 9725 013e 6bf3 b13c ee88 36bd
00000130: 2d21 00be 5682 cd3d 7e75 be3d dd1a 253e
00000140: 920c c1bd a1eb 803d 1402 38be b439 213e
00000150: 79e5 23bc 8f3d 17be d952 a83d b6f4 8ebd
00000160: ba8d 0c3e ed22 213e f1be bd3d fd14 35bd
00000170: 73d9 ebbd 9043 e73d 65bb 143c 31a7 0abe
00000180: 6496 a0bd 8d16 cf3d 20dc fabd f4d3 883d
00000190: 2e99 3a3c b331 13be d4de da3d 3c56 eb3d
000001a0: c71c 49bd 3020 94bd 1b7d bb3d 440e 60bb
000001b0: dd1b 803d 28c1 6dbd 6ccc ab3d d687 a7bd
000001c0: 87a7 213d 4328 1fbe ee3d 3c3c 90d8 d5bd
000001d0: c396 8b3d 10af 15be c631 9bbd 8d86 963d
-0.15902188 -0.017867707 0.14348531 -0.054557927 -0.1777232 0.15395616 -0.13834749 0.10041648
-0.11517295 0.16189532 -0.032205634 0.1672053 0.018378755 -0.035972774 0.020275438 -0.047564585
0.17780657 -0.09193891 -0.10024579 0.0045059496 -0.1427723 -0.0034965933 0.10575011 0.09134893
-0.1391182 0.07630656 -0.11514657 -0.16155635 -0.14921227 0.042192616 -0.16887368 -0.02717201
-0.16570646 0.17464668 0.082914025 0.042108726 0.08557962 -0.11522656 0.19021226 -0.13300554
-0.17593035 0.055197593 -0.17845228 0.07394987 -0.18764213 0.02514658 0.12835447 0.16100116
0.14405282 0.00049891433 0.03985028 0.0019662455 0.11579087 0.15052396 -0.007452456 -0.0935391
-0.028192112 0.12586278 0.042585686 -0.07818814 0.14463644 0.029767932 0.03663364 -0.12219811
0.07589241 -0.040373523 -0.17412484 -0.079889625 -0.039979693 -0.035174172 0.12057081 0.0019352678
0.04011895 0.12611996 0.021722516 -0.04456418 -0.12512656 0.10034625 0.092997536 0.16123529
-0.09426226 0.06294943 -0.17969543 0.15744668 -0.010003441 -0.14769576 0.08218927 -0.06980269
0.1372594 0.1573598 0.09264935 -0.04420947 -0.115160845 0.112921834 0.009077881 -0.13540341
-0.07841185 0.10111723 -0.12249017 0.06681052 0.01138906 -0.14374427 0.10687032 0.11491057
-0.04909971 -0.07232702 0.09154721 -0.003418819 0.062553145 -0.058045536 0.083886 -0.081802055
0.039466407 -0.15542702 0.011489375 -0.10441697 0.06815865 -0.14617562 -0.07577853 0.07349882

attention_layers.0.ffn.linear2.weight f4 [30, 120]
00000000: e4a3 143d 75e6 efbd dc12 723d afb5 9abd
00000010: 1b6f b33d b22f 8cbb 46e4 4cbd 351f 42bd
00000020: edfc 1fbc 5267 d9bd 7d4d d2bd b0fd 2d3c
00000030: d427 b8bd 7629 243c a94c 58bd 58b6 d0bb
00000040: ed50 c4bd fd8c ab3c aaaa cbbd cae1 b4bd
00000050: 7fca a1bc c63a 833d 4465 1b3d b5de 9a3d
00000060: d3a1 3e3d d1bb bbbd 4df7 9bbc c347 ed3c
00000070: bf1f 90bd f7c9 973d 71a8 453d 03f6 ba3a
00000080: be9b 9cbd 7304 253b 6589 11bd 4c37 153c
00000090: 32cd c7bc ba98 193c 822e a83c 9ea4 38bd
000000a0: f134 573b 7a24 63bc 076f 943c 48eb c0bd
000000b0: bce8 823c 77ed aebd 7ed0 22be c899 0f3c
000000c0: ad51 85bd 5018 cc3c 7f1b 04ba 57d8 a93c
000000d0: 1486 b0bc 9405 e43c e7cf 3d3d 7431 ddbc
000000e0: 904a 70bd 4f6f 2abd 089e b5bd a9cf 8fbd
000000f0: da3d 08ba 2f8d 20bd 8d4f c4bd 0fd0 41bd
00000100: 4f04 3dbd a8c2 9bbc 1dcc 93bd dff5 dabc
00000110: 7373 9ebd 6627 313d 37db cdba ba77 9bbd
00000120: 0cfc babc 4c9e 413d 5996 813c 4538 903d
00000130: 4af3 a3bd 7499 ac3d 7712 46be 754f 69bd
00000140: b425 7e3e db85 d03c 132b 6c3c 850e c0bc
00000150: cf68 8c3d 4f11 943d 8900 2abd 81a3 a1bc
00000160: 1356 5bbc 92cf 66bc 927d 75bd dfb2 a93c
00000170: 69aa 26bd 5121 183d 0a9a 2f3d b86c 2bbc
00000180: 166c 1d3c 52e1 83bd 65e5 07bc 52b8 ae3d
00000190: ec13 393d 14d4 bf3d 0548 bfbd 7900 bbbd
000001a0: 6b9c 093d 9f08 4cbd c3ec 8cbd cd2f 953c
000001b0: 6cf3 723c 4ae1 d0bd fe71 c5ba ff14 2e3d
000001c0: 500d ae3d 4b3d a6bc edb5 f93c fd5f 9e3a
000001d0: dad1 c53b cb3b afbd 140e 37bd 7576 93bb
000001e0: 213b 5d3d ac78 823d 75e6 6e3d b6f1 7dbd
000001f0: eea9 0bbc e7ea 48bd db39 603d 323c ddbc
00000200: cf47 37bd 37c8 003c 0d43 c6bc 892f 84bd
00000210: b1ac 0b3d 42a6 283d 1060 a13d b080 8a3d
00000220: 4c73 4c3d 5ba1 df3c 521a aabd 80a5 bdbc
00000230: ecef 56bd 6d4b fabd 3e15 93bd 429c 77bd
00000240: e74d 94bb 1ce0 99bc 1677 22bd f037 cfbc
00000250: e3e4 04bd 5034 aebc e130 113d 7a0d 613d
00000260: cd9b 4a3d db0b 63bd 3a23 703d 69ac e9bc
00000270: 84a9 c1bc 3112 2e3d dd4d 03bd 3095 373c
00000280: f046 c33b ee36 ef3b 1501 13bd d967 90bd
00000290: 474b 34bc cdf4 0abd 747c ac3c 7ab1 723b
000002a0: 6b54 02bd 82b1 14bd 254a 9dbd 5233 083c
000002b0: 826c c1bd 7da3 4cbd 6d04 adbd 113d 47bc
000002c0: d203 d83c 1446 2ebc a011 92bb a929 193c
000002d0: f1eb 3fbc 5b11 46bd 1329 87bc c550 9ebd
000002e0: 8162 3e3b 7b0e a7bd 9a5b a1bd 19a1 cd3c
000002f0: 98cc 95bd 2133 b13d 53ad a83d 96af 983d
00000300: 8295 cb3c 11ed 57bd 6bc3 a93d 89d3 823d
00000310: 4c26 133d 4415 8bbd b4db cbbc 4a5a 9fbc
00000320: dcd9 cfbd 4b5f a6bd 3ef8 b33d 52c5 8ebd
00000330: 6d35 1c3d e41d 36bd ac18 703d 2ba9 0d3c
00000340: 5027 c2bc 8e29 14bd 8ed7 c8bd ac94 593b
00000350: bfaf c83c 9cc3 e8bb 9827 b5bd 7b28 cebc
00000360: 0b08 843d 8921 89bd 0f70 583d bfaa 603d
00000370: bf6f b73c 70bf b13b dec1 a53d f539 8dbd
00000380: 96ba 8e3d bc37 afbd 093e 33bd a79b 523d
00000390: 350d 6d3d b6cf cabd 99bb 73bc 9b79 553d
000003a0: 7b6b 06be 27e8 28bd 1338 663d a782 acbc
000003b0: 8d1f 6e3d dab7 903c 53d0 85bd 6560 b7bd
000003c0: 4538 51bd f04f 08bd 0d02 99bd 8392 af3d
000003d0: 5d3d 9a3d a23e 9bbd 53d7 063d 67b0 99bc
000003e0: 1572 54bd 4c46 65bd 870a 94bd c6c1 28bd
000003f0: f2b4 b63c 30bd 7cbd 878e a03d c327 31bd
0.03628911 -0.11713878 0.059100017 -0.07554185 0.08761426 -0.0042781467 -0.050022386 -0.047393043
-0.009764892 -0.1061541 -0.10268686 0.010619566 -0.089919716 0.010019651 -0.052807484 -0.0063693933
-0.09585748 0.020941252 -0.09944661 -0.08832128 -0.019749878 0.064076945 0.03793837 0.07562009
0.046541046 -0.091666825 -0.01903882 0.028964883 -0.07037305 0.074115686 0.04825634 0.0014263991
-0.07646893 0.0025179654 -0.03553142 0.009107422 -0.024389837 0.009374792 0.02052999 -0.045078866
0.0032837952 -0.013863677 0.018119348 -0.09419876 0.015980117 -0.085413866 -0.15899846 0.008764692
-0.06509719 0.024913937 -0.00050394976 0.020733042 -0.021548308 0.027834691 0.04634085 -0.02700112
-0.05866486 -0.04161006 -0.08868033 -0.0702203 -0.0005197205 -0.039197143 -0.095854856 -0.04731756
-0.046146687 -0.019013718 -0.07216666 -0.026728569 -0.07736864 0.043250464 -0.001570559 -0.075911954
-0.022825263 0.047270104 0.015818762 0.070419826 -0.08005388 0.08427706 -0.19342981 -0.05696054
0.2481907 0.025454452 0.014414567 -0.023444423 0.06855928 0.07229864 -0.041504417 -0.019731285
-0.013387221 -0.014087575 -0.059934206 0.020715175 -0.04068986 0.037141148 0.042871512 -0.010462932
0.009608289 -0.06439461 -0.008294438 0.0853125 0.045185015 0.093666226 -0.093399085 -0.091309495
0.033596437 -0.04981291 -0.06881096 0.01821127 0.014828544 -0.101992205 -0.001506388 0.042500492
0.08498633 -0.020292899 0.030482257 0.001208305 0.006036979 -0.085563265 -0.04469116 -0.004500205
0.054011468 0.063706726 0.05832525 -0.06199809 -0.008524401 -0.049052145 0.054742675 -0.027006242
-0.044746216 0.007860235 -0.024201894 -0.06454379 0.03410024 0.04117418 0.078796506 0.067628264
0.049914643 0.02729862 -0.083058015 -0.023150206 -0.0524749 -0.122214176 -0.07181786 -0.060451753
-0.0045258882 -0.018783621 -0.03966435 -0.025295228 -0.032444846 -0.021265179 0.035447005 0.054944493
0.04946499 -0.055431228 0.058627345 -0.028524594 -0.023640402 0.042497817 -0.032056678 0.011205003
0.005959384 0.0073002493 -0.035889704 -0.07051057 -0.011004276 -0.033924866 0.021055438 0.0037032054
-0.03181879 -0.036302097 -0.076801576 0.008313017 -0.09444524 -0.049960602 -0.0844811 -0.012160555
0.02636901 -0.010636825 -0.0044576675 0.009348311 -0.011713968 -0.048356395 -0.016499078 -0.07730249
0.0029050412 -0.08157059 -0.078788 0.025101231 -0.07314414 0.0865233 0.08236184 0.07455365
0.024851564 -0.05271632 0.08289226 0.063880034 0.035925195 -0.067911655 -0.024885036 -0.019452233
-0.10148975 -0.081236444 0.08787583 -0.069712296 0.03813689 -0.0444621 0.05861728 0.00864629
-0.023700386 -0.036172442 -0.09806739 0.0033200188 0.024497865 -0.0071033966 -0.088454425 -0.025165787
0.064468466 -0.066958494 0.052841242 0.054850336 0.022392152 0.0054244325 0.08093618 -0.0689582
0.06969182 -0.08555552 -0.043760333 0.051417973 0.057873923 -0.09902899 -0.01487627 0.052117925
-0.13126938 -0.041237023 0.05620582 -0.021058394 0.058135558 0.017665792 -0.06533875 -0.08953933
-0.051079053 -0.03327936 -0.07471094 0.08572867 0.07531235 -0.07580306 0.032920193 -0.018760873
-0.05186661 -0.055975243 -0.072285704 -0.04120042 0.022303078 -0.06170386 0.07839685 -0.04325081

attention_layers.0.ffn.linear2.bias f4 [30]
00000000: 2fa2 7b3d 83c1 27bd b3e5 9fbc 517a cc3c
00000010: ddb4 96bd af97 513a 1a5e 86bd fa76 6f3d
00000020: c8f4 cb3c 795f 493d 803f 1d3d 05a6 c4bd
00000030: 1492 c43d 4c17 1bbd 8592 753d 9c84 563b
00000040: f1f7 9f3d 5a37 03bc f351 7abd 5b2c eabc
00000050: 16c4 d33c acd1 2b3d 7bd4 59bd 8648 893d
00000060: a662 babd d137 aabd 170a 2e3d 76e9 aabb
00000070: a317 8c3d d062 f43b
0.061433967 -0.04095603 -0.019518709 0.024960669 -0.07358716 0.000799532 -0.06560917 0.058463074
0.024896994 0.049163315 0.038390636 -0.09601978 0.09598175 -0.037864015 0.059954185 0.003273285
0.07810963 -0.008008802 -0.06111331 -0.028585603 0.025850337 0.041948006 -0.053181153 0.06703286
-0.09100847 -0.083114274 0.04249009 -0.005215819 0.06840446 0.0074580684

attention_layers.0.norm1.weight f4 [30]
00000000: f892 813f 9472 7c3f afa0 7a3f e208 823f
00000010: f0f6 813f fbc6 7b3f c2fa 7f3f 7f9d 7c3f
00000020: 562c 7f3f c05e 813f f6da 7e3f b490 7a3f
00000030: 525a 843f 0034 813f 94d4 813f e386 813f
00000040: e39d 913f 8782 803f 484b 803f 3f94 813f
00000050: 85ab 803f 4ea9 7d3f 6c60 7c3f 51e6 7c3f
00000060: ac4b 833f 0373 813f 6ccb 803f b524 7d3f
00000070: bc2d 7d3f d527 7d3f
1.0122976 0.9861233 0.97901434 1.0158961 1.0153484 0.98350495 0.99992 0.9867782
0.99677026 1.010704 0.9955286 0.9787705 1.0340064 1.0093994 1.0142999 1.0119289
1.1376308 1.0039834 1.0022974 1.0123366 1.0052344 0.99086463 0.9858463 0.98788935
1.0257468 1.0113224 1.006208 0.98884135 0.9889791 0.98888904

attention_layers.0.norm1.bias f4 [30]
00000000: b4b9 99bc eb8b 73bb d78d c93b 66a8 3ebc
00000010: f16e 863c e138 6c3c 7761 5e3c 6a10 65bc
00000020: e3e9 663c 4498 98bc c534 883c dd1d 6dbc
00000030: 57ac 7e3c ec27 033c ec18 44bc 3bb6 803c
00000040: 6eb7 543c 10b1 ec3b eeb1 443c 0a5d 4cbb
00000050: ef98 9c3b 7175 283b cd99 3bbc 4b19 253c
00000060: bcb3 a2bb 656a 0cbc 8664 5dbc b201 5c3c
00000070: 8f77 173c ae04 bebb
-0.018765308 -0.0037162255 0.006150942 -0.011636829 0.016410323 0.014417858 0.013573042 -0.013980964
0.014093849 -0.018627293 0.016626725 -0.014472452 0.015544019 0.008005124 -0.011968832 0.015711894
0.012983186 0.007223256 0.012005312 -0.0031183385 0.0047789733 0.0025704766 -0.011450243 0.010076831
-0.0049652737 -0.008570288 -0.013512736 0.013428139 0.009244814 -0.0057988977

attention_layers.0.norm2.weight f4 [30]
00000000: 6b99 833f 65d6 7a3f 4581 7a3f 688e 823f
00000010: 4286 813f 9f39 7f3f d663 803f 0481 7c3f
00000020: 316d 7e3f 3ad0 813f a2cd 7f3f fa95 793f
00000030: 38b1 843f f8e6 803f 296e 7d3f 4bc2 813f
00000040: 77ed 863f 5b5c 7f3f 4bc5 803f 7c01 813f
00000050: c3e6 803f bcb1 7d3f d2b0 7c3f d494 7c3f
00000060: eace 833f ef89 813f 79f4 803f e706 7e3f
00000070: eedf 7c3f 908a 7c3f
1.0281194 0.9798339 0.978535 1.0199709 1.0119097 0.996973 1.0030468 0.9863436
0.9938536 1.0141671 0.99923146 0.9749447 1.0366583 1.0070486 0.98996216 1.0137419
1.0541219 0.997503 1.0060209 1.0078578 1.0070423 0.99099326 0.98707306 0.98664594
1.029752 1.0120219 1.0074607 0.9922928 0.9877919 0.9864893

attention_layers.0.norm2.bias f4 [30]
00000000: 6708 b9bc 0002 f1bb c3e4 1c3c 3ba6 5abc
00000010: c070 7d3c 567f 683c 0205 6a3c 8daa 61bc
00000020: 2677 15bc da05 a0bc ef2e 283c 5024 34bc
00000030: 209f 833c 9a2f 173c cca6 40bc 6132 893c
00000040: fb65 413c d160 acba d94b 713c 0597 28bb
00000050: babb 093c 8c4b 24bb 2236 34bc 935c 2a3c
00000060: 3d9e 89bc 2e31 1abc a748 61bc 903c 623c
00000070: ba06 193c 59be 92bb
-0.022587014 -0.0073549747 0.009576025 -0.0133452965 0.015468776 0.0141905155 0.0142834205 -0.013773573
-0.0091226455 -0.01953404 0.010265096 -0.010994986 0.016067088 0.009227658 -0.0117585175 0.016747655
0.011804099 -0.0013151412 0.014727556 -0.002572478 0.008406574 -0.0025069444 -0.010999234 0.010398048
-0.016799087 -0.009411139 -0.013750232 0.013808385 0.009339983 -0.0044782576
