data/best_model.pt (torch, 157557 bytes, 50 tensors)

input_proj.weight f4 [30, 58]
000000 5d b6 de 3e 6f 89 41 3e 7c 6f 94 3d ba 6c ca bc
       0.43498507 0.18900083 0.072478265 -0.024710048
000010 0d c9 5d 3d 80 10 17 3d e7 66 2d be f4 82 48 3d
       0.054146815 0.03688097 -0.16933785 0.04895301
000020 c6 93 a5 3e 6c bf 1e be e7 fa 9d be 24 5b 36 3e
       0.32339305 -0.15502709 -0.30855486 0.17808205
000030 a6 f3 bd be 36 df 7e be 4d 2c a3 be 2a 11 db 3d
       -0.37099952 -0.24889836 -0.31869736 0.10696633
000040 16 8e 1a bf 34 7b 8a 3d d5 15 7f bd ba 8d 27 be
       -0.60373056 0.067617804 -0.06227668 -0.16362658
000050 81 30 04 bd 6c 25 1d be 84 8a 18 bf d7 e5 3d be
       -0.03227282 -0.15346307 -0.5958636 -0.18544708
000060 1e a9 af be 64 fe ec bd 4d 55 fe 3e 52 8a 98 3e
       -0.34308714 -0.11571959 0.49674454 0.2979303
000070 86 46 c0 bd d4 6e 11 3e 80 e5 bd be 67 17 ea be
       -0.09388451 0.14202434 -0.37089157 -0.4572098
000080 49 18 47 3f 4c 2d e6 3e 95 47 72 3d ad 9e 39 be
       0.7777143 0.44956434 0.059150297 -0.18126936
000090 96 24 8d bd ce 30 73 3e 05 96 c6 3e aa b8 0c be
       -0.06891744 0.23749086 0.3878633 -0.13742319
0000a0 b7 fe 3c 3d 35 37 c2 3e ce ae 32 be 3d 3d 4d 3e
       0.046141353 0.37932745 -0.17449495 0.20042892
0000b0 82 ac 2f be 03 be 71 be cd 5d 38 3e 19 9d 1b be
       -0.1715565 -0.2360764 0.18004532 -0.15196647
0000c0 7b af ec bc c2 63 ee 3b 4a a2 1f bd 16 d3 71 bd
       -0.02889227 0.0072750757 -0.03897313 -0.059039198
0000d0 d6 9a 93 bd aa 05 6a 3d 0c d0 f1 bd b3 17 fe bb
       -0.07207267 0.057134308 -0.1180726 -0.00775429
0000e0 34 8f 62 be e5 b4 0f 3d 78 f0 70 3e 64 9a 07 3e
       -0.2212494 0.035084624 0.23529232 0.13242489
0000f0 c3 35 1f bb fb 24 80 3c f8 fa 52 be 35 1a a3 bc
       -0.002429352 0.015642634 -0.2060355 -0.019909957
000100 49 88 d0 bd dc ad 90 3e d8 fd 03 3f e4 4b 41 3e
       -0.10182244 0.28257644 0.5155921 0.18876606
000110 ee 12 7b 3e bc f3 63 3e 1a db fe bd ca 79 cf be
       0.2451894 0.22260946 -0.12444134 -0.40522605
000120 6d 78 f7 bd 81 77 64 be 7f 72 d0 3e 96 ce 63 3e
       -0.12083516 -0.22311212 0.40712354 0.22246775
000130 6d 12 48 3f 88 15 9c be ed c5 c1 bd 6e 68 60 be
       0.78153116 -0.30485177 -0.094615795 -0.21914837
000140 36 ea 0e 3e f2 e3 33 3f 31 cf 97 3d ed 0e 47 3e
       0.13956532 0.7026969 0.074125655 0.19439287
000150 76 cf 85 3e 85 07 fc 3e 4c 58 13 be 4f 24 b8 3e
       0.26134843 0.49224487 -0.14389151 0.359652
000160 e3 67 91 3e 62 f0 42 bd a8 63 08 3e c5 9e 1e 3e
       0.28399572 -0.04759253 0.13319266 0.15490253
000170 19 1a df bd 62 9c 6f bf ec 6f b3 bd 1a 80 c8 bd
       -0.108936496 -0.93597996 -0.08761582 -0.097900584
000180 f5 b2 12 3f 9a 65 c8 bd 35 18 83 be 6d ea ac bd
       0.57304317 -0.09785004 -0.25604406 -0.08443151
000190 b9 5b 61 3e e3 0e 97 be 38 16 00 bf a7 8b f8 be
       0.22007646 -0.29503545 -0.50033903 -0.48544046
0001a0 55 21 af bd d9 f1 ef be ff 3b 48 3e 0d de 12 3d
       -0.085512795 -0.46864203 0.19554137 0.035856295
0001b0 20 1b ef 3d 62 d1 3d be 65 ad 23 3d 52 11 7b bd
       0.116750956 -0.18536904 0.039960284 -0.061295815
0001c0 e2 37 c2 bc 18 18 17 3c 7a 3d 8d bd e5 2c a0 3c
       -0.023708288 0.009222053 -0.06896491 0.019552657
0001d0 b7 7e f1 3e ef 11 db be 9d 97 1d 3d c9 c0 3d bd
       0.47166988 -0.4278712 0.038474668 -0.046326432
0001e0 2d a4 eb 3c 0a 12 23 3e 77 df 62 bd bf 33 f0 3e
       0.028764809 0.1592485 -0.055388894 0.4691448
0001f0 1b 42 fe be fb 32 2f 3e ae cb 35 3e fc 6b 48 be
       -0.4965981 0.17109291 0.17753479 -0.19572443
000200 99 85 9b bd a9 a9 f0 be d9 65 32 be 48 c9 3e be
       -0.07593841 -0.4700444 -0.17421664 -0.1863147
000210 c1 3e 11 3f 21 1d 7b 3e 10 10 d9 3b 0f 10 e6 bd
       0.5673638 0.2452283 0.0066242293 -0.11233532
000220 4e e9 50 3e 7f 2d 73 bd 19 97 53 3e 5c 43 74 3e
       0.20401499 -0.05936956 0.20663108 0.2385382
000230 21 80 03 be cc 35 e8 bd 10 06 3f 3e 04 65 42 3e
       -0.12841846 -0.11338386 0.18654656 0.18983847
000240 76 16 04 3e 4d 68 43 bf b3 a5 07 3c 06 06 3b 3e
       0.12899193 -0.76331025 0.008279252 0.18264017
000250 ff ef 31 be a1 10 8e bd af c3 96 be 41 45 eb 3d
       -0.17376707 -0.069367655 -0.2944617 0.114878185
000260 6a 0e 12 bf 4b fe e4 be 4b 93 95 3e e1 7d da 3e
       -0.57053244 -0.4472526 0.29213938 0.42674163
000270 c0 66 f1 bd 0e dd 12 3f 86 81 5c be f4 83 42 bd
       -0.11787176 0.5736855 -0.21533784 -0.04748912
000280 43 85 49 bf 24 5d 26 be c4 9e 40 3e 60 5a 26 bf
       -0.78718966 -0.16246468 0.18810564 -0.6498165
000290 7a 0e 5b 3e ef 88 43 3d fa cb 65 bc 45 2e 63 bd
       0.21392241 0.047738012 -0.014025683 -0.055464048
0002a0 be 40 d8 bd ad 22 b0 3a 01 46 dd bb fc cc e5 3d
       -0.105592236 0.0013438069 -0.00675273 0.11220738
0002b0 5a ea 80 3d 26 18 2c 3e 48 dd 5f bd 12 76 1a be
       0.06294699 0.16806087 -0.05465439 -0.15084103
0002c0 9b bf 34 3d 5a 8c e2 3a ea ee e8 bd 21 d8 0e bc
       0.04412804 0.001728426 -0.11373694 -0.008718521
0002d0 0d a0 00 bf 10 df f8 be 61 95 eb 3e 10 b5 e7 be
       -0.5024422 -0.48607683 0.46012405 -0.45255327
0002e0 25 fb db bc af 43 e1 bb e9 30 23 be a6 b9 13 bf
       -0.026853153 -0.0068745236 -0.15936626 -0.5770515
0002f0 64 c8 a6 3c a9 01 a7 bd 20 86 32 bf 40 3d 97 be
       0.020359226 -0.081546135 -0.6973591 -0.29538918
000300 11 c9 f7 bc 8b 92 9f be 3b b8 1c be 1f be 98 3d
       -0.030247243 -0.3116649 -0.15304653 0.07458138
000310 69 f9 26 3c cd 22 5b bc 6a c8 84 be a6 df cc 3d
       0.0101913 -0.013374996 -0.25934154 0.10003595
000320 b6 6e c1 3e 03 22 3e 3d ae 55 b9 bd f2 b8 5b bb
       0.37779778 0.046419155 -0.09049545 -0.0033526984
000330 25 36 87 3e 36 54 4c bf a5 4d b2 3e e2 3e 7c 3e
       0.26408496 -0.79815996 0.34824863 0.24633363
000340 d6 fc ae 3e e6 1e 1d 3d 12 28 22 3e f9 12 d8 3e
       0.34177274 0.038359545 0.15835598 0.42201975
000350 2b db 0d 3e 8e 5b de bc 11 2e e0 be 50 01 80 be
       0.13853137 -0.027143266 -0.43785146 -0.25001
000360 22 dc 9c 3e 42 76 38 3e 06 79 d8 3b 5b 48 15 3e
       0.30636698 0.18013862 0.006606224 0.14578383
000370 83 be 82 3e 94 64 a8 3d 52 f7 01 3e 90 0b d1 3e
       0.25535974 0.08222309 0.12692001 0.40829134
000380 54 b7 3b bd e3 1c 71 bc c7 30 79 3c 66 8a fb 3b
       -0.045829132 -0.01471636 0.015209383 0.0076764105
000390 69 b6 68 3d f5 ba 0e be f9 92 bd bd 73 6a 44 be
       0.056814585 -0.13938506 -0.092565484 -0.19181232
0003a0 18 a4 17 3d b6 0e 13 3f 45 ba ba bd a7 f7 ce 3c
       0.037021726 0.5744432 -0.09117559 0.025264574
0003b0 3e 15 af 3d 12 39 5d 3d 65 cf e5 3d 28 7d 5c bf
       0.085489735 0.054009505 0.11221198 -0.86128473
0003c0 ad 07 40 3e d1 92 6d bd f3 5b 89 be 59 66 dc bd
       0.18752928 -0.058001343 -0.26827964 -0.10761709
0003d0 26 32 c7 3c 77 80 f2 3d 35 1a c3 3e e3 8a f0 be
       0.024315905 0.11840909 0.38105932 -0.46980962
0003e0 a4 07 4d bf fd 5f 95 be 67 6c 07 be 3c c1 00 3e
       -0.80089784 -0.29174796 -0.13224946 0.12573713
0003f0 9e b7 d8 bd b3 d0 41 3f e9 01 a4 be c7 54 ce be
       -0.10581897 0.75709075 -0.32032707 -0.40299055

input_proj.bias f4 [30]
000000 0b d8 6c bd 99 4e 92 bd 8b 6f bb 3d 36 a5 03 3e
       -0.057823222 -0.071438976 0.091521345 0.12855992
000010 52 f4 3c 3d de b9 9c 3d f6 8e df bd 9e 49 49 bc
       0.04613144 0.07652639 -0.109159395 -0.012285618
000020 35 8a 0d be c5 8c c8 bc 8f e6 ac bc f5 98 36 bd
       -0.13822253 -0.024481187 -0.021106033 -0.044579465
000030 f0 4c 9f 3d 3c df 82 bc 53 3a cf 3d 08 bf e3 bb
       0.077783465 -0.015975587 0.10118546 -0.006950263
000040 11 e6 89 bd 42 6d e0 3d 87 aa db bd cd 3f 06 3e
       -0.06733335 0.10958339 -0.10725885 0.13110276
000050 a1 d7 57 bd c9 97 c1 3d a8 da f7 bd 57 43 01 3d
       -0.052695874 0.09452779 -0.12102252 0.03155836
000060 a1 88 d2 3d ab ab f4 bd 36 14 ed 3c f3 98 03 3e
       0.10279966 -0.119468056 0.028940301 0.12851314
000070 66 a0 e9 bc 13 9c 16 3e
       -0.028518867 0.14707975

attention_layers.0.AttentionBlock.keys_linear.weight f4 [30, 30]
000000 09 01 c9 bc c7 2c c6 3b be 3f 6c 3d 53 0c 32 bd
       -0.024536626 0.0060478183 0.057677977 -0.043468785
000010 b8 19 ca bc c6 64 05 be d5 f1 86 be 3c 24 a1 bc
       -0.024670467 -0.13026723 -0.26356378 -0.019670598
000020 ff e5 6a be 69 94 55 be da 7a ca bd ed 8c 26 3e
       -0.22939299 -0.20857395 -0.09886713 0.16264696
000030 fe 2f 89 3e 16 94 22 be 52 46 90 be ab b1 31 3e
       0.26794428 -0.15876803 -0.2817865 0.17352931
000040 2a 47 d5 bc df c5 86 3d c3 20 e2 3d 95 43 1b 3e
       -0.02603491 0.0658071 0.11041405 0.15162499
000050 36 9e aa 3d da 19 3d bd ba bc 57 3e 89 0f 4e 3e
       0.083309576 -0.046167232 0.21068087 0.20123114
000060 b6 ff 18 be 20 a4 ce bd 61 10 1a 3e 09 dc 35 3e
       -0.14941296 -0.10089898 0.1504531 0.17759718
000070 d1 56 04 3d e9 c8 8a 3e c0 8e 0b be 6a 3a 4e be
       0.032309357 0.27106407 -0.13628674 -0.2013947
000080 e7 4e 16 3d 71 56 31 3c 72 24 a6 bd 8d 96 86 3e
       0.03669634 0.010823832 -0.0811242 0.26286736
000090 d9 8a c0 bc 0a a1 48 3b af ba 28 3d 3a 07 9c 3d
       -0.023503708 0.0030613565 0.04119366 0.07618566
0000a0 ce d5 8b 3e ac fb 46 bd 3f da bf 3c ac 5a 31 3e
       0.27311558 -0.048579857 0.023419498 0.17319745
0000b0 44 2c c2 bd 54 ed 78 be 5d aa 53 3d 09 fd 31 be
       -0.09481099 -0.24309283 0.051676143 -0.17381682
0000c0 57 1c 3c 3e 86 63 6f be f2 78 1c 3e e6 a0 2c 3e
       0.18370186 -0.23377809 0.15280512 0.16858253
0000d0 be c1 55 be e5 d1 63 bd 19 3e a8 bc 6b 4c af bd
       -0.20874688 -0.055620093 -0.020537423 -0.085594974
0000e0 2f 95 1d 3d 79 bb 49 be 78 3e 80 bc f3 f0 77 be
       0.03847235 -0.19700421 -0.015654787 -0.24213009
0000f0 25 1f 0f 3e 68 6d d3 bc 1e 3f 5c 3d 7d 0d ad 3c
       0.13976724 -0.025809005 0.05377113 0.021124596
000100 3d cc 8f 3c 2e 05 62 3d 04 97 16 be ab a9 b8 3d
       0.017553443 0.05518072 -0.14706045 0.090167366
000110 15 56 b5 3d a7 77 e8 3c 55 df 5f 3d 6c 65 b7 3c
       0.088543095 0.028377367 0.054656345 0.022387229
000120 65 b7 80 be 5e 72 82 3e 72 fb 5a bc fb 78 58 be
       -0.2513992 0.2547788 -0.013365613 -0.211399
000130 9b 69 fc bc 22 eb a5 be 60 ca bf 3d 03 85 2d 3c
       -0.030812075 -0.32405955 0.09364772 0.0105907945
000140 40 30 0a be 7c 8c dc bd 89 ad 43 3d f0 8d e3 bd
       -0.13494968 -0.10768983 0.047772918 -0.11111057
000150 53 5a 59 3d 0a 0c b5 bd 89 55 56 3d 17 60 21 be
       0.053064656 -0.08840187 0.052327666 -0.15759312
000160 bb 57 9a bd 5c 5b 5b be fd 40 7b bd 0f d6 45 be
       -0.075362645 -0.2142157 -0.061341275 -0.19319938
000170 82 54 42 be 1d 63 08 bc c2 f6 c7 bd a3 46 58 bc
       -0.1897755 -0.008324412 -0.09763862 -0.013200435
000180 d0 d8 c7 3e ba 8c 88 be d8 e5 a8 3e e5 3e 58 bd
       0.39032602 -0.26669866 0.32987857 -0.052794356
000190 ff 5b 92 3e 69 b3 4d be 2b 23 90 be b0 2a 2b 3e
       0.28585812 -0.20087971 -0.2815183 0.16715503
0001a0 bd 7e af 3c f2 fa b7 bd c4 f9 30 bd 40 58 82 be
       0.021422738 -0.08983411 -0.043206945 -0.25457954
0001b0 4e d2 6e 3c 1d a0 36 be 48 ba 59 3e 81 6d 0b 3c
       0.014576508 -0.17834516 0.21262467 0.0085099945
0001c0 2b 6a 85 be 6c 3d 6f be 95 ca b6 3d d2 1c 4f 3d
       -0.26057562 -0.23363274 0.08925358 0.050564595
0001d0 52 5d 02 be 5d a6 77 be 5b fd 0a 3d 81 5f cb be
       -0.12730911 -0.24184556 0.033933025 -0.397213
0001e0 59 8b f4 3d ed 9e 3a be e2 71 df 3d 24 da 6c 3d
       0.11940641 -0.18224688 0.10910393 0.057825223
0001f0 fc f2 36 3e 6d d4 05 be 34 d1 a3 be 9e b3 af 3e
       0.17866129 -0.13069315 -0.31995547 0.34316725
000200 27 67 2e be c3 4a 2e be b4 ef 5a be 48 9c 36 3e
       -0.17031537 -0.17020707 -0.21380502 0.17833054
000210 c0 6a 4a 3e 52 9e 4d 3d fc b1 1c 3b e1 06 b9 3d
       0.19767284 0.050199814 0.0023909798 0.09034515
000220 e2 d6 ca bc 7f 67 83 3e d3 03 8c bd 63 7d 26 3e
       -0.024760667 0.256649 -0.06836667 0.16258769
000230 1b 10 a4 bd c7 5e 24 bc 84 15 4f 3c b6 5d 3a 3e
       -0.080108844 -0.010032362 0.012639407 0.1819981
000240 dc c1 c5 3d 12 c5 4d bd c8 46 3e bd a4 2a f0 3d
       0.09656116 -0.05023677 -0.04645422 0.11726883
000250 24 5d ad 3d 69 fd ce 3e ed 53 2d 3d a8 e0 85 3d
       0.08465031 0.40427712 0.042316366 0.065369904
000260 28 90 17 bd 18 ff 7b bd a5 8a 5d 3e 08 23 67 bd
       -0.037002712 -0.061522573 0.2163492 -0.056429893
000270 63 51 62 be 73 23 b7 3d 5c 41 22 bd aa 38 61 3d
       -0.22101359 0.08942308 -0.039613113 0.05498568
000280 67 43 3c 3e da 49 03 bd 0f f9 79 bd 27 49 89 bd
       0.18385087 -0.032052852 -0.061028536 -0.06703406
000290 50 cf 09 3d db 7d 96 bd 8f e3 bb 3d e9 86 0f be
       0.033644974 -0.07348224 0.09174263 -0.14016308
0002a0 cd d6 b2 3d 04 91 71 3b 86 49 51 3e 70 1a 0b bd
       0.08732376 0.0036860118 0.20438203 -0.03396076
0002b0 8e 9f 27 3e a3 d6 36 be c7 cb 90 ba 86 8b 29 3c
       0.16369459 -0.17855315 -0.0011047059 0.010348206
0002c0 ba 4e 7d 3d 2e 3c 6d bd 8c 85 15 3e fe 97 15 be
       0.061842658 -0.05791872 0.14601725 -0.14608762
0002d0 2b 1b a4 bd 60 42 42 3d 80 7a 58 3d 39 58 4a be
       -0.080129944 0.04742658 0.0528512 -0.19760217
0002e0 28 c2 7f 3e 1a 71 87 3e 98 93 9d bd 70 a6 31 3e
       0.24976408 0.26453477 -0.07694167 0.17348647
0002f0 be 8f 35 3e 72 ad b3 3c ab d3 f1 3d e2 7b 1f 3e
       0.17730615 0.021933291 0.118079506 0.15574601
000300 dd 0d 97 3d 0d 71 56 3d c6 b0 d0 bd a5 42 42 be
       0.07375691 0.052353907 -0.10189967 -0.18970735
000310 14 57 c9 3d 62 f6 00 be 0d ef 3c 3d ff 66 45 be
       0.09831062 -0.12593988 0.046126414 -0.19277571
000320 71 89 b2 bc c7 cb 38 be 89 26 85 3d ee 3d 7b 3c
       -0.021794053 -0.18046485 0.065014906 0.015334589
000330 78 3d 61 be c6 b3 aa be 60 c4 2b 3e 9a 02 74 bd
       -0.21996105 -0.3334028 0.1677413 -0.059572794
000340 3b 7a 2a 3c 26 2c de bd b4 83 01 be de ec 8d 3d
       0.010405119 -0.108482644 -0.12647897 0.069299445
000350 07 86 01 3d 4e c2 af 3d 83 27 3c 3d 84 fe e0 39
       0.03162196 0.085819826 0.04593612 0.00042914238
000360 b8 69 2a 3e d6 a5 2d be c1 8f cf 3d 7f 20 06 3e
       0.16641891 -0.16957793 0.10134841 0.13098334
000370 f6 f8 90 3e 94 f5 8e be f5 34 84 3c 17 31 7d 3e
       0.28314942 -0.27921736 0.016138533 0.24725758
000380 82 db 7a 3e 38 d4 03 be e4 04 93 3d 3d be b2 be
       0.24497798 -0.12873924 0.07178667 -0.34910765
000390 45 7d 80 3d 1b 1e 06 be 54 44 af bd b5 d1 7d 3d
       0.06273893 -0.13097422 -0.085579544 0.06196757
0003a0 ba 96 dd bd 1b 6e ba 3c 49 fb 4d bd 3c 7f 58 bd
       -0.108197644 0.02275758 -0.050288472 -0.052855715
0003b0 82 b7 4c be b8 4e 63 be 7e 3a 01 be e8 67 3b be
       -0.19991878 -0.22197998 -0.12619969 -0.18301356
0003c0 f1 00 02 be c5 7f 4c bd 7b 72 bb 3d fc 24 ca bd
       -0.12695672 -0.049926538 0.09152695 -0.098703355
0003d0 ac 73 e0 bc 44 e0 ec 3d 86 82 75 be 05 f8 77 3d
       -0.027398907 0.11566213 -0.23975572 0.060539264
0003e0 c3 7f 93 be 89 aa a9 3d 57 93 39 3d 5b 77 91 bd
       -0.28808412 0.0828448 0.04530653 -0.071028434
0003f0 12 68 f2 3d 87 75 2c be bf e4 04 be 25 d3 61 3e
       0.11836256 -0.16841708 -0.12977885 0.22053201

attention_layers.0.AttentionBlock.keys_linear.bias f4 [30]
000000 4f 30 b6 bd d2 47 92 3e 27 ec 41 3e f8 4d d6 3d
       -0.08895933 0.2857042 0.18937741 0.1046409
000010 da 96 84 bd 92 66 16 be ba 33 16 be 39 44 08 3e
       -0.06474085 -0.14687565 -0.1466817 0.13307275
000020 c8 d3 82 be b9 33 42 3e d9 0d b8 bd 9c 74 cd be
       -0.255522 0.18965043 -0.08987016 -0.40128028
000030 e6 da 30 3e 58 93 9b be fc 2e 59 bc 4d a0 cb be
       0.17271003 -0.30385852 -0.013255831 -0.39770737
000040 e9 0c db 3e 0a 47 81 3e 1c 7d ae bc a2 41 cd bc
       0.42783287 0.2524951 -0.021299891 -0.02505571
000050 f5 29 65 3e 95 fb 61 3e c7 71 59 3c ec 85 9e 3e
       0.22379287 0.22068627 0.013271756 0.3096155
000060 30 03 b9 3e a7 ad 93 3e 84 b1 31 bd 9c b1 94 be
       0.36135244 0.28843424 -0.043382183 -0.29041755
000070 a2 ca 84 3e 2a c9 53 3e
       0.25935847 0.20682207

attention_layers.0.AttentionBlock.queries_linear.weight f4 [30, 30]
000000 c1 a0 ae 3d 17 90 05 be d5 4d 86 bd 4f b2 5a 3d
       0.08526755 -0.13043247 -0.06557814 0.053392705
000010 90 16 81 be e2 5c 3e be 5b 6f 99 bd e1 63 96 be
       -0.25212526 -0.1859012 -0.074919425 -0.29373077
000020 74 4f c7 bd 09 db 65 3c 5c ad b0 bd b5 c0 17 be
       -0.09731951 0.014029273 -0.08626816 -0.14819606
000030 b1 55 0e 3b 14 21 92 3e 58 b7 07 3e 11 47 f3 bd
       0.0021718557 0.28540862 0.13253534 -0.11878789
000040 06 91 1e 3e 66 d6 4b be bf d6 4a be d8 3c 9e be
       0.1548501 -0.19906005 -0.19808482 -0.30905795
000050 46 5c 0f 3e 8f 0a 01 3d 67 17 02 3e 5e 8e 22 3d
       0.14000043 0.03150421 0.1270424 0.039686553
000060 c1 15 92 bc 64 e7 02 3e b8 cb f7 3c ee 42 54 be
       -0.017832639 0.12783581 0.030248508 -0.20728657
000070 be 1a 3f 3d 95 04 e2 3d e9 43 da bc 42 8d cd 39
       0.046656363 0.1103603 -0.02664371 0.00039205892
000080 b0 ae 8b bd e6 60 f9 3d 5e aa 2b 3e af de b9 3d
       -0.06820428 0.12176685 0.16764209 0.09075677
000090 d1 b2 87 3e aa 4e 51 3e 59 12 2b 3e 08 d4 26 3e
       0.26503614 0.20440164 0.16706218 0.16291821
0000a0 24 3b a3 bc b9 41 a6 3c e3 75 b1 bd e8 9b 49 be
       -0.019925661 0.02029501 -0.08665063 -0.1968838
0000b0 83 f8 49 3e 55 52 b7 3c c8 6c 08 3e c9 70 27 3e
       0.19723706 0.022378126 0.13322747 0.16351618
0000c0 1d 87 ca 3c 7e 2c ed 3d 50 6c cf bd 53 cd c6 3c
       0.02472263 0.11580752 -0.10128081 0.024267828
0000d0 88 cf bb 3d 8e 53 13 bd bf bc 57 3d e3 ac 40 bd
       0.09170443 -0.035968356 0.052670237 -0.047039878
0000e0 9d 06 41 be d4 3a f2 3d 58 2f 42 be e2 6c 6d 3c
       -0.18850179 0.11827627 -0.18963373 0.014491292
0000f0 a6 ce c0 bc 5d f1 da bd 29 ee a1 3d d1 82 72 3d
       -0.023536038 -0.10690568 0.079067536 0.059206787
000100 2e 71 3b 3e c7 9d 8a 3e 9f ac ed 3d 63 b3 77 bd
       0.18304893 0.270735 0.116051905 -0.06047381
000110 b3 d9 11 3e 3e b8 d0 bd 14 1c f3 bd 3a 87 cd 3d
       0.14243202 -0.101913914 -0.1187059 0.10035558
000120 1e 9e 4d 3e d0 e8 4d 3d a7 69 0e 3e ff 68 8a bd
       0.20079848 0.050270855 0.1390749 -0.06758308
000130 35 f1 03 be 9b dd 2f 3e ec 91 57 3e 77 b8 ba 3c
       -0.12884982 0.1717438 0.21051759 0.022793038
000140 2f c9 3b bd ba dd fb bd 94 c5 15 be 52 85 54 be
       -0.04584616 -0.1229815 -0.14626151 -0.20753983
000150 54 25 80 bd 87 c7 7d 3c ff e6 18 bd dc 53 ac 3d
       -0.0625712 0.015489466 -0.03732967 0.084144324
000160 43 23 e4 3d a3 e8 53 3b 83 55 1a bd 11 f2 2b 3e
       0.11139538 0.0032334707 -0.037679207 0.1679156
000170 7b 76 1f 3e 5c 1e 34 be 9e 14 25 3d 84 bf 11 be
       0.1557254 -0.17589706 0.040302865 -0.14233214
000180 59 64 a1 3d 06 6e c9 3d 0f 6c 1a bd 44 45 41 be
       0.07880468 0.098354384 -0.03770071 -0.18874079
000190 bd 07 ce 3d d8 99 9b bc cb dc 90 be b1 b9 2b be
       0.1006007 -0.018994257 -0.28293452 -0.16770054
0001a0 51 de ab 3d 94 7a cc 3e 39 44 3b be a8 43 bc 3e
       0.08392013 0.3993727 -0.18287744 0.36770368
0001b0 c4 da ac 3e 45 da 6f 3e 47 52 f2 bd 06 bf 0e be
       0.33760655 0.23423107 -0.118320994 -0.13940057
0001c0 3c d0 67 3e 11 8c 99 bd ba d2 b5 be 57 fe ce 3d
       0.22638029 -0.07497419 -0.35512334 0.10107105
0001d0 4e 46 ee bd c1 fb 94 3e b1 03 af be 97 6e 7b 3d
       -0.11634503 0.29098323 -0.34182504 0.061384764
0001e0 d4 51 6b 3e 6c 03 92 3d 99 27 a0 3d 40 cf a9 bd
       0.22980434 0.07129559 0.07820053 -0.08291483
0001f0 a3 d4 15 be 55 1c b4 3d 3d 5b f1 bd 7d 90 3b be
       -0.14631896 0.087944664 -0.117849804 -0.18316837
000200 32 27 46 bd c7 d0 31 3d ce 93 7a be ab 99 62 bd
       -0.048377223 0.043411996 -0.24470446 -0.05532233
000210 ff 37 50 3e e4 29 ea 3d 72 d0 08 3e 3b 77 6c 3d
       0.20333861 0.11433771 0.13360766 0.057730895
000220 49 0a 38 bc f4 77 3b be d8 19 3f be dc db 14 be
       -0.011232921 -0.18307477 -0.18662202 -0.14536995
000230 62 2a 0c 3e b1 8f 01 3e e0 10 2c 3e 25 a1 9d 3d
       0.13688043 0.1265247 0.16803312 0.076967515
000240 1b f9 1e bc b3 b3 e4 bd 05 b7 48 3e ec af 17 be
       -0.009702946 -0.111670874 0.19601066 -0.14813203
000250 35 db 9f 3d cb 87 49 bd e8 05 a9 3c 6d 2b 9d be
       0.07805482 -0.049201768 0.0206327 -0.30697194
000260 a4 5a 9b bd 72 ef ce bd d6 85 1d bd 95 b2 ad 3c
       -0.07585648 -0.10104264 -0.038457714 0.021203319
000270 43 57 56 3e af 35 20 be cb 52 99 bd 30 4b 82 bd
       0.20931725 -0.15645479 -0.07486495 -0.06361997
000280 2e ba 49 bb f5 fa 07 3d c5 4f 7e be b7 8d 16 be
       -0.0030781138 0.033198316 -0.24835117 -0.14702497
000290 7b c0 fd ba 5f b7 b1 3d 2c ec cb bd d8 dc fe bd
       -0.0019359732 0.086775534 -0.099571556 -0.12444466
0002a0 55 e0 11 3e ef 50 a9 3d fc 9c eb bd ca 7c 48 3e
       0.14245732 0.0826739 -0.11504552 0.19578853
0002b0 b0 99 ec bd b1 e1 b9 bb 8c 06 f0 bd 5a 42 2a 3d
       -0.11552751 -0.0056726565 -0.11719999 0.041567184
0002c0 7e b5 02 3d b3 dd 3d 3e 63 12 05 3e 61 04 fc bd
       0.031911366 0.18541603 0.12995295 -0.12305523
0002d0 39 74 f8 bd 69 23 b5 be 29 fe 37 3d f8 53 fb 3d
       -0.12131543 -0.35378578 0.04492012 0.12271875
0002e0 f4 a6 34 bd e3 b0 14 be f0 03 4f 3e d8 f9 7f 3d
       -0.04410453 -0.14520602 0.20216346 0.06249413
0002f0 a3 58 59 3e 2c 73 8c bd 07 4f 31 be cb b1 a5 bd
       0.21225218 -0.06857905 -0.17315303 -0.08090552
000300 d4 cb a0 bd 2b 06 0d bc dc ae 2e 3e 92 cc ef 3a
       -0.07851377 -0.008607428 0.17058891 0.001829522
000310 e5 4c ea 3c 11 56 43 be c0 3f 33 3d 2f be c4 3d
       0.02860112 -0.190758 0.04376197 0.09606587
000320 0d f5 cd 3d 4a 04 02 3d ab 1c 4c bd 8f f4 fa bd
       0.10056505 0.03174237 -0.049832027 -0.12253677
000330 bb 10 b2 3c 5f 88 8f bd 5a 3f 86 be 44 40 93 3d
       0.021736493 -0.070084326 -0.26220208 0.07189992
000340 b5 2b 4f be e1 6b 76 bc e8 7a 5a be 66 ec 87 3e
       -0.20231517 -0.015040369 -0.21335948 0.26547545
000350 b2 b9 29 3e 80 ad 4b be fe d7 5d 3e 2a 3f 8c bb
       0.16574743 -0.19890404 0.21664426 -0.0042799907
000360 c3 d8 50 3d 32 51 97 3e 80 86 3c 3e 4e 7d ea bd
       0.05098797 0.29554135 0.18410683 -0.11449681
000370 d8 19 21 bd 65 df 08 be 99 5c 62 bd 5f 8f b2 3d
       -0.039331287 -0.13366468 -0.05526409 0.08718752
000380 40 fe be bc 81 0e 92 3d cd 83 38 3d 0b 72 8d 3e
       -0.023314595 0.07131673 0.04504757 0.2762607
000390 8c ba 94 3d d0 9b d1 3d 0b f2 ed bd 4b 6c 3d be
       0.072621435 0.10234797 -0.11618432 -0.18498342
0003a0 4f 5b ed bd 77 53 7e bd 0b 41 99 3d e8 9b ff bc
       -0.11589681 -0.062091317 0.07483109 -0.031202272
0003b0 32 d0 74 3c bf 0c 87 3d e7 71 d0 bd 05 be 46 3e
       0.014942216 0.06594228 -0.10177975 0.19408424
0003c0 cc 99 29 3b 63 30 a1 3d b9 48 42 3c b3 e2 fc 3d
       0.0025879024 0.07870557 0.011858159 0.12347927
0003d0 b1 1b 62 be 8d 25 8c 3d b0 2b 29 3d a4 b5 8a be
       -0.22080876 0.068431 0.04130143 -0.27091706
0003e0 b1 b6 8a be 56 6b 1a 3e 00 7b 7d bd 6a a7 be bd
       -0.27092507 0.15080008 -0.06188488 -0.093092754
0003f0 78 56 f0 bd 64 90 5d be 31 80 33 3d ea d6 50 3d
       -0.117352426 -0.21637112 0.043823425 0.050986208

attention_layers.0.AttentionBlock.queries_linear.bias f4 [30]
000000 b4 f4 43 3d 71 20 5f be 2c c9 ae 3d 58 2f e4 be
       0.04784079 -0.21789719 0.08534464 -0.4456737
000010 a3 c7 18 3e 51 bb a9 3d 13 59 ae 3d 51 26 e2 bd
       0.14919905 0.08287681 0.08513083 -0.110424645
000020 18 8e c8 3c 0c 36 af bd 32 87 7b 3d fc 4a b2 bd
       0.024481818 -0.085552305 0.06140823 -0.087057084
000030 a1 96 df bd 18 35 60 3e f1 cf 89 3b e8 78 d9 3d
       -0.10917402 0.21895254 0.0042056968 0.10618764
000040 b7 8a 46 be f6 0c 18 be d1 77 33 be 34 0a 0f be
       -0.19388853 -0.14848694 -0.17526175 -0.13968736
000050 11 32 61 be de cd 04 be e6 ba c5 bc 23 f9 8e be
       -0.21991755 -0.12969157 -0.024136972 -0.2792445
000060 16 f3 58 be 5b c0 5a be ac e2 0d be f2 71 4f 3e
       -0.2118648 -0.2136244 -0.13856 0.2025831
000070 0f b1 94 be 3a c6 00 be
       -0.29041335 -0.12575617

attention_layers.0.AttentionBlock.values_linear.weight f4 [30, 30]
000000 ff 36 8f bc 1c 0f 1e be 65 f8 1b 3d 62 29 09 3e
       -0.017482279 -0.15435451 0.038078684 0.13394693
000010 73 02 41 bd 6d 49 26 3d 03 88 67 3e 91 92 63 3d
       -0.047121476 0.040597368 0.22610478 0.0555597
000020 48 21 a4 3c 5a 61 14 bd 9d ae 41 3d 2d a7 7a 3c
       0.020035401 -0.036225654 0.047285665 0.015298647
000030 19 73 86 bd f4 1b 82 be 15 8b 1b 3e db bd a5 bc
       -0.06564922 -0.25411952 0.15189774 -0.020232132
000040 b9 41 0a be 27 a3 09 3e 6d 8a c2 bd 83 d1 10 3e
       -0.13501634 0.13441144 -0.09499059 0.14142422
000050 c4 39 74 bd ca d7 81 3e 72 ad a7 bc 52 e0 2b 3e
       -0.059625402 0.25359946 -0.020468447 0.1678479
000060 e9 b5 05 3e 63 9f 86 bc 3d 63 53 3d a2 19 24 be
       0.13057674 -0.016433423 0.051608313 -0.16025403
000070 06 d0 fe bd 58 79 ec 3d 29 80 08 3e 29 cd 0f 3e
       -0.12442021 0.11546582 0.13330139 0.14043106
000080 a2 07 eb 3d 1b 15 30 3e b1 5e e2 3d be e5 2e bd
       0.11476065 0.17195551 0.11053217 -0.042699568
000090 ba 50 66 3d 87 b1 33 be e5 0e db 3d 9b 27 2d 3d
       0.05622933 -0.1754819 0.106962 0.0422741
0000a0 a2 a5 29 be cf b6 3d 3e fe c5 5b be 97 8b 13 bd
       -0.1656709 0.18526767 -0.21462247 -0.036021795
0000b0 3a 88 55 3e b1 6d 60 be fd 66 df 3c 10 9f be bb
       0.20852748 -0.21916844 0.027270788 -0.0058173016
0000c0 3e 25 01 3e 47 10 53 3d 72 57 e3 bd 2d e5 73 3d
       0.12611863 0.051529195 -0.11100663 0.05954473
0000d0 df f6 d9 bd 9b f9 06 be 2d 7f da bd 49 0b 24 3d
       -0.1064279 -0.13181154 -0.10668788 0.040049825
0000e0 b2 e0 87 3c 9c 3f 1d be cb b0 cc 3d 8a 29 fb 3d
       0.016586635 -0.15356296 0.09994658 0.12263782
0000f0 d6 af 8d 3d 2c c7 85 bd b9 8f 63 be bc 1d ca 3c
       0.06918304 -0.0653213 -0.22222795 0.024672382
000100 40 ac 43 bd ee 35 a6 bd e1 62 22 be 85 0e 14 be
       -0.047771692 -0.08115755 -0.15858032 -0.14458664
000110 03 5c 35 be 34 36 2a 3e 28 f9 32 3e 3e 9f a9 3d
       -0.17710881 0.1662224 0.17477858 0.08282326
000120 63 b0 df 3d e6 cc 8d 3d 7b c2 fb bc 09 7f 04 be
       0.10922315 0.06923847 -0.030732384 -0.12939085
000130 aa 67 ad bd df 56 01 3e f3 d3 19 3e 0f c7 84 3d
       -0.08467038 0.12630795 0.15022258 0.0648328
000140 94 40 4b 3c e1 40 0b be 8a 2d e0 3d 61 1d 78 be
       0.012405533 -0.13598968 0.10946186 -0.24229957
000150 17 42 e1 3b 13 59 19 3e 3a 42 2b 3e 24 00 8d 3d
       0.0068743336 0.14975385 0.16724482 0.068847924
000160 51 46 db bc a0 94 a7 bd ae 34 95 3d 4e e5 2c be
       -0.026766928 -0.08182645 0.072854385 -0.16884348
000170 ae 76 6e be 33 48 e3 3d 3c 76 c2 3d be 09 ec 3d
       -0.2328746 0.11097755 0.09495208 0.11525296
000180 dd e9 4a 3e 41 10 3c be cc d3 e5 be 18 7a 66 bd
       0.19815774 -0.18365575 -0.4488815 -0.05626878
000190 1c a0 14 3e 46 07 54 bc a1 35 20 bc bd 12 89 3b
       0.14514202 -0.012941187 -0.009778411 0.004183142
0001a0 9d 40 56 3e 9a f1 dc 3c be 7e 9b bd 92 c6 c5 3d
       0.20923086 0.026970673 -0.075925335 0.09657015
0001b0 82 e3 a5 3d 89 ea 20 be 32 4a 28 be 46 1b ef bb
       0.08100034 -0.15714468 -0.16434553 -0.0072969524
0001c0 a9 0d bb bd 00 60 84 bd 4a ae 0f 3e 31 96 0b 3e
       -0.09133465 -0.06463623 0.1403133 0.13631512
0001d0 24 ee 83 3e cf 6c 04 be d7 ed d5 bd 11 6f f7 3d
       0.25767624 -0.12932132 -0.10445755 0.12081731
0001e0 3d da a9 3d cc 5e 43 be d8 7a 6b 3d df 85 65 3c
       0.08293579 -0.19079131 0.0574902 0.014008968
0001f0 d3 0c 45 3e 54 73 00 be 3a f4 17 3d c2 97 60 3e
       0.19243173 -0.12543994 0.037098147 0.21932891
000200 49 d6 12 bc 04 cd 67 3e ec a3 8a be fb 23 00 3c
       -0.008962222 0.22636801 -0.27078187 0.007821078
000210 92 5e 36 3e 50 91 1e 3d 76 42 7f 3e c0 23 f8 bd
       0.17809513 0.0387128 0.24927697 -0.12116194
000220 d5 4a 4e be 35 6f 27 3d 1c 46 36 bc 45 e1 1f be
       -0.20145734 0.04087754 -0.011125114 -0.15613277
000230 26 a0 1f be d3 a4 17 3e 8e 42 d3 3d 74 2c 4e 3d
       -0.15588436 0.14808969 0.10315429 0.050335363
000240 81 62 56 be 38 b1 9e 3d c4 0e e2 bd 9c 7b 3e 3e
       -0.20936014 0.077486455 -0.110379726 0.1860184
000250 27 4e 1e be 00 b6 b3 bd 0a f1 4e bd b3 65 03 be
       -0.154595 -0.08774948 -0.05052284 -0.12831764
000260 b0 82 37 3e a3 52 36 be a0 ae 83 bd 93 cb af 3e
       0.17920947 -0.17804961 -0.064297915 0.34335002
000270 d9 e7 26 be 35 b0 9e 3c 46 e0 61 be 2e fe 7f be
       -0.1629938 0.019371131 -0.2205821 -0.24999306
000280 e2 db 2f be 47 8d d3 3d 12 5b 9b 3d b8 dc 0d be
       -0.17173722 0.10329681 0.0758573 -0.13853729
000290 4d 82 ac bd aa a8 63 3d 61 60 47 bc b2 a3 67 be
       -0.084232904 0.055580772 -0.012168975 -0.22621039
0002a0 59 4b 93 3e 83 7a 13 be a5 ba 04 bc 1f d6 0f be
       0.28768423 -0.14402203 -0.00810114 -0.14046524
0002b0 ee 1f 2c bd 54 d7 dc 3d a2 09 07 be 5c 5f ac 3d
       -0.042022638 0.10783258 -0.13187268 0.08416626
0002c0 b0 72 1f be b6 6e b0 3d dd 2d 1a 3e 51 f0 19 3d
       -0.15571094 0.086148664 0.15056558 0.0375827
0002d0 3c 47 93 bd 64 e5 05 bc 5f ba 59 bd 30 c1 8c 3c
       -0.07191321 -0.008172367 -0.053156253 0.017181963
0002e0 3d a0 0a bd b8 6f 6e be 47 52 b7 3e 0a 88 04 be
       -0.03384422 -0.23284805 0.3580496 -0.1294252
0002f0 37 23 bf 3d 65 94 5f 3c 38 9d a3 3d c9 32 e3 bd
       0.093328886 0.01364622 0.079889715 -0.11093671
000300 5a d0 45 3b 5c 5c 32 3d 19 b5 a1 bd 4b ad dd bd
       0.0030184002 0.043545112 -0.0789587 -0.10824069
000310 d8 14 65 3e 4f 14 3b 3e ca 25 85 bd 0d 53 fd bc
       0.22371233 0.18269466 -0.06501348 -0.03092339
000320 57 b7 b7 bd cf 00 1d bd 00 71 a9 3d c1 64 30 be
       -0.08970516 -0.03833085 0.08273506 -0.17225935
000330 76 59 e9 3c ed 11 a3 bd a3 43 13 bd 91 fb 99 3d
       0.028485041 -0.079624034 -0.035953175 0.075186856
000340 51 5f 4c 3d 71 4a 7e 3d aa 3d ac bc 76 75 8e bd
       0.04989559 0.06208271 -0.021025497 -0.06955998
000350 7b 78 c3 3d a2 95 28 3e a0 85 4d 3d d5 4c 1b be
       0.09544464 0.1646333 0.050176263 -0.15166028
000360 54 3f 2c 3d 30 04 00 3e f8 c8 d4 3d 35 87 c1 bd
       0.042052582 0.12501597 0.10389894 -0.09449617
000370 0f d8 15 3d ce 3e 3c bc 9c da e5 3c 34 10 51 3e
       0.036583003 -0.011489583 0.028058343 0.20416337
000380 89 c1 75 be 33 68 44 3e f4 66 36 3e 17 75 c3 bd
       -0.23999609 0.19180374 0.17812711 -0.095438175
000390 90 d6 55 3e 39 21 26 3e 95 e3 04 be 3d e6 70 3e
       0.2088263 0.16223611 -0.1297744 0.23525329
0003a0 bf a4 71 bd 29 12 f9 3d 14 3e 0d 3e 55 cc aa 3d
       -0.058995005 0.12161667 0.13793212 0.083397545
0003b0 6e b4 15 3e 32 68 c3 3d 7b 63 05 bd df 59 03 bd
       0.1461961 0.09541358 -0.032565575 -0.03206813
0003c0 3b 1f b2 3d 04 80 d2 bd dd 8a fa bd 62 ee 13 be
       0.08697363 -0.10278323 -0.12233517 -0.14446405
0003d0 57 a1 c6 3d 7a 56 26 be 36 a2 74 bd e3 a0 46 3e
       0.09698742 -0.16243926 -0.05972501 0.19397311
0003e0 74 0e 2b 3e 66 c9 66 be 4c 5d 19 be 0f 37 28 be
       0.16704732 -0.22537765 -0.14976996 -0.16427253
0003f0 35 e4 9c 3d 0d ec 03 bd 18 a7 11 3e 95 e7 b5 3d
       0.076607145 -0.032207537 0.14223897 0.088820614

attention_layers.0.AttentionBlock.values_linear.bias f4 [30]
000000 b3 97 a5 bd ff db c3 3d cc 48 af 3d e0 dd 8c 3d
       -0.08085575 0.09563445 0.08558807 0.06878257
000010 85 55 a2 bd ae 1f 85 3d ef bc 8a 3d 88 f6 25 3e
       -0.07926468 0.06500183 0.067743175 0.16207325
000020 af da b0 3c a5 d4 b1 3e 20 29 78 be 70 ad 7f bb
       0.021588651 0.34732547 -0.24234438 -0.003901329
000030 e1 66 fb 3c 60 8b 35 3d 3a 56 5f 3e 46 dc a9 bd
       0.030688705 0.04432237 0.21810237 -0.08293967
000040 3a 89 08 be 01 43 92 bd 24 e4 ea bd ea cb 5e 3e
       -0.13333598 -0.07141686 -0.114692956 0.21757475
000050 b9 f7 08 be 15 e3 13 3d fd 5b e9 3d f7 e2 a4 bb
       -0.13375749 0.036105234 0.113944985 -0.005031939
000060 ed a2 06 3e b0 84 b2 3d 92 c5 8a bb cd c2 41 be
       0.13148089 0.087167144 -0.004234978 -0.18921967
000070 33 ea ad 3d a7 6d a1 bc
       0.084919356 -0.019705607

attention_layers.0.ffn.linear1.weight f4 [120, 30]
000000 1a b5 5c be c6 5a a2 bd 84 93 7f be 3a a5 0c 3e
       -0.2155346 -0.0792747 -0.24958616 0.13734904
000010 72 9c 67 be a9 71 d3 3d 2a 1b 60 bd be 2b 79 3d
       -0.22618273 0.10324413 -0.054713406 0.06083273
000020 45 2b ce 3d ec c6 f8 3d 57 af 58 3d 37 d7 ad be
       0.10066847 0.12147316 0.052901592 -0.33953258
000030 8c 3c 00 be fb a6 d3 3d 7e 95 12 3e e9 ae 17 be
       -0.12523097 0.10334583 0.14314839 -0.14812817
000040 91 33 88 be 8e f6 34 3d ce fd c7 3e 61 3e ad 3e
       -0.26601842 0.044180445 0.39060825 0.33836654
000050 0d ec b4 bd db 50 32 be b9 13 a2 bd 54 ed 48 bd
       -0.088340856 -0.17413656 -0.07913918 -0.04905446
000060 df b7 9a 3d 0b ca 54 3c 80 c4 64 3d b0 ee 81 3e
       0.07554602 0.012987624 0.05585146 0.25377417
000070 67 3c 1e 3e 92 bf 05 be 15 c9 32 be 11 84 29 be
       0.15452729 -0.1306136 -0.17459519 -0.16554286
000080 25 96 fb 3c ba 6c e0 3b 5c 97 f0 bd 55 06 2a be
       0.030711243 0.0068488987 -0.117476195 -0.16603978
000090 56 2b ce bd 28 66 ad 3d b2 6a 47 be a4 4b 3b 3d
       -0.100668594 0.084667504 -0.19474295 0.045726433
0000a0 8e 53 0c bd f3 dc 21 3c 4f c7 43 bd 62 f3 fb 3d
       -0.03425937 0.009879339 -0.047797497 0.12302281
0000b0 a0 90 7b 3d fc 75 f5 3d 70 0c 85 3d 0b b8 e1 3d
       0.061417222 0.11985394 0.06496513 0.110214315
0000c0 a2 cb 02 3e d3 38 93 3c a2 31 36 3e fd 95 b9 bc
       0.12772992 0.017971432 0.17792371 -0.022654528
0000d0 c8 ff dd bc 19 55 4b 3e 48 3e 0e bd 62 e3 be bd
       -0.027099505 0.19856681 -0.034727365 -0.093207136
0000e0 da 84 b9 bd c9 98 7c bd 80 9d 4e be d9 94 26 bd
       -0.090585425 -0.061669145 -0.20177269 -0.040669296
0000f0 33 a7 c5 3e 8f c1 07 be f6 5f 9c 3e f2 2c 08 bd
       0.38604125 -0.1325743 0.30541962 -0.03324599
000100 5a 4b b2 3d f4 f3 ec bd 03 94 1f be f0 bc b1 bc
       0.087057784 -0.11569968 -0.15583806 -0.021696538
000110 d2 96 81 be 47 05 c9 3c 8d 52 05 be 1f 3f 82 bc
       -0.2531038 0.02453865 -0.13019772 -0.01589924
000120 f8 c5 07 3e 00 d7 08 be 39 f9 0a 3e ac 03 0b 3e
       0.13259113 -0.13363266 0.13571633 0.1357562
000130 2b 13 4e 3e 0b c9 3c 3d 8f 68 a0 3d ea 39 5d bd
       0.201245 0.046090167 0.07832443 -0.05401031
000140 a1 6a 0c 3e b8 5e c6 3d ce 31 a0 3d a1 93 0d be
       0.1371255 0.09686035 0.078219995 -0.13825847
000150 68 08 f3 bd 3f 0d 5b be 73 dd 7d bd f9 8f e4 bd
       -0.11866838 -0.21391772 -0.06197877 -0.11160273
000160 73 05 34 3d 8d 70 41 bd 67 e5 24 be 5c e3 5f 3e
       0.04395051 -0.047226477 -0.16103135 0.21864074
000170 ea 87 1e bc 82 57 81 bd ad 53 0b 3d d4 7e c8 bd
       -0.009675959 -0.06315519 0.034015346 -0.097898155
000180 a5 7f 00 be fb ff 3c bd d1 db 1f 3d 8e b6 0e bd
       -0.12548693 -0.04614256 0.039027993 -0.034842066
000190 22 1c 19 be d3 7d d1 3c cb 44 a7 be 3d f0 85 3d
       -0.14952138 0.025572693 -0.32669672 0.065399624
0001a0 6f b1 61 be c5 78 1e be fb 38 a6 3d d5 68 34 be
       -0.22040342 -0.15475757 0.08116337 -0.17618115
0001b0 78 58 04 3f 56 d7 95 3e 16 91 43 3e 18 61 cc 3b
       0.5169749 0.2926585 0.19098315 0.0062371604
0001c0 3d e6 4d 3e 29 f3 63 3e a2 c8 fd 3d a7 43 2a be
       0.2010736 0.22260727 0.12391783 -0.1662737
0001d0 05 20 02 3e 7a d5 aa 3e 93 26 b3 be 30 d9 05 3e
       0.12707527 0.33365995 -0.34990367 0.13071132
0001e0 e1 c5 dc bd 3a eb ac 3c cd 50 b3 3d 57 3f e9 bd
       -0.1077993 0.021108259 0.08755646 -0.11389034
0001f0 f9 d0 e6 3c 5b dc 84 be 0c 5f 08 be 0a 2d 6a 3e
       0.028175818 -0.25949368 -0.13317508 0.22868744
000200 39 79 bd bd 6c 1a 48 be b5 09 d9 3d 47 fc 42 3e
       -0.09251637 -0.19541329 0.105975546 0.19041549
000210 c1 df 0f 3c a9 e2 81 bd 5f f1 a8 be 88 95 9a 3d
       0.008781374 -0.0634206 -0.32996652 0.07548052
000220 fa 1c 8b 3e de e6 d4 3e c0 86 4d ba f6 2b b6 3e
       0.27170545 0.41582388 -0.0007840209 0.35580415
000230 fe ac b8 bd c2 5d 32 be 9f 57 69 be c4 0f 37 be
       -0.09017371 -0.17418578 -0.22787331 -0.17877108
000240 fe 8c c5 3e 9f a7 2d bd 64 ea da 3d da e4 83 3d
       0.3858413 -0.042396184 0.10689238 0.06440134
000250 48 00 28 be 7e 7a b1 3d e5 36 89 be 51 59 10 3e
       -0.16406357 0.08665942 -0.26799694 0.14096572
000260 d8 d9 7b bd f5 41 35 3d d1 52 d1 3e 30 c8 9a 3d
       -0.06148705 0.044252355 0.40883496 0.07557714
000270 62 5a 33 3e 85 9a 09 3f 6a 0e cc 3d 4b d4 11 bf
       0.17514947 0.53751403 0.09963687 -0.5696456
000280 e3 2f 80 3e 5a d4 54 3e 26 96 68 bd 35 b1 3f 3e
       0.25036535 0.2078413 -0.056783818 0.18719943
000290 10 85 ac be 63 63 23 be 71 03 13 be 81 e6 40 bc
       -0.3369527 -0.15955882 -0.14356782 -0.011773706
0002a0 be 01 d9 3d ca f2 ec 3d b9 8a 49 3d 2e de 80 3e
       0.105960354 0.11569746 0.04920456 0.2516951
0002b0 df 39 78 3d 77 01 91 be d6 22 f2 bd 8d 12 86 be
       0.060602065 -0.2832143 -0.11823051 -0.26186028
0002c0 f5 28 65 3e c5 2b 15 3e b6 ad 15 be 24 83 01 be
       0.22378905 0.14567478 -0.14617047 -0.12647682
0002d0 8a 19 45 3e ce c4 93 bc 9a bb 1c bc e9 29 92 bd
       0.19248024 -0.01803818 -0.009566212 -0.071369
0002e0 9b 02 1d 3e fe 21 8d 3d c6 04 d8 bd d1 10 b9 3d
       0.15333025 0.06891249 -0.105477855 0.090364106
0002f0 9f 0a 7e be 27 be 90 bc c5 a8 a2 bd 2c ec b2 bd
       -0.24808739 -0.017668797 -0.079423465 -0.087364525
000300 82 ce 03 3e 32 57 21 bd c7 07 ce bc 52 58 3b bd
       0.12871745 -0.039389797 -0.025150193 -0.045738526
000310 1b ed ce bb d3 12 31 be ad 8b 31 3e 26 29 cc bd
       -0.0063148863 -0.17292337 0.17338438 -0.09968786
000320 3b 2c 89 3d 14 ae 84 3d 42 e7 c7 3b fe 8f 8a 3e
       0.066978894 0.06478515 0.006100566 0.27062982
000330 65 bd 90 bd 5e 0a b3 bd 2d 32 df 3d 89 e1 08 3e
       -0.07067374 -0.08742212 0.10898242 0.13367285
000340 ae 74 be bd 7f 99 ca bd 57 f5 02 bd 9e 3c 26 bb
       -0.09299599 -0.09892558 -0.031972256 -0.002536572
000350 ac a5 77 3e cc e7 07 be 3d 7a f7 bc 1f b4 50 bd
       0.24184293 -0.13272017 -0.030209655 -0.050953027
000360 3b 42 84 be 47 24 ae 3d a4 7b 57 be 3f 82 c1 3d
       -0.2583178 0.08503013 -0.21043259 0.094486706
000370 0c 45 c5 3d 66 03 6d bd 24 f5 88 be 9a a4 10 bd
       0.0963231 -0.05786457 -0.26749527 -0.035313226
000380 64 ee 9f bd 5d f1 03 be b3 3e a1 3d 3a d1 23 3e
       -0.07809141 -0.12885042 0.07873287 0.15997782
000390 07 f2 53 3e 43 d4 f9 3d 17 99 17 3d 90 45 9f be
       0.20697795 0.12198689 0.037011232 -0.3110776
0003a0 92 97 a7 bd 30 5e 8f 3e 93 16 ad bd 70 52 99 3d
       -0.081832066 0.28001547 -0.08451571 0.07486427
0003b0 fc 9f c4 3e 92 a5 33 3e 6e 22 dd 3d a6 26 17 bd
       0.38403308 0.17543629 0.107975826 -0.036902092
0003c0 d0 06 b7 bd 92 b6 0f 3c 48 31 e5 bc 9f 5d cf 3a
       -0.08936846 0.0087715555 -0.0279776 0.0015820748
0003d0 da 30 8a bd dd 3a b6 3c d4 5d 5f be dc d3 90 3e
       -0.06747599 0.022244865 -0.21813136 0.28286636
0003e0 f7 62 91 3d 25 29 82 bd b5 b1 93 3c cc 45 04 bd
       0.07098954 -0.06355504 0.018029073 -0.032293126
0003f0 a5 d9 2d be 38 6f a8 bd 22 7c 41 3d ab 60 34 bd
       -0.16977556 -0.08224338 0.047237523 -0.044037502

attention_layers.0.ffn.linear1.bias f4 [120]
000000 c1 3d 0d 3e ff 35 c7 3c 25 4b 13 be d5 35 07 be
       0.13793088 0.02431774 -0.14384134 -0.13204129
000010 14 17 ff bd c0 e3 37 be 59 30 33 bd 01 af e1 3c
       -0.12455574 -0.17957973 -0.04374728 0.027549269
000020 e1 56 cc bd b5 93 54 bd 05 95 ab bd 1f 79 fd bc
       -0.09977508 -0.051898677 -0.083780326 -0.030941544
000030 91 83 80 bd a1 e9 5a be 8c 5b 07 be 00 ba 0c bd
       -0.06275094 -0.21378185 -0.13218516 -0.03435707
000040 fb f2 94 be a3 d0 3e be 64 4f 6f be d5 0e 04 be
       -0.2909163 -0.18634276 -0.23370129 -0.12896283
000050 77 87 32 bd 9e 0d de bc ae 37 8f bc d3 0c 82 3c
       -0.04358622 -0.027106103 -0.017482605 0.015875256
000060 50 be ea bb 67 e2 e1 3b 06 bf 4a bd e5 eb 3b be
       -0.0071638003 0.0068934443 -0.04949858 -0.18351705
000070 15 64 66 be 23 db 06 be 95 9c 41 be 73 73 3b bd
       -0.22499116 -0.13169532 -0.18907388 -0.045764398
000080 c6 a1 15 bd 7f 9f 0d 3d 62 36 03 3d 85 aa 15 bc
       -0.036531232 0.034575935 0.032034285 -0.009134893
000090 91 8c 39 be e3 f8 01 3d 5c f0 12 bd 1e 21 08 bd
       -0.18120028 0.031731497 -0.035873756 -0.033234708
0000a0 b2 5a ce bd cd a8 78 3c af 6c 12 bd 11 16 2e be
       -0.100758925 0.015176964 -0.03574818 -0.17000605
0000b0 7c 96 57 be 86 ea ac 3c 4e c6 00 bd ac 42 45 3d
       -0.21053499 0.021107923 -0.031439118 0.048159286
0000c0 73 f0 8a be a9 5f de bd 35 2b 06 be cf 64 55 3c
       -0.27136573 -0.108580895 -0.1310242 0.013024523
0000d0 38 af 57 be cf ea 29 bd 9e 2d a8 3c cc 9a 38 be
       -0.21062934 -0.041483697 0.020529564 -0.180278
0000e0 70 81 28 be f5 8a 44 bd f7 85 6e be 61 67 47 be
       -0.16455626 -0.047984082 -0.23293291 -0.1947303
0000f0 58 35 ea bd 53 dc 36 be 4d 2e 80 be a0 46 44 bd
       -0.11435956 -0.17857485 -0.25035325 -0.047918916
000100 eb ad 37 be 25 7d 19 bc 99 72 46 be c4 52 92 be
       -0.17937438 -0.009368216 -0.19379653 -0.2857877
000110 e5 bd 1c be 42 ac e7 bd 81 5b 1b be 8e 36 a1 3d
       -0.15306814 -0.113121524 -0.15171625 0.078717336
000120 44 ac de 3d 20 d1 0d be a5 ea 84 be db 58 3d be
       0.10872701 -0.13849306 -0.2596027 -0.18490927
000130 7c e8 2c bd 21 84 2d be bb 01 da 3c d5 8a 01 be
       -0.042213902 -0.16944934 0.026612153 -0.12650616
000140 c5 71 6f be de 9a 85 bd 01 b2 34 3c ae a6 8e bd
       -0.23383243 -0.06523679 0.011028768 -0.069653854
000150 22 8c 77 be 2e c0 40 be a4 7b 02 be 04 fe 36 be
       -0.2417455 -0.1882331 -0.12742478 -0.17870337
000160 dd ed 38 be 33 30 23 be 17 86 f6 bc c1 02 d9 bd
       -0.18059488 -0.15936355 -0.030093236 -0.105962284
000170 c0 ea 9d bd 4e db 32 be e0 90 9e bd 29 d0 56 3d
       -0.07710791 -0.1746647 -0.077424765 0.05244461
000180 18 b3 70 3a ca a1 4b be 66 d0 ed 3c 2b cd 2b bc
       0.00091819605 -0.19885936 0.029030036 -0.010485928
000190 3f 44 b8 3c 28 88 59 3b 86 d2 7a be 0a 43 83 bd
       0.02249348 0.0033192728 -0.24494371 -0.06409271
0001a0 0a 7c 8c be 78 b4 fb 3d 29 64 32 bd 7c c7 29 3d
       -0.27438384 0.12290281 -0.04355255 0.04145001
0001b0 8c 6f a2 be 32 08 4f be 4a 6f 86 bd fe 92 e2 bc
       -0.3172573 -0.2021797 -0.065641955 -0.027657982
0001c0 14 8a c2 bd 25 72 dc bc e3 98 b9 bc 64 2b 68 be
       -0.094989926 -0.026909897 -0.02265591 -0.22672802
0001d0 f0 ec 0b 3d d9 4b 36 be e7 6d ad 3c cc 50 38 be
       0.034161508 -0.17802371 0.02117057 -0.17999572

attention_layers.0.ffn.linear2.weight f4 [30, 120]
000000 40 a2 97 bd 68 fa aa bd c8 6e 40 3d 44 a9 49 3e
       -0.074039936 -0.083485425 0.04698065 0.19693476
000010 ac 30 f2 3e 33 b9 5b bc 71 55 0e 3e b0 f1 05 be
       0.4730276 -0.013410854 0.13899781 -0.13080478
000020 08 09 50 bc 0f da 8d 3d 5e 4a db bd 34 6a f1 3d
       -0.012697466 0.06926357 -0.10707544 0.11787835
000030 35 b9 2d 3e 8e 29 d3 bb 45 4b 60 3e 25 bc eb 3d
       0.16965182 -0.0064441627 0.21903713 0.11510495
000040 da 12 8d 3d a5 82 44 bc e8 39 f3 3d 94 e6 74 bc
       0.06888361 -0.011994039 0.11876279 -0.014947552
000050 13 00 3d 3e 66 74 a0 bd 0c d3 d7 bd d0 24 46 bd
       0.1845706 -0.07834701 -0.10538301 -0.04837495
000060 31 de 55 bd de 59 b0 bd 9f 2f d7 bb b5 9d ce bd
       -0.05221385 -0.08610891 -0.006566956 -0.10088674
000070 f9 3f f3 bd 82 eb 11 3d 35 2c a1 3d 8e 1d c5 3d
       -0.11877436 0.03562499 0.0786976 0.09624778
000080 78 7e 3c 3e 14 89 aa 3d 7e 0a 1f be c5 33 f7 3d
       0.18407619 0.08326927 -0.15531346 0.12070421
000090 f8 77 05 3e 05 2d 06 be de bc 75 3d b5 1e b6 bb
       0.13034046 -0.13103111 0.05999457 -0.00555786
0000a0 83 44 66 3e 7a dc 8e bd c2 03 3b 3e 23 8f b7 3d
       0.22487073 -0.06975646 0.18263152 0.08962848
0000b0 27 be db 3c e2 7a 1e 3e c3 52 67 3d 95 b9 07 3e
       0.02682407 0.15476564 0.056475412 0.13254388
0000c0 5f 21 38 3d 7e 16 97 3c cb 6a 4d bd a7 d4 98 bc
       0.0449537 0.018443342 -0.050150674 -0.018656088
0000d0 c4 5b 5b 3d 58 da 05 bd 4a b9 29 bd f9 d7 3b 3e
       0.05355431 -0.032678932 -0.04143647 0.18344106
0000e0 46 a4 bb be 3b 87 19 3d f6 35 42 bd 4a 9e b8 3b
       -0.36648768 0.03748248 -0.047414742 0.005634104
0000f0 9a 36 f4 3d bc 3e 1d be 77 3e 32 3d cf 0c c9 3d
       0.11924477 -0.15355963 0.043516602 0.09816896
000100 00 8e 3b be 4b c6 3e 3d 8e 0f 06 be 22 ae 63 bc
       -0.18315887 0.046575826 -0.13091871 -0.013896497
000110 85 09 73 bd 3b 39 0f 3d 1e 38 51 be 9f 92 7d 3d
       -0.05933525 0.03496669 -0.20431563 0.061907407
000120 e8 7a 94 3d 77 ec 5d bd 36 70 27 bc 91 a1 c8 bd
       0.07250005 -0.05418059 -0.010219624 -0.09796441
000130 d7 ed 95 bc 0c 64 92 3d d0 91 0f bc cb 02 aa be
       -0.018301887 0.07147989 -0.008762792 -0.33205256
000140 d9 d3 c7 3b 65 91 88 be 52 1f e9 bd c5 b9 94 bd
       0.0060982523 -0.26673427 -0.11382927 -0.07261995
000150 78 ba 68 3c fd d2 a7 3d a4 f7 6f 3b 3a e7 0e be
       0.014204614 0.0819454 0.0036616111 -0.13955393
000160 2d 49 d0 bd e5 28 08 be 3d ef 94 bc 62 0d 25 be
       -0.10170207 -0.1329685 -0.018180484 -0.16118386
000170 23 fe 50 bd ba ed 20 bd 3f e1 71 3b 4a 6d cf 3d
       -0.051023614 -0.039289214 0.0036907939 0.10128267
000180 65 e7 bb 3d b1 7b 3c 3e d1 f9 7e be 76 15 4a bc
       0.091749944 0.1840656 -0.24899985 -0.012334218
000190 54 6d b1 3d 36 76 8b 3a ff 1d 98 3d 4e 89 3a bc
       0.08663431 0.0010640088 0.07427596 -0.011385275
0001a0 4e be 1e bd 2d aa 61 3d c2 fb 14 3e 4b 46 c8 3d
       -0.038755707 0.055093933 0.14549163 0.09779032
0001b0 16 fc 70 3c 45 85 87 3e ea fa 07 3d 4b 22 2d 3c
       0.0147085395 0.26468864 0.033198275 0.010567258
0001c0 04 8a d2 bd f4 33 a5 3d b1 87 00 3e c0 1a d8 3d
       -0.10280231 0.0806655 0.12551762 0.10551977
0001d0 82 0a 82 be e2 4f 11 bd 8c 1c a8 3d ab 23 7f 3c
       -0.25398642 -0.035476573 0.0820857 0.015572469
0001e0 94 90 3b 3d fe 1d b5 3c 90 14 94 bd 6d 16 16 3e
       0.045792177 0.022109028 -0.072304845 0.14656992
0001f0 d3 84 9f bd 10 1d e0 bd b4 70 a1 3d c0 3e d6 bd
       -0.07789006 -0.10943043 0.078828245 -0.10461187
000200 c7 5b 00 3d 1a 52 43 be 32 cb 87 3d 66 f3 9f bd
       0.031337526 -0.19074288 0.06630553 -0.078100964
000210 2d 77 92 39 10 81 d4 ba 53 ad e9 3d 68 c8 8a 3d
       0.00027936083 -0.001621278 0.11410012 0.06776506
000220 e9 ef 53 3e 3f b6 66 3e 71 1a 19 bd 9e 4c 9f 3d
       0.20696987 0.22530459 -0.037378732 0.077782854
000230 d9 02 08 3e 54 50 ab bd 05 9d 1d 3d 84 3c 61 be
       0.13282336 -0.08364931 0.038479824 -0.21995741
000240 de db b7 3d 00 11 d4 3c 40 0b af be f7 76 e2 3c
       0.08977483 0.025887012 -0.3418827 0.027644617
000250 70 d0 8b be 68 6a da 3c 24 6c 67 bd eb fa 22 3f
       -0.27307463 0.026662067 -0.056499615 0.6366412
000260 a1 2a b4 3d 67 6f f9 3d f3 92 2f be 90 6d 53 bd
       0.08797193 0.121794514 -0.171459 -0.05161816
000270 18 a9 c3 bd 64 5f 55 3d 68 15 3a 3d 9c d7 7f bc
       -0.095537364 0.052092925 0.04543057 -0.01561537
000280 ae 0c c9 3d 88 b3 43 bd a2 ce 8a bd 15 aa da bb
       0.098168716 -0.047778636 -0.06777693 -0.0066731074
000290 b6 d5 78 be bc bf ae 3d c4 39 37 bd 19 b1 23 bd
       -0.24300274 0.08532664 -0.044732824 -0.039963815
0002a0 da 3f 39 3c 91 cc 8b bd e6 a4 58 3d db 5e 15 3e
       0.011306727 -0.06826127 0.052891634 0.14586966
0002b0 48 d5 d5 be be 86 08 3e 6d e2 0c bd 87 7a 0c be
       -0.41764283 0.1333265 -0.034395624 -0.13718615
0002c0 b7 d7 b1 be 27 b2 09 3e af 9c 01 3d 24 80 9e 3c
       -0.3473489 0.13446866 0.031643566 0.019348212
0002d0 c0 b0 b5 bc 29 cb 66 3e ac d8 01 3e 37 29 c4 be
       -0.022179008 0.22538437 0.1268031 -0.38312694
0002e0 c3 6f bd bd 91 f9 6d bd 93 f5 b0 3d ee 1b b0 3d
       -0.092498325 -0.058099333 0.086405896 0.08599077
0002f0 fd 31 c3 3d 57 17 4b bd 94 22 96 bd d0 19 a1 3e
       0.09531019 -0.049582805 -0.07330814 0.31465006
000300 3f 39 0e bd 99 94 11 3e 5e a2 46 be 7a d9 ee bc
       -0.034722563 0.14216842 -0.19397876 -0.029156435
000310 a1 05 75 3d 4c df f7 3d aa 62 62 bc 2c 6e 02 3e
       0.05981982 0.121031374 -0.013817469 0.1273734
000320 e3 dc 38 3d 20 e2 40 3d ab 69 c3 bd 3a 2d f9 bc
       0.04513253 0.04709065 -0.09541639 -0.030417074
000330 e8 f3 81 3e 89 56 1a bd 2d a7 ee bd 1e 51 86 bc
       0.25381398 -0.037680183 -0.1165298 -0.016396102
000340 68 91 52 3d 87 ec 47 3d fc b4 1b 3d 92 58 88 3d
       0.0514082 0.048809554 0.038014397 0.066575184
000350 ae 55 26 be 27 44 38 3d f7 53 4b 3d 62 1e 1e 3e
       -0.16243622 0.04498687 0.049640622 0.15441278
000360 a3 60 00 bd cc 93 7f bd a4 21 de bc 7f df 9a 3b
       -0.03134216 -0.06239681 -0.02711565 0.00472635
000370 a7 15 b4 3d 10 fa cc 3b 5d f8 e1 bd 14 a4 0d 3c
       0.08793192 0.0062553957 -0.110337 0.008645076
000380 f0 60 6b bc 8f d4 40 3e 4f 58 29 be ae 7f 56 3d
       -0.014366373 0.18831085 -0.16537593 0.05236786
000390 ea ba 32 bd 62 53 07 3e c4 01 55 3d 96 53 05 3e
       -0.043635286 0.13215402 0.052003637 0.13020167
0003a0 13 2d 8c 3c 5b 69 89 3e ba f8 4e bd 97 22 98 3d
       0.017111337 0.26838192 -0.050530173 0.074284725
0003b0 37 75 ad bd 23 3f 47 be 54 fb fc bc 92 ca 4a 3d
       -0.084696226 -0.19457678 -0.030881561 0.049509592
0003c0 bf ba 68 be c9 e1 24 3d 82 7a ee bc 4c ca 84 3d
       -0.22727488 0.040254388 -0.02911115 0.064838976
0003d0 b2 ab b6 bd 78 be 88 3e 99 2e a8 bb 5c db 36 3a
       -0.08919467 0.26707816 -0.005132508 0.0006975436
0003e0 65 78 e3 bd 95 59 46 3d 60 51 de 3d 6c 2d 3f 3e
       -0.11106948 0.048425276 0.10855365 0.18669671
0003f0 a7 e7 2d 3e e3 84 d8 bd f3 6e 6d 3d 25 ab eb bc
       0.169829 -0.10572221 0.057967138 -0.028768132

attention_layers.0.ffn.linear2.bias f4 [30]
000000 f6 08 29 3b 59 aa 58 3c d0 c5 5b 3c 90 10 ff bd
       0.0025792695 0.013224208 0.013413861 -0.12454331
000010 ec 25 9c 3d 97 0e ba bd 37 ec 07 3d 64 86 c4 bd
       0.076244205 -0.09084814 0.033184256 -0.095959455
000020 61 74 6c bb b8 b4 bc bd 54 33 29 3d a4 44 ad 3d
       -0.003608011 -0.09214157 0.041308716 0.08460358
000030 62 5d dd bd 84 eb 14 be 1d 46 9b bd 7b 10 ab bd
       -0.10808827 -0.14542967 -0.075817324 -0.08352753
000040 19 96 7d 3d 1d d8 e8 3d 6b 9f c7 bc 42 1c 60 bc
       0.061910722 0.11369345 -0.024368009 -0.013678612
000050 6d ca 90 3d 54 4a a1 bd 28 71 5b bd 90 7e df bb
       0.0706986 -0.07875505 -0.05357471 -0.0068205073
000060 da a0 04 bd 0a f5 8f bd 4a ab ea 3c 84 8b 29 bd
       -0.032379963 -0.07029159 0.02864613 -0.041392818
000070 a3 3d 8a bd b6 d7 c9 3d
       -0.067500375 0.09855597
